checkpoints/test1_CycleNet_solar_data_bs32_ftMS_sl96_ll48_pl96/checkpoint.pth (torch, 399271 bytes, 5 tensors)

cycleQueue.data f4 [24, 12]
000000 00 00 00 00 00 00 00 00 00 00 00 00 00 00 00 00
       0.0 0.0 0.0 0.0
000010 00 00 00 00 00 00 00 00 00 00 00 00 00 00 00 00
       0.0 0.0 0.0 0.0
000020 00 00 00 00 00 00 00 00 00 00 00 00 64 0b cd bb
       0.0 0.0 0.0 -0.0062574614
000030 00 00 00 00 00 00 00 00 00 00 00 00 00 00 00 00
       0.0 0.0 0.0 0.0
000040 00 00 00 00 00 00 00 00 00 00 00 00 00 00 00 00
       0.0 0.0 0.0 0.0
000050 00 00 00 00 00 00 00 00 00 00 00 00 99 82 61 ba
       0.0 0.0 0.0 -0.00086025294
000060 00 00 00 00 00 00 00 00 00 00 00 00 00 00 00 00
       0.0 0.0 0.0 0.0
000070 00 00 00 00 00 00 00 00 00 00 00 00 00 00 00 00
       0.0 0.0 0.0 0.0
000080 00 00 00 00 00 00 00 00 00 00 00 00 80 41 03 3c
       0.0 0.0 0.0 0.008011222
000090 00 00 00 00 00 00 00 00 00 00 00 00 00 00 00 00
       0.0 0.0 0.0 0.0
0000a0 00 00 00 00 00 00 00 00 00 00 00 00 00 00 00 00
       0.0 0.0 0.0 0.0
0000b0 00 00 00 00 00 00 00 00 00 00 00 00 a2 82 4d 3c
       0.0 0.0 0.0 0.012543352
0000c0 00 00 00 00 00 00 00 00 00 00 00 00 00 00 00 00
       0.0 0.0 0.0 0.0
0000d0 00 00 00 00 00 00 00 00 00 00 00 00 00 00 00 00
       0.0 0.0 0.0 0.0
0000e0 00 00 00 00 00 00 00 00 00 00 00 00 7d 66 70 3b
       0.0 0.0 0.0 0.0036682182
0000f0 00 00 00 00 00 00 00 00 00 00 00 00 00 00 00 00
       0.0 0.0 0.0 0.0
000100 00 00 00 00 00 00 00 00 00 00 00 00 00 00 00 00
       0.0 0.0 0.0 0.0
000110 00 00 00 00 00 00 00 00 00 00 00 00 0b 26 8f bc
       0.0 0.0 0.0 -0.017474195
000120 00 00 00 00 00 00 00 00 00 00 00 00 00 00 00 00
       0.0 0.0 0.0 0.0
000130 00 00 00 00 00 00 00 00 00 00 00 00 00 00 00 00
       0.0 0.0 0.0 0.0
000140 00 00 00 00 00 00 00 00 00 00 00 00 c6 b0 d5 bc
       0.0 0.0 0.0 -0.026085269
000150 00 00 00 00 00 00 00 00 00 00 00 00 00 00 00 00
       0.0 0.0 0.0 0.0
000160 00 00 00 00 00 00 00 00 00 00 00 00 00 00 00 00
       0.0 0.0 0.0 0.0
000170 00 00 00 00 00 00 00 00 00 00 00 00 22 99 cc bc
       0.0 0.0 0.0 -0.024975363
000180 00 00 00 00 00 00 00 00 00 00 00 00 00 00 00 00
       0.0 0.0 0.0 0.0
000190 00 00 00 00 00 00 00 00 00 00 00 00 00 00 00 00
       0.0 0.0 0.0 0.0
0001a0 00 00 00 00 00 00 00 00 00 00 00 00 6f a1 09 3c
       0.0 0.0 0.0 0.008400305
0001b0 00 00 00 00 00 00 00 00 00 00 00 00 00 00 00 00
       0.0 0.0 0.0 0.0
0001c0 00 00 00 00 00 00 00 00 00 00 00 00 00 00 00 00
       0.0 0.0 0.0 0.0
0001d0 00 00 00 00 00 00 00 00 00 00 00 00 f3 f4 15 3c
       0.0 0.0 0.0 0.009152639
0001e0 00 00 00 00 00 00 00 00 00 00 00 00 00 00 00 00
       0.0 0.0 0.0 0.0
0001f0 00 00 00 00 00 00 00 00 00 00 00 00 00 00 00 00
       0.0 0.0 0.0 0.0
000200 00 00 00 00 00 00 00 00 00 00 00 00 87 ee 29 3c
       0.0 0.0 0.0 0.010371811
000210 00 00 00 00 00 00 00 00 00 00 00 00 00 00 00 00
       0.0 0.0 0.0 0.0
000220 00 00 00 00 00 00 00 00 00 00 00 00 00 00 00 00
       0.0 0.0 0.0 0.0
000230 00 00 00 00 00 00 00 00 00 00 00 00 af 3f 44 3c
       0.0 0.0 0.0 0.011978074
000240 00 00 00 00 00 00 00 00 00 00 00 00 00 00 00 00
       0.0 0.0 0.0 0.0
000250 00 00 00 00 00 00 00 00 00 00 00 00 00 00 00 00
       0.0 0.0 0.0 0.0
000260 00 00 00 00 00 00 00 00 00 00 00 00 b1 b6 38 3c
       0.0 0.0 0.0 0.011274026
000270 00 00 00 00 00 00 00 00 00 00 00 00 00 00 00 00
       0.0 0.0 0.0 0.0
000280 00 00 00 00 00 00 00 00 00 00 00 00 00 00 00 00
       0.0 0.0 0.0 0.0
000290 00 00 00 00 00 00 00 00 00 00 00 00 46 79 00 3c
       0.0 0.0 0.0 0.007841414
0002a0 00 00 00 00 00 00 00 00 00 00 00 00 00 00 00 00
       0.0 0.0 0.0 0.0
0002b0 00 00 00 00 00 00 00 00 00 00 00 00 00 00 00 00
       0.0 0.0 0.0 0.0
0002c0 00 00 00 00 00 00 00 00 00 00 00 00 18 0b 34 3c
       0.0 0.0 0.0 0.010988973
0002d0 00 00 00 00 00 00 00 00 00 00 00 00 00 00 00 00
       0.0 0.0 0.0 0.0
0002e0 00 00 00 00 00 00 00 00 00 00 00 00 00 00 00 00
       0.0 0.0 0.0 0.0
0002f0 00 00 00 00 00 00 00 00 00 00 00 00 3c 03 5a 3c
       0.0 0.0 0.0 0.013306435
000300 00 00 00 00 00 00 00 00 00 00 00 00 00 00 00 00
       0.0 0.0 0.0 0.0
000310 00 00 00 00 00 00 00 00 00 00 00 00 00 00 00 00
       0.0 0.0 0.0 0.0
000320 00 00 00 00 00 00 00 00 00 00 00 00 56 02 85 bc
       0.0 0.0 0.0 -0.016236465
000330 00 00 00 00 00 00 00 00 00 00 00 00 00 00 00 00
       0.0 0.0 0.0 0.0
000340 00 00 00 00 00 00 00 00 00 00 00 00 00 00 00 00
       0.0 0.0 0.0 0.0
000350 00 00 00 00 00 00 00 00 00 00 00 00 bd a7 e1 bc
       0.0 0.0 0.0 -0.027545804
000360 00 00 00 00 00 00 00 00 00 00 00 00 00 00 00 00
       0.0 0.0 0.0 0.0
000370 00 00 00 00 00 00 00 00 00 00 00 00 00 00 00 00
       0.0 0.0 0.0 0.0
000380 00 00 00 00 00 00 00 00 00 00 00 00 9f 54 ae bc
       0.0 0.0 0.0 -0.021280585
000390 00 00 00 00 00 00 00 00 00 00 00 00 00 00 00 00
       0.0 0.0 0.0 0.0
0003a0 00 00 00 00 00 00 00 00 00 00 00 00 00 00 00 00
       0.0 0.0 0.0 0.0
0003b0 00 00 00 00 00 00 00 00 00 00 00 00 2c 87 da ba
       0.0 0.0 0.0 -0.0016672364
0003c0 00 00 00 00 00 00 00 00 00 00 00 00 00 00 00 00
       0.0 0.0 0.0 0.0
0003d0 00 00 00 00 00 00 00 00 00 00 00 00 00 00 00 00
       0.0 0.0 0.0 0.0
0003e0 00 00 00 00 00 00 00 00 00 00 00 00 83 33 4f 3c
       0.0 0.0 0.0 0.012646559
0003f0 00 00 00 00 00 00 00 00 00 00 00 00 00 00 00 00
       0.0 0.0 0.0 0.0

model.0.weight f4 [512, 96]
000000 1b f1 b9 bc 09 18 16 3d 5a 5c aa 3d ec 97 fa bb
       -0.022697976 0.036644015 0.08318396 -0.007647505
000010 d0 44 47 3c a9 7d d9 3d 40 30 32 bc 4e 6d 49 bd
       0.012162402 0.10619671 -0.0108757615 -0.049176507
000020 34 7f 63 bd a4 6c 0a bd a4 a5 89 3d cc d6 94 bd
       -0.055541232 -0.033795014 0.067210466 -0.07267532
000030 ab 5d fc 3c 4b 33 6a 3d ed 21 a3 bd 19 ad 1b bc
       0.030806383 0.057177823 -0.07965455 -0.009501719
000040 ea 3d 87 bd 21 04 a7 3d f5 b4 4b bc 99 1d de bd
       -0.06603606 0.081550844 -0.01243328 -0.10845489
000050 b4 5e 64 3d df b0 09 bd 61 8f 10 bd 21 a5 7b bd
       0.05575438 -0.033615943 -0.035292987 -0.061436776
000060 7f a6 c6 3d 15 96 00 3d 13 f3 21 3d 3e bf c4 bd
       0.09699725 0.03139313 0.039538454 -0.09606789
000070 b4 19 8a bc e3 48 8c 3d 0d 28 fa 3b 22 51 63 bb
       -0.01685796 0.068498395 0.007634169 -0.003468581
000080 85 78 6f 3c a4 f3 51 3d 8e ea 63 bd fa 28 d8 3c
       0.014616136 0.051257744 -0.05564361 0.026386727
000090 c0 5c 9e bd 05 1e 45 bd 0b c0 b7 bd 85 9a 2a 3d
       -0.077325344 -0.048124332 -0.08972176 0.041651268
0000a0 9b 82 f9 3b 61 9f a3 3d 26 ae c7 bd d6 55 05 3d
       0.0076144463 0.079893835 -0.09750013 0.032552563
0000b0 b7 cd c7 bd 95 ed de bd 16 4e ca bc 1d 18 89 3c
       -0.09756034 -0.10885159 -0.024695437 0.01673513
0000c0 7d b0 9f bd 12 7c 46 3d 90 b4 a7 3c d8 59 bd 3d
       -0.07797334 0.048458166 0.020471841 0.09245652
0000d0 e3 33 dd bb c6 0b b7 3d c9 e5 8e bd b0 34 c9 3d
       -0.00675057 0.089377925 -0.06977422 0.098245025
0000e0 37 8c b3 3d 5f 8d a4 3c 04 c5 4f bd 47 30 ce 3d
       0.08766978 0.020086942 -0.050724998 0.10067802
0000f0 69 37 81 3c f4 fd 36 bc c4 8e 5e bd a5 29 30 bd
       0.015773492 -0.011168946 -0.05433537 -0.043008465
000100 72 ad 18 3d 2f 10 62 3d 8b f0 93 3c 07 08 a6 3d
       0.037274785 0.055191215 0.018059036 0.08107
000110 81 04 b6 bc 6b 34 91 bd e5 fd cd bd 91 32 be 3d
       -0.022218945 -0.07090076 -0.10058192 0.092869885
000120 da 8e 95 3b 5b 1b 8c bd 70 c5 8e bd f3 10 a3 3d
       0.0045641484 -0.06841155 -0.06971252 0.07962217
000130 87 44 aa 3d 61 de 52 bd c9 25 7d 3d da ee 68 bd
       0.08313852 -0.05148161 0.061803613 -0.05686841
000140 4e d8 cd 3d 60 fb 8b bc 70 44 af 3d e0 2e 8f bd
       0.100510225 -0.017087638 0.08557975 -0.069913626
000150 b6 33 21 3d ab 4f fd 3b 66 fd b3 bd dc e4 c1 bc
       0.039355956 0.0077304444 -0.08788566 -0.023668699
000160 25 08 a9 bd ef 6e 61 bd 3e f4 8d 3d b9 c1 73 bd
       -0.082535066 -0.055037435 0.06931351 -0.05951092
000170 a1 72 57 bd 70 aa 11 bd 1d 9b 50 3d a5 04 24 3d
       -0.052599553 -0.035562932 0.050929178 0.040043492
000180 ec 1e 56 3d 3e cf bb bd 37 a4 82 3d 25 2f b1 3d
       0.052275583 -0.09170388 0.06378978 0.0865157
000190 4c 8b 96 3d 85 30 78 bd c2 8b 5e 3d be c9 a8 bd
       0.073507875 -0.060593147 0.054332502 -0.08241604
0001a0 7d 5b e8 bd 03 eb 8f bc b5 2e 6b bd 16 1c ac 3d
       -0.11345575 -0.017568117 -0.05741759 0.084037945
0001b0 9e f0 81 bd 55 ba 19 3d 51 71 30 3d de 81 4f 3c
       -0.06344722 0.037531216 0.043076817 0.01266524
0001c0 bf 52 51 bc d8 8b a6 3d b3 83 65 3d b4 87 0c ba
       -0.012776076 0.08132142 0.0560338 -0.00053607975
0001d0 30 f0 eb 3d 66 49 13 3d 40 aa bd bd fc 99 bf bd
       0.115204215 0.03595867 -0.09260988 -0.09355542
0001e0 65 60 c3 bd 1e 2a af 3d 6d 18 9f bd 6c be aa 3d
       -0.0953987 0.08552955 -0.07768331 0.08337101
0001f0 fc 67 4f bc a7 9a d8 bd f1 b3 72 3d 2a 57 d3 3c
       -0.012659069 -0.105763726 0.059253637 0.025798399
000200 10 06 b0 3d 97 d2 d6 bd 22 a8 81 bd 23 4e 36 bd
       0.08594906 -0.104893856 -0.06330897 -0.04450811
000210 f9 20 7f 3d e1 85 be 3d b8 7b ad 3d 0d 31 cd 3d
       0.062287305 0.09302879 0.08470863 0.10019121
000220 97 d4 00 3d 42 0f 76 3d 49 02 ac 3d c9 11 b4 3d
       0.03145274 0.060073145 0.08398873 0.08792455
000230 20 ad 2b 3d 0d d2 88 3d be 3f dd 3a 98 33 5b 3d
       0.04191315 0.06680689 0.0016879959 0.053516
000240 b1 0f ca bc f5 82 7f bc 32 f4 86 bc de dd 81 3d
       -0.024665685 -0.015595187 -0.016473863 0.06341146
000250 f8 7e 9a 3d 20 06 8e 3d f6 d3 85 bd d5 b4 90 3d
       0.075437486 0.06934762 -0.06534569 0.07065741
000260 4f 82 d8 3c 74 31 19 bd 5e 27 6a bc b8 71 a8 bd
       0.026429323 -0.037400678 -0.014291612 -0.08224815
000270 16 92 d8 3d ab 6a ad bd 45 00 af bd 89 c2 cc 3c
       0.10574739 -0.08467611 -0.08544973 0.024995105
000280 e9 b7 57 3d 4d 18 c1 bc 54 71 58 3d e4 06 31 bd
       0.052665625 -0.023571158 0.052842453 -0.043219462
000290 c1 11 ea 3c 38 39 8e bd 39 04 8d 3d 14 83 68 bd
       0.028572919 -0.06944507 0.06885571 -0.05676563
0002a0 e2 01 61 3d 09 00 ca bd b5 cd 07 bd f0 62 14 ba
       0.054933436 -0.09863288 -0.033155162 -0.0005660495
0002b0 f9 b2 69 bd a3 f1 ec 3c 49 fb bc 3b b7 4f 70 bd
       -0.057055447 0.028923815 0.00576726 -0.058669772
0002c0 1c 7f ce bd 4c ee cf bd f5 98 b1 bd 39 88 ae 3d
       -0.10082838 -0.101528734 -0.08671752 0.08522076
0002d0 a8 96 57 3d da d4 ac bd 9f af 88 3c 5d 34 3d bd
       0.05263391 -0.08439036 0.016685305 -0.046192516
0002e0 51 e7 9b 3d 1a bf a4 bc 39 3d 8e bd db 2f ca 3d
       0.076124795 -0.020110656 -0.06945271 0.09872409
0002f0 08 c3 8d 3d 04 51 b6 bd d1 3b 20 bc f5 93 04 bd
       0.06921965 -0.08902171 -0.009779886 -0.032367665
000300 4c 13 13 3b 96 31 5e bd c3 67 c8 3c 94 e7 ab 3c
       0.0022441922 -0.054246508 0.02446354 0.020984448
000310 b2 31 0e bb 29 2f 39 3c ee 0a b3 3c cb ba ad 3c
       -0.0021697101 0.011302748 0.021855798 0.021207234
000320 1c 25 80 3d 3e 89 b8 bd f3 fa b0 3d f8 07 57 bd
       0.06257078 -0.09010552 0.08641615 -0.052497834
000330 f1 01 50 bd 52 07 3f bc 93 cc 53 bb 6c 31 99 3d
       -0.0507831 -0.01165946 -0.003231798 0.074801296
000340 f7 3a 3e 3d a9 53 94 bd 5b fc 39 bc 7b fe cc bd
       0.046442952 -0.072425194 -0.01135167 -0.10009476
000350 8b 4d d7 bc 8e 04 bd 3d 61 74 af bd c9 a0 78 bd
       -0.026282093 0.09229384 -0.085671194 -0.06070021
000360 94 1d d0 bc cc eb 9d 3d d9 3d e6 bc 69 95 3b 3d
       -0.025404729 0.0771099 -0.028105663 0.045796786
000370 bf 90 d6 bd 3b 43 9c bb 86 0b c5 3a 2e 04 0e 3d
       -0.10476827 -0.0047687567 0.0015033341 0.034671955
000380 cf 25 17 bd 9d 7f 7f bb 01 3f 82 bd c7 33 bf 3c
       -0.03690129 -0.0038985976 -0.06359673 0.023340119
000390 f6 f8 c0 3c 84 ff 00 bd af 4a d2 bd 24 46 14 3d
       0.023556214 -0.03149368 -0.10268151 0.036199704
0003a0 4b d7 32 bd 98 9b 9f 3d 45 49 42 bb e3 b0 86 3d
       -0.04366235 0.07793349 -0.0029645723 0.06576707
0003b0 79 e4 2b 3d fd f3 06 bd 83 cf 92 bc 2d 83 bd 3d
       0.041965935 -0.03294753 -0.017921215 0.092535354
0003c0 f1 32 11 3d 1a 16 26 bd b8 90 d5 bd b9 e0 78 3d
       0.035448972 -0.04054842 -0.104279935 0.060761187
0003d0 c6 33 af 3d 23 ab 6c 3d 28 60 79 3d 33 14 87 3d
       0.08554797 0.057780396 0.060882717 0.065956496
0003e0 5b b0 b3 3d f8 f2 dd 3d 8a 07 b8 3d df 11 15 3d
       0.087738715 0.10837358 0.08985813 0.036393996
0003f0 43 ea 96 3d 51 da 66 3c 56 d2 83 bc e1 4e d0 bd
       0.073689006 0.014090137 -0.016091507 -0.10171295

model.0.bias f4 [512]
000000 52 fc f9 3c 3b 91 43 3d 4b 79 a6 3d 61 6b a5 bd
       0.030515824 0.047745924 0.081286035 -0.080771215
000010 75 74 2a bd 3e ed 5e bd ec 20 b3 3d 46 2b 57 3d
       -0.04161497 -0.05442547 0.08746514 0.052531503
000020 ff 98 8d bd fa fc 1d bd 43 52 5b bd 2e c0 52 3c
       -0.06913947 -0.038571335 -0.053545248 0.012863202
000030 9e 3f 05 3b 4f 2e 21 3d 4d 47 8d bb 4f da a5 bd
       0.0020332108 0.039350804 -0.004311478 -0.0809828
000040 d0 71 d8 3d f0 96 68 3d ab 11 d0 bc 15 ef 43 bd
       0.10568583 0.05678457 -0.02539905 -0.04783543
000050 4e 2d d6 bd c6 3e 80 3d 72 54 79 bd 74 52 8c 3d
       -0.1045786 0.06261973 -0.06087155 0.06851664
000060 6a 26 c0 bd c6 e3 2d 3d 9d 9a 83 3c 06 70 4b bd
       -0.09382327 0.04245355 0.016064936 -0.04966738
000070 8c 25 2b 3d 50 48 ec 3c b1 9d 86 3c 3e f6 25 bd
       0.041783854 0.028843075 0.016432615 -0.040518038
000080 8e 39 bc bc 44 18 36 bc e4 fb cb 3d 11 6d bb bd
       -0.022976663 -0.011114184 0.09960154 -0.09151662
000090 34 15 61 bd 0d 9f 11 3d 9a 32 a9 3d 10 1a 1a bd
       -0.05495186 0.035552073 0.082616046 -0.03762251
0000a0 6d ca e0 3d 12 e8 89 bd 47 55 32 bd e2 fd ba 3d
       0.1097611 -0.06733717 -0.043538358 0.091304556
0000b0 97 7c 0c bd 27 18 40 3d 35 55 b2 bd f0 f2 3b bd
       -0.034298506 0.046898033 -0.08707658 -0.04588598
0000c0 78 12 8d bd d5 c4 a3 bd fe fe ba bc 30 c0 1e bb
       -0.06888288 -0.07996527 -0.022826668 -0.002422344
0000d0 b3 80 e9 bb e7 bf 1c 3d 98 26 17 3d 4b ab 22 3c
       -0.007125938 0.03826895 0.03690204 0.009928535
0000e0 b9 b9 92 3d 8c b7 ba ba f6 c7 19 bd f6 7a 8a 3c
       0.0716433 -0.0014245375 -0.037544213 0.016904335
0000f0 de 12 09 bb 9a 79 a3 3d b4 76 a4 3d 4c d5 16 bd
       -0.0020915787 0.07982178 0.08030453 -0.03682451
000100 53 91 79 3d 99 d8 d6 bc 1e 8f 79 3d 97 3b 1b 3c
       0.060929608 -0.026226329 0.060927503 0.009474657
000110 bb 8b 99 3c 5e e7 50 3d f9 0f d3 3d 1f d1 95 bd
       0.018743386 0.0510019 0.10305781 -0.07315277
000120 84 9b 99 3c b2 6e 8c 3c df 24 87 3c 13 e3 04 3d
       0.018750913 0.017142627 0.016497074 0.032443117
000130 79 02 b7 3c cd da 89 3d 86 57 8f bd df 82 b7 bc
       0.022340046 0.06731186 -0.06999116 -0.022401271
000140 19 c5 f0 bc 94 50 82 bd 66 bf 33 3d 13 c3 3f 3d
       -0.029390858 -0.06363025 0.043883704 0.046816897
000150 3a cb 76 bc 13 72 3a 3d 92 65 3c bd 32 12 e7 3c
       -0.015063101 0.045518946 -0.045995302 0.028206918
000160 3b 5f 3f 3b cc 1a 04 bd 5f 1b 27 3c 4c 48 44 bd
       0.002920105 -0.032252118 0.010199397 -0.04792051
000170 21 71 92 3d dc ff bb bd 31 46 50 bd 8f 09 d4 3b
       0.07150484 -0.09179661 -0.05084819 0.006470866
000180 23 b8 6c bd 25 ca ca 3d 69 31 02 3d 89 5c 1f bd
       -0.057792794 0.09901837 0.031785402 -0.038906608
000190 e7 75 c2 bd 64 69 89 3d 84 cb 8b bd d6 35 9c 3d
       -0.09495144 0.06709555 -0.06825927 0.07627456
0001a0 7c 19 8f 3d 14 19 87 3c 5d 59 1c bd bb 8a cd 3c
       0.06987283 0.01649145 -0.03817116 0.025090566
0001b0 56 77 db 3d 75 cb 9b 3d b4 74 c7 3d cb 7e 96 3d
       0.10716121 0.07607166 0.09739056 0.073484026
0001c0 a4 1f a2 3d e3 2b 93 3d 67 87 b9 bd 79 6f 84 3d
       0.07916191 0.07186105 -0.09059029 0.06466574
0001d0 b5 32 8c bd 31 21 98 bd 42 6a d1 3d 73 e9 a0 bd
       -0.06845609 -0.07428206 0.10225345 -0.07857027
0001e0 bd 62 a1 bd c1 74 60 3d cb a5 17 bd e0 e4 a3 3d
       -0.07880161 0.054798845 -0.037023347 0.08002639
0001f0 64 be a4 3d e7 e1 32 3d da 7a 4e 3c 68 93 9c 3d
       0.08044127 0.04367247 0.012602532 0.07645303
000200 e5 e9 89 bd 05 90 bb bc 43 50 50 3d 7b b7 dc 3d
       -0.06734065 -0.022895822 0.050857794 0.107771836
000210 50 64 72 3c dd 3c 23 bc f8 9b b2 bd 2f 1d b0 bd
       0.014794424 -0.009963241 -0.08721155 -0.08599316
000220 b6 1d ce bc e8 8a ae 3d 10 21 58 3d 84 be c1 3d
       -0.025160652 0.08522588 0.052765906 0.09460166
000230 6a d7 9a 3d 43 42 98 bb 29 e4 33 bd 6e f1 cd 3c
       0.07560618 -0.004646571 -0.043918762 0.025139537
000240 7f dc 40 bd a6 e2 92 bc 5d 95 a0 3d 45 13 af 3d
       -0.04708528 -0.01793034 0.07840989 0.08548597
000250 46 a8 15 bd 38 10 1b 3d e0 03 9e 3d ae f7 76 bd
       -0.03653743 0.037857264 0.07715583 -0.0602948
000260 72 54 77 3c 1e 70 8f bd 35 68 3d bd fb c4 29 bd
       0.015095817 -0.070038065 -0.046241958 -0.04144762
000270 00 fb 0d bd a8 01 03 bd bb 6f 9a 3b cb 4a 8a bc
       -0.0346632 -0.031984 0.0047130263 -0.016881367
000280 d9 ed ac bd a9 5f ca bd 58 5e 92 bd 22 44 26 bc
       -0.08443803 -0.09881527 -0.07146901 -0.01014808
000290 29 01 5e bd c5 c5 47 bd 45 98 ba bc 9a 41 6d 3d
       -0.054200325 -0.048772592 -0.022777686 0.05792389
0002a0 ea b4 7a 3d 5b 69 83 bc 13 2c 0f bd 80 ca 90 bc
       0.06120769 -0.016041448 -0.03495414 -0.017674685
0002b0 20 cd ce bc 60 55 02 bd 6b 1c b3 bd d1 d1 90 3d
       -0.025244296 -0.0318197 -0.08745655 0.07071269
0002c0 69 41 91 3c 5f 1a d2 bd 31 69 13 3d 67 09 88 3d
       0.017731385 -0.10258936 0.03598899 0.06642418
0002d0 1c b6 b7 bc 00 66 a6 3d 98 1a 15 bd a6 ee c6 bc
       -0.022425704 0.08124924 -0.036402315 -0.024283718
0002e0 f4 b0 59 3d 8d 96 d9 3c 09 14 a9 bd 65 87 b3 bc
       0.05314727 0.026561046 -0.082557745 -0.021915147
0002f0 33 57 a4 3d 1f 56 7e 3d c8 32 8e bd b8 07 35 bb
       0.080244444 0.06209385 -0.069432795 -0.002762301
000300 47 1c 7d bd a4 41 95 bd 82 36 8d 3d 04 22 86 3c
       -0.061794546 -0.072879106 0.06895162 0.016373642
000310 de c2 a8 bc 34 15 aa bc 9e b2 73 bd c7 f7 e7 3a
       -0.020600732 -0.020762064 -0.059496514 0.0017697745
000320 cf 10 84 3d 71 db b5 bd 13 11 13 3d 4d 3e 99 3d
       0.064485185 -0.08879746 0.035904955 0.07482586
000330 55 df 1c 3d c7 63 5f 3d 6e 03 a9 3d 19 3d 58 3c
       0.038298924 0.054538514 0.08252607 0.013198161
000340 15 c0 5e 3d 01 20 5c ba aa 51 8e 3d ec 32 87 3d
       0.054382402 -0.0008397103 0.0694917 0.066015095
000350 d1 a6 91 3d 4d 5a 15 3d 9f c5 aa bd 9b ce 46 3d
       0.07111896 0.03646307 -0.083384745 0.048536878
000360 b8 37 dc 3d 1a a1 ae 3b 89 4d d1 3d 90 85 e7 3c
       0.10752815 0.0053292634 0.10219867 0.02826193
000370 ea 25 8e 3d 9e 9a 90 3d ed 85 4b 3d cb 06 10 3d
       0.06940825 0.07060741 0.04968827 0.03516273
000380 72 70 a3 bd 3e fb 86 bd ba fd 08 bd e7 bc b5 3d
       -0.079804316 -0.065908894 -0.033445098 0.08873921
000390 4f c1 4b bb 66 81 ea 3c f9 7e c6 bc 16 1d 64 3c
       -0.0031090563 0.028626155 -0.024230467 0.01392295
0003a0 4f f9 04 bd f3 9b 8c bd 85 f1 88 3c 1b c9 92 bd
       -0.03246432 -0.068656825 0.016716728 -0.07167264
0003b0 9e ac a1 bd 44 37 8b 3d ec 84 c9 bc 3b 37 db 3c
       -0.07894252 0.067976505 -0.024599515 0.026759734
0003c0 69 bc 2c bc 6c a5 af bd b1 7e 9e bd 00 95 b1 bc
       -0.010542967 -0.085764736 -0.07739008 -0.021677494
0003d0 a9 7c 24 bc 47 1d 5c 3d 56 b0 46 3d 6c 29 a3 3d
       -0.010039487 0.05373886 0.04850801 0.07966885
0003e0 a0 e8 9c bd 6b 62 0c bc 38 5d 84 3d 2c 5c 8c bd
       -0.07661557 -0.008568387 0.064630926 -0.06853518
0003f0 87 cd 2b 3d 22 6d 36 bd 67 3e bb 3d 49 68 91 3d
       0.041944053 -0.04453767 0.09142762 0.07099969

model.2.weight f4 [96, 512]
000000 74 72 21 3d 93 31 e7 bc 95 62 20 3d 7b c5 ea bb
       0.03941579 -0.028221881 0.039156515 -0.007164655
000010 d1 b2 de bb b0 09 cc 3c c3 4b c0 3c 73 64 97 bc
       -0.006796219 0.024906963 0.023473626 -0.018480515
000020 92 16 30 3d d3 4f ac ba 0c 1a 29 bd fd 01 34 bd
       0.042990275 -0.0013146348 -0.041284606 -0.04394721
000030 5c 65 2a bd 2a 44 94 bb eb 34 29 3d ab 3f e9 3c
       -0.04160057 -0.0045247274 0.041310232 0.028472742
000040 8b 92 52 bc 89 39 0a 3d c3 95 93 bc b9 98 5b bd
       -0.012852321 0.033746276 -0.018015748 -0.053612445
000050 b5 23 f4 3c 2d 0f 4d bb 14 ba 91 bc 74 45 35 3d
       0.029802183 -0.0031289563 -0.017788924 0.04425569
000060 23 d4 17 bd bd 5d 73 3d 27 e0 ca 3b 15 5c c7 3c
       -0.037067544 0.059415568 0.006191272 0.0243359
000070 53 50 ba 3c 01 ea fa 3c 3d 70 cd 3c 93 96 12 bd
       0.02274338 0.03062916 0.025077933 -0.03578813
000080 75 12 fa 3c f7 ad 0a 3d 49 b2 05 3d 00 9c 15 3d
       0.03052638 0.033857312 0.03264073 0.036525726
000090 96 5e 91 3b f2 b3 06 3c 54 2b 5d bc 0e a0 e7 3c
       0.0044363244 0.008221613 -0.0134991 0.028274562
0000a0 c5 33 36 3c 35 96 9b bc e7 65 89 3c 2d 8c f0 bc
       0.011120741 -0.018992523 0.016772224 -0.029363716
0000b0 4a 02 81 bc c0 84 d0 bc 8e 8f 28 3a 70 56 fc 3c
       -0.015748162 -0.025453925 0.0006430083 0.030802935
0000c0 de bd 3f 3b 89 e9 fb 3c d0 ba 90 3b 05 0c 2a bd
       0.0029257457 0.030751007 0.004416801 -0.04151537
0000d0 f1 e7 b6 ba 00 44 22 bd 86 ce 17 3d e2 3e 45 3d
       -0.0013954622 -0.03961563 0.03706219 0.048155673
0000e0 4a 2a df 3c 74 64 05 3c 11 c3 a7 3c 0a 06 37 3d
       0.027241845 0.008141626 0.020478757 0.044683494
0000f0 31 21 dc 3c 1b 1c 35 bd ec 95 b4 bc 4f cb 2d bc
       0.026871296 -0.044216257 -0.022044145 -0.010607555
000100 61 d5 08 3d 0d df 06 bd cd b0 9f 39 f6 75 ab ba
       0.03340662 -0.03292756 0.0003045857 -0.001308142
000110 a3 eb a1 3b 85 92 15 3d 1d 2a d2 3b 30 17 36 bd
       0.00494142 0.036516685 0.0064137117 -0.044455707
000120 39 8c 53 3c df fc 6d 3d 45 3e 9c bb 7f c1 79 3c
       0.01291185 0.058102485 -0.0047681653 0.015243887
000130 ae 94 19 bd 1e cc 0d bd 0b a8 f4 bc 7a 8a 99 bb
       -0.037495308 -0.03461849 -0.029865285 -0.004685697
000140 48 99 e1 3c bd 35 ce 3b 39 4c 05 3d 3d 9e a8 3c
       0.02753891 0.006293027 0.032543395 0.020583266
000150 f7 52 27 3d 20 a7 b5 bb 57 80 1c bc 89 65 56 3b
       0.040850606 -0.0055436045 -0.009552083 0.0032714328
000160 6c 43 41 3c 60 89 4a 3c 34 00 f1 3c f6 d8 85 3c
       0.01179586 0.012361854 0.029419042 0.016338807
000170 d9 e7 52 bc 5d 7a 1e bc 46 bf f8 3c 5d 7f 4c bc
       -0.01287266 -0.009672728 0.030364644 -0.012481538
000180 c6 b1 20 bc 3b 0d 0e bd 70 66 8b 3b 01 18 4f bd
       -0.0098080095 -0.034680586 0.004254155 -0.05056
000190 cb 92 01 3d 78 aa a2 3b 88 08 17 3d f1 12 0d bd
       0.031634133 0.004964169 0.03687337 -0.034441892
0001a0 b9 e4 10 3d 66 20 89 bc af 29 b7 bc 37 00 1d 3d
       0.035374377 -0.016739082 -0.022358743 0.038330283
0001b0 93 01 20 3d d0 9f 40 3d 56 d1 aa 3c a6 68 a1 bc
       0.039064 0.04702741 0.020851772 -0.01970322
0001c0 fa 91 70 3d 75 53 28 3c dc 44 28 3d 67 ef 81 bb
       0.058732964 0.010273804 0.041081294 -0.0039653066
0001d0 af 16 02 3d 70 f1 d8 3c b3 72 28 bc 0b 3a ac 3b
       0.031759914 0.026482314 -0.010281253 0.0052559427
0001e0 53 78 24 3d 75 0c 47 3d cf 5a dc bc a7 9b 4a 3d
       0.040153813 0.048595864 -0.02689877 0.049464848
0001f0 44 0d 3f bd e3 4d 69 bc 07 27 35 bc 71 79 25 3d
       -0.04664351 -0.014239761 -0.011056668 0.04039902
000200 6a 6d 11 bd 46 de d6 bc ba 26 88 bc 59 90 44 3d
       -0.035504736 -0.026229035 -0.016620029 0.047989223
000210 7b 83 af 3c 40 1b 05 3d 7c 97 d2 bb 2b cd b6 bc
       0.021425 0.03249669 -0.0064267498 -0.022314629
000220 a3 69 8a bc 65 d7 36 bd e4 f7 87 3b db af b3 bc
       -0.016896075 -0.04463901 0.004149424 -0.02193444
000230 17 10 c5 3c 1c 2e 0b 3c f1 d3 e4 3c 75 66 8c 3c
       0.024055524 0.00849488 0.027933093 0.0171387
000240 74 71 cf bc e9 b1 53 bc f6 68 17 bd 58 e7 98 3c
       -0.025322653 -0.012920835 -0.036965333 0.018665
000250 de 91 e6 3b 18 2b 98 ba 43 96 25 bd 22 3b db bb
       0.0070364317 -0.0011609523 -0.040426504 -0.006690399
000260 ba e8 a5 bc 2c 5e 91 bc dd dc e0 bc cb 99 04 3c
       -0.020252574 -0.0177451 -0.027449066 0.008093308
000270 f4 32 98 3c 81 83 dc bc b1 e6 f6 3b 37 cd af 3c
       0.018578984 -0.026918175 0.007534825 0.021460159
000280 ef 02 69 bd 68 ed 94 bc 0e ee 96 3c 85 6e ef 3c
       -0.056887563 -0.01817961 0.01842406 0.029227505
000290 4d a2 10 3b 96 ba d5 3c 31 3a 1a 3d cb 13 dd bc
       0.0022069395 0.026089948 0.037653152 -0.026986977
0002a0 2c 90 49 3b 97 d1 c6 bb f9 19 8b bc c3 f7 e1 3c
       0.00307561 -0.0060674655 -0.016980158 0.027583962
0002b0 2f 4d 6d bc 50 e1 2f bd 4c 26 46 bd 20 01 ab bc
       -0.014483734 -0.042939484 -0.048376366 -0.02087456
0002c0 ea a3 43 bc 54 31 aa 3c 82 7c c3 bc 33 f0 fd 3b
       -0.011940936 0.020775475 -0.02386308 0.0077495812
0002d0 8f 1e e8 3c b4 d1 d7 3c f9 ab 99 ba 8a 48 b6 3c
       0.028334884 0.026345111 -0.0011724225 0.022251386
0002e0 62 22 3e bc ef 36 9d 3b 9f aa 8c bc 15 67 96 bb
       -0.011604877 0.0047978084 -0.017171202 -0.004589925
0002f0 04 64 5c bd 7d 32 83 3c 57 d1 16 bd a8 2d e0 bc
       -0.05380632 0.016015286 -0.036820736 -0.02736552
000300 18 39 b3 3c 50 a1 ff bb 65 c1 01 3c c9 ed 03 3c
       0.02187781 -0.0078012124 0.007919644 0.008052298
000310 35 ec c8 bc 49 38 30 bd 37 fd d0 3c 68 fb b6 3c
       -0.024526695 -0.043022428 0.025511367 0.022336677
000320 29 57 e4 bc 7f 48 43 3d d3 c4 04 3d eb 2e dd bc
       -0.027873592 0.04767656 0.03241427 -0.026999911
000330 59 bc 25 bd 98 00 2e bd cc 81 3d 3d 96 ea 3c 3c
       -0.040462825 -0.042481035 0.046266362 0.011530539
000340 a7 cc b9 3b 72 77 ef bc 5c 94 8a 3c 5d 93 11 bd
       0.0056701484 -0.02923176 0.016916446 -0.035540927
000350 dd 0f f4 bc e8 43 aa 3b 88 c1 2b bd 74 43 5a bb
       -0.02979272 0.0051960833 -0.041932613 -0.0033304365
000360 e4 2c cc bc 43 5d 39 3d c2 9f b0 3c 89 77 b6 3c
       -0.02492375 0.045254957 0.021560553 0.022273796
000370 ce 02 e5 bc ab f3 ac 3c 0a 7f 7f 3c 6d 5a 6d bc
       -0.027955439 0.021112284 0.015594253 -0.014486891
000380 34 74 5a 3d 1c 49 a0 bb ed ef 8b bc 68 1e 63 bc
       0.053333476 -0.004891528 -0.017082179 -0.01386223
000390 05 cc 3e bd bb 41 40 bd 8d 26 c0 3c 3d d3 d1 3c
       -0.046581287 -0.046937685 0.023455882 0.025613422
0003a0 0f c2 8a bc 16 02 d0 3a 03 3e 3d 3d 1b 7a 30 3c
       -0.016938237 0.0015869762 0.046201717 0.0107713
0003b0 50 ea 26 bd c9 c7 4d bb 9a a4 13 3d f1 3c 5d 3d
       -0.0407508 -0.0031399599 0.03604565 0.054013196
0003c0 4d 40 87 3c 93 09 15 bc ba a6 03 bd c9 46 13 3c
       0.016510153 -0.009096521 -0.032141425 0.008989044
0003d0 d0 77 fd 3c d1 c5 be 3b 4f 84 0e 3d ed 1e b1 3a
       0.03094092 0.0058219214 0.034794148 0.0013513245
0003e0 fa 96 83 bc c7 e4 ef 3c 95 4a 03 bd 07 a3 04 bd
       -0.016063202 0.029283894 -0.03205355 -0.032382037
0003f0 39 90 0f 3d df 06 6e bc 0f 0d dc ba 67 8f 58 bd
       0.03504965 -0.014528005 -0.001678856 -0.052871134

model.2.bias f4 [96]
000000 55 bd c9 bc 3b 97 fc 3c 66 39 07 bd 78 b4 35 3c
       -0.024626413 0.030833831 -0.033013724 0.01109039
000010 1e 59 2e bc e2 82 70 bc 44 eb 17 3d 42 50 dc 3c
       -0.010641364 -0.014679642 0.0370896 0.026893739
000020 ad 05 1a 3d 29 44 30 3d 6f 48 1a bd e3 04 da 3c
       0.03760307 0.043033753 -0.037666734 0.026613658
000030 f9 c4 f3 3c 8e e4 c6 3c a1 b9 07 bd 24 e5 18 3d
       0.02975701 0.024278905 -0.033136014 0.0373279
000040 74 4e 24 3d f0 25 2e 3c 6a 47 1b 3c 8c d6 db 3c
       0.04011388 0.010629162 0.009477476 0.026835702
000050 de cb 16 bd ab 4f f1 bc 75 1e 3c bb b3 b3 90 bc
       -0.036815517 -0.029456934 -0.0028704677 -0.017663812
000060 92 43 82 3c 22 c9 c5 ba 0c 2d b2 3c c7 1a b1 bc
       0.01590136 -0.001508985 0.021749996 -0.021619214
000070 c5 b0 0d bd 36 3c 4d 3c 36 fe fb 3c c2 31 ba bc
       -0.03459241 0.012526562 0.030760866 -0.022728804
000080 fb 9e 10 3d c1 e3 ab bc a3 86 26 3d c0 df 71 ba
       0.035307866 -0.020982625 0.040655743 -0.0009226762
000090 5f 21 11 bd ae 1e 1a bd d5 99 51 3b b3 62 75 bc
       -0.035432216 -0.037626915 0.003198256 -0.014977145
0000a0 d4 37 ba 3b ed 68 84 3a 09 82 98 3c 8c 01 7d bb
       0.0056829248 0.0010102071 0.018616693 -0.0038605658
0000b0 b3 0e 7d 3a 62 9f a9 bb 98 dc 8e 3c 02 ad 16 bd
       0.00096533744 -0.0051764706 0.017439172 -0.036786087
0000c0 cf 4f f0 3c d9 c6 7f 3c bd 74 0d bd e9 ff 97 3b
       0.02933493 0.015611374 -0.03453516 0.004638661
0000d0 2e 49 3f 3c 48 b5 a1 3c 4a 86 95 3c 45 27 d5 bc
       0.011675162 0.019739762 0.01825251 -0.026019702
0000e0 8d cd 06 bb e8 c6 18 bc 28 7e 85 3a 42 97 27 3d
       -0.0020569295 -0.009324767 0.0010184692 0.040915735
0000f0 d0 dc 26 3c 4e 59 e7 3c cf 95 f5 bc af 28 86 3a
       0.010184482 0.028240826 -0.02997866 0.0010235513
000100 88 6a a1 3c d4 d1 a3 bb 5b 65 4e 3d af 95 85 bb
       0.019704118 -0.0049993787 0.05038963 -0.0040766816
000110 95 99 d5 3c de ca ea 3b b1 b9 a5 3a 4e ad 2f bd
       0.02607421 0.007165297 0.0012643841 -0.042889886
000120 c5 6a fe bb 10 63 ca bc f2 70 f6 bc ae 56 85 3c
       -0.0077641928 -0.02470544 -0.030083153 0.016276684
000130 8e ed c0 bc 5b f8 1f 3d 97 52 0c bc d2 6d 4a 3d
       -0.023550775 0.03905521 -0.008564613 0.04942114
000140 f6 d0 31 bd dd 06 c7 3c 48 19 e5 bb d2 e7 85 bc
       -0.04341217 0.024295265 -0.006991539 -0.016345892
000150 68 39 b6 3c 15 8c db 3b f0 65 c2 3c d4 03 1c 3d
       0.02224417 0.0067000487 0.023730248 0.03808959
000160 61 64 74 bc 7d eb be bc 55 0f d7 bb 45 3e 03 3d
       -0.01491651 -0.023305649 -0.006563107 0.032041807
000170 19 aa 7b 3c 44 26 9e 3c 70 e9 b5 bc ff cd fb bb
       0.015360379 0.019305356 -0.022206038 -0.0076844688
