checkpoints/test1_CycleNet_solar_data_bs32_ftMS_sl96_ll48_pl96/checkpoint.pth (torch, 399271 bytes, 5 tensors)

cycleQueue.data f4 [24, 12]
00000000: 0000 0000 0000 0000 0000 0000 0000 0000
00000010: 0000 0000 0000 0000 0000 0000 0000 0000
00000020: 0000 0000 0000 0000 0000 0000 effc ed3c
00000030: 0000 0000 0000 0000 0000 0000 0000 0000
00000040: 0000 0000 0000 0000 0000 0000 0000 0000
00000050: 0000 0000 0000 0000 0000 0000 0fe6 043c
00000060: 0000 0000 0000 0000 0000 0000 0000 0000
00000070: 0000 0000 0000 0000 0000 0000 0000 0000
00000080: 0000 0000 0000 0000 0000 0000 f415 1cbc
00000090: 0000 0000 0000 0000 0000 0000 0000 0000
000000a0: 0000 0000 0000 0000 0000 0000 0000 0000
000000b0: 0000 0000 0000 0000 0000 0000 a8a3 6c3b
000000c0: 0000 0000 0000 0000 0000 0000 0000 0000
000000d0: 0000 0000 0000 0000 0000 0000 0000 0000
000000e0: 0000 0000 0000 0000 0000 0000 5fb5 6a3c
000000f0: 0000 0000 0000 0000 0000 0000 0000 0000
00000100: 0000 0000 0000 0000 0000 0000 0000 0000
00000110: 0000 0000 0000 0000 0000 0000 e703 45bc
00000120: 0000 0000 0000 0000 0000 0000 0000 0000
00000130: 0000 0000 0000 0000 0000 0000 0000 0000
00000140: 0000 0000 0000 0000 0000 0000 417c a1bc
00000150: 0000 0000 0000 0000 0000 0000 0000 0000
00000160: 0000 0000 0000 0000 0000 0000 0000 0000
00000170: 0000 0000 0000 0000 0000 0000 b508 69bc
00000180: 0000 0000 0000 0000 0000 0000 0000 0000
00000190: 0000 0000 0000 0000 0000 0000 0000 0000
000001a0: 0000 0000 0000 0000 0000 0000 b0b0 c83b
000001b0: 0000 0000 0000 0000 0000 0000 0000 0000
000001c0: 0000 0000 0000 0000 0000 0000 0000 0000
000001d0: 0000 0000 0000 0000 0000 0000 6336 bf3b
000001e0: 0000 0000 0000 0000 0000 0000 0000 0000
000001f0: 0000 0000 0000 0000 0000 0000 0000 0000
00000200: 0000 0000 0000 0000 0000 0000 dd11 183c
00000210: 0000 0000 0000 0000 0000 0000 0000 0000
00000220: 0000 0000 0000 0000 0000 0000 0000 0000
00000230: 0000 0000 0000 0000 0000 0000 fb37 e33c
00000240: 0000 0000 0000 0000 0000 0000 0000 0000
00000250: 0000 0000 0000 0000 0000 0000 0000 0000
00000260: 0000 0000 0000 0000 0000 0000 b4c7 013d
00000270: 0000 0000 0000 0000 0000 0000 0000 0000
00000280: 0000 0000 0000 0000 0000 0000 0000 0000
00000290: 0000 0000 0000 0000 0000 0000 47bb 4c39
000002a0: 0000 0000 0000 0000 0000 0000 0000 0000
000002b0: 0000 0000 0000 0000 0000 0000 0000 0000
000002c0: 0000 0000 0000 0000 0000 0000 fae3 55bb
000002d0: 0000 0000 0000 0000 0000 0000 0000 0000
000002e0: 0000 0000 0000 0000 0000 0000 0000 0000
000002f0: 0000 0000 0000 0000 0000 0000 febb 4c3b
00000300: 0000 0000 0000 0000 0000 0000 0000 0000
00000310: 0000 0000 0000 0000 0000 0000 0000 0000
00000320: 0000 0000 0000 0000 0000 0000 1ea3 59bc
00000330: 0000 0000 0000 0000 0000 0000 0000 0000
00000340: 0000 0000 0000 0000 0000 0000 0000 0000
00000350: 0000 0000 0000 0000 0000 0000 a9ed a4bc
00000360: 0000 0000 0000 0000 0000 0000 0000 0000
00000370: 0000 0000 0000 0000 0000 0000 0000 0000
00000380: 0000 0000 0000 0000 0000 0000 d890 47bc
00000390: 0000 0000 0000 0000 0000 0000 0000 0000
000003a0: 0000 0000 0000 0000 0000 0000 0000 0000
000003b0: 0000 0000 0000 0000 0000 0000 041f 283c
000003c0: 0000 0000 0000 0000 0000 0000 0000 0000
000003d0: 0000 0000 0000 0000 0000 0000 0000 0000
000003e0: 0000 0000 0000 0000 0000 0000 84cc 2439
000003f0: 0000 0000 0000 0000 0000 0000 0000 0000
0.0 0.0 0.0 0.0 0.0 0.0 0.0 0.0
0.0 0.0 0.0 0.029051272 0.0 0.0 0.0 0.0
0.0 0.0 0.0 0.0 0.0 0.0 0.0 0.008111491
0.0 0.0 0.0 0.0 0.0 0.0 0.0 0.0
0.0 0.0 0.0 -0.009526718 0.0 0.0 0.0 0.0
0.0 0.0 0.0 0.0 0.0 0.0 0.0 0.003610829
0.0 0.0 0.0 0.0 0.0 0.0 0.0 0.0
0.0 0.0 0.0 0.014325469 0.0 0.0 0.0 0.0
0.0 0.0 0.0 0.0 0.0 0.0 0.0 -0.012024856
0.0 0.0 0.0 0.0 0.0 0.0 0.0 0.0
0.0 0.0 0.0 -0.01971257 0.0 0.0 0.0 0.0
0.0 0.0 0.0 0.0 0.0 0.0 0.0 -0.014223267
0.0 0.0 0.0 0.0 0.0 0.0 0.0 0.0
0.0 0.0 0.0 0.0061245784 0.0 0.0 0.0 0.0
0.0 0.0 0.0 0.0 0.0 0.0 0.0 0.005835341
0.0 0.0 0.0 0.0 0.0 0.0 0.0 0.0
0.0 0.0 0.0 0.009281603 0.0 0.0 0.0 0.0
0.0 0.0 0.0 0.0 0.0 0.0 0.0 0.027736655
0.0 0.0 0.0 0.0 0.0 0.0 0.0 0.0
0.0 0.0 0.0 0.031684592 0.0 0.0 0.0 0.0
0.0 0.0 0.0 0.0 0.0 0.0 0.0 0.00019524722
0.0 0.0 0.0 0.0 0.0 0.0 0.0 0.0
0.0 0.0 0.0 -0.0032637105 0.0 0.0 0.0 0.0
0.0 0.0 0.0 0.0 0.0 0.0 0.0 0.0031239982
0.0 0.0 0.0 0.0 0.0 0.0 0.0 0.0
0.0 0.0 0.0 -0.013283519 0.0 0.0 0.0 0.0
0.0 0.0 0.0 0.0 0.0 0.0 0.0 -0.020132856
0.0 0.0 0.0 0.0 0.0 0.0 0.0 0.0
0.0 0.0 0.0 -0.01218053 0.0 0.0 0.0 0.0
0.0 0.0 0.0 0.0 0.0 0.0 0.0 0.010261301
0.0 0.0 0.0 0.0 0.0 0.0 0.0 0.0
0.0 0.0 0.0 0.00015716447 0.0 0.0 0.0 0.0

model.0.weight f4 [512, 96]
00000000: 9686 a9bc c442 bc3d 730f 16bd 2d0b ddbd
00000010: 92ee 0fbd c255 383d 525d afbc 1d60 58bc
00000020: ba0b c8bc 9185 82bd c6dc a2bd 769e f73c
00000030: 40b8 5ebd 084f e53c 6e0b 2a3d 1a1d 7c3d
00000040: 7f2b 163d 580f 0b3c 8b93 213d c76f cdbc
00000050: db94 ebbb 0776 0bbd 145b b53d a504 1a3d
00000060: 0e35 c3b9 7198 353c 3544 713d ed43 8d3d
00000070: f508 133d e50e 9d3d ad42 063d 291c b93d
00000080: e456 b2bb a15a c3bd 8d9e 7b3d 284f dabc
00000090: 08d2 083d b783 d4bd 4412 25bd 78a5 d33d
000000a0: ca2e 9a3d 0c83 4dbc 5ecb 54bd b2b8 b7bc
000000b0: 2734 c93d 0449 9fbd 208a b93c fd9f b7bd
000000c0: ed0e dd3d 455a a63d 2d09 bf3d e612 d53c
000000d0: c27f 9f3d dc87 923d 98ec 9fbd cd57 a63d
000000e0: a25d b43d 93d2 673d a8bc 713c 2f5c 31bd
000000f0: 0854 be3d f169 c73d 6259 87bd 59e2 773b
00000100: 1597 5c3d b6fa d4bc d297 ffbb e13d 363c
00000110: f092 303d b23f 553d e210 9e3c 1b27 2b3d
00000120: a577 90bc 206f d73d 1f86 943d a3b5 1939
00000130: 9280 243d d547 c73d 8c8d 4abd 12b7 a33d
00000140: d913 5ebd 786c 163c cb99 20bd 6537 16bd
00000150: 8a4c f33c d0fe a8bd a4e3 97bd d026 043d
00000160: d357 de3d d7af d13c f376 df3c ac4f 04ba
00000170: 38de b43d 74da cc3d 5eb0 95bc df51 6ebc
00000180: 9e16 aebd 0286 4ebb 4773 8abd fe8a 0ebc
00000190: 4f91 8ebd 506e 54bc c300 2d3d 0477 aebd
000001a0: 4a90 9bbc ea55 33bd 5606 b7bd 5fbc d4bb
000001b0: 35ae 46bd 7b74 83bd ef42 77bd 5bee 553c
000001c0: 02e3 cbbb de08 033d 10f4 883d 3fd9 d2bc
000001d0: e3c3 ed3c d520 863c 2b4a 0d3d 70f3 5b3d
000001e0: 9bd6 963d 7e0a 50bd 0ef8 873c dec9 c2bd
000001f0: 3cc9 a1bb caf6 7fbd 7143 f4bc 1f59 073d
00000200: 9cbe fcbc b9c1 8f3a 4c72 8bbc a5c5 3a3d
00000210: 3bba 70bd 04bc 243c e038 e0bc 1f5e 78bd
00000220: 578a 5dbd 12de 0e3d fd2b c03c 0a55 c2bd
00000230: 7d49 853d 7a5a 3d3d d9ec 80bd 2b00 68bd
00000240: 901c f43c ec9c fdbc cd9a 3cbb f710 c3bc
00000250: 24d8 a1bd 7346 b6bd 1847 bebd fcc0 af3d
00000260: 0b7d b53d 254e b0bd 0843 dd3c 6423 a8bd
00000270: 3f51 bcbd 57eb d1bd 4dd9 ebbc 6a59 9fbd
00000280: 1eef 4cbd 9b70 b4bb 11ea e03c c364 3d3d
00000290: 74b7 b93d ed4a 663a 328d bfbd bcf5 bfbd
000002a0: 0aa0 8ebd a49f c93b 6ad0 bb3d 4fde a3bd
000002b0: 94a8 613c 6823 96bd 4678 003d e9b9 1d3c
000002c0: 925c 78bd 3b9d 9a3d b810 973d 282d 2cbc
000002d0: 1ec8 ecbd a3a8 8fbd 511b 44bd 2b38 29bd
000002e0: ef04 e13c 81f5 d8bc c67d 423d df7e 60bc
000002f0: 5f34 bdbd a458 b13d 2b70 54bd 300d b93d
00000300: 36a9 0a3d 2d34 e7bc a357 dc3c 8f87 b9bd
00000310: 4681 c53c d8be 77bd e506 01bd c7b6 22bd
00000320: 1ff5 3b3c 617f 7dbd 5b41 0abd 458e 7ebd
00000330: b610 be3d 44cc 1a3c 370d 8ebd 53b9 883d
00000340: 70ea 27bd ba27 a13d 830e 6abd 8af0 71bd
00000350: 1abf 223c d4ed 583d f7d3 1fbb d128 0a3d
00000360: 4ab1 a03b f659 12bd 6a80 3fbd 8aed 57bc
00000370: 7d28 9abc 5c1b 96bc 9539 1cbd 1863 853c
00000380: a192 cb3d a072 02bd 7479 d23b 6081 7b3d
00000390: 412f b2bd 6198 5fbd 13c5 87bd 3c9a 56bd
000003a0: c495 cbbc 9c9c 11bd 29b5 0dbc fcae babd
000003b0: 3ced de3c bbc2 e33d 10fb 8dbc 2add 813d
000003c0: 987c 9fbd e0b4 b83c 0052 90bd 9ee5 8c3d
000003d0: 4cd2 b6bc d4c4 953d 8b5a d7bd 4c37 603c
000003e0: 4a3c da3d 048e b03d 30ba b33d 633c 703d
000003f0: 5d98 483d 2456 37bc b3d7 803d 6557 f73c
-0.020694058 0.09192422 -0.036635827 -0.10793147 -0.035139628 0.04500366 -0.021406803 -0.013206509
-0.024419654 -0.06373132 -0.079522654 0.030226927 -0.054374933 0.027991787 0.041514806 0.06155119
0.036662575 0.008487545 0.03944735 -0.025077714 -0.007189376 -0.034048107 0.088552624 0.037602086
-0.00037232827 0.011083708 0.058902938 0.068977214 0.035897214 0.076688565 0.03277843 0.09038574
-0.005442487 -0.095387705 0.061430503 -0.026649073 0.033403426 -0.10376685 -0.040300623 0.10334295
0.075284556 -0.012543451 -0.05195176 -0.022426937 0.098244004 -0.077775985 0.022648871 -0.08966062
0.107938625 0.08122686 0.09327922 0.026009988 0.0778804 0.07154819 -0.078087986 0.081222154
0.088069215 0.056597304 0.014754452 -0.043300804 0.092933714 0.097370036 -0.06608845 0.0037824123
0.05385502 -0.025998455 -0.007800081 0.0111231515 0.04310888 0.052062698 0.01929516 0.04178534
-0.017635176 0.10519242 0.07252144 0.00014658882 0.040161677 0.09730498 -0.049451396 0.07993902
-0.054218147 0.009181134 -0.03920917 -0.036673922 0.029699583 -0.082517266 -0.07416466 0.032263577
0.10856595 0.025596542 0.0272784 -0.00050472724 0.08831447 0.10002604 -0.018272575 -0.014545887
-0.08500408 -0.003151298 -0.06760269 -0.0087001305 -0.06961309 -0.012965754 0.042237055 -0.08518794
-0.0189897 -0.043783106 -0.08936755 -0.006492182 -0.04850598 -0.06418701 -0.060366567 0.013057317
-0.00622213 0.03199088 0.06687176 -0.025738357 0.02902407 0.016373077 0.03449456 0.053698957
0.073651515 -0.050791256 0.016597774 -0.09511159 -0.004937319 -0.062491216 -0.029817315 0.033043977
-0.030852608 0.0010967768 -0.017022274 0.045598645 -0.058771353 0.010054592 -0.02737087 -0.060636636
-0.05408701 0.03487975 0.023458475 -0.09488876 0.065081574 0.046228863 -0.06295175 -0.056640785
0.029798776 -0.030958615 -0.0028778792 -0.0238118 -0.07902554 -0.08900156 -0.09290904 0.08581731
0.08861741 -0.08608655 0.027009502 -0.08209875 -0.09195184 -0.10249966 -0.02879014 -0.07780726
-0.050032727 -0.0055065877 0.027455362 0.046238672 0.09068194 0.00087849685 -0.09353103 -0.09373042
-0.06964119 0.006153064 0.09170611 -0.080013864 0.013773102 -0.07330972 0.0313647 0.009626844
-0.060635157 0.075495206 0.07376236 -0.010508813 -0.11561607 -0.07014587 -0.047877613 -0.04131333
0.027468173 -0.026484253 0.04748323 -0.013702123 -0.092385046 0.08659485 -0.051864784 0.090357184
0.03385278 -0.028223122 0.026897257 -0.09059059 0.024109494 -0.060484737 -0.031500716 -0.03972509
0.011472016 -0.061889056 -0.033753734 -0.062147398 0.09280531 0.009448115 -0.06936114 0.06675973
-0.04099506 0.07868905 -0.057142746 -0.059067287 0.0099332575 0.052961186 -0.0024387816 0.03373033
0.004903947 -0.035730325 -0.046753325 -0.013179192 -0.018818134 -0.018323593 -0.038140852 0.016282603
0.099400766 -0.031847596 0.0064231697 0.06140268 -0.08700419 -0.05458868 -0.06629386 -0.052393183
-0.024851687 -0.035549745 -0.008649149 -0.09115407 0.027212732 0.11121126 -0.01733163 0.06341012
-0.07787436 0.022547185 -0.0704689 0.068797335 -0.022317074 0.073129326 -0.105153166 0.013685059
0.106560305 0.08620837 0.08775747 0.05865134 0.04897343 -0.011189971 0.06291141 0.03019304

model.0.bias f4 [512]
00000000: dbbb a73d c72e 22bd 3e37 cf3c 0d25 813d
00000010: cc26 7bbd 687e bebb ed47 a6bc aa7c 82bc
00000020: d35a c4bc 26d6 16bd 08fe 03bd da9b 58bd
00000030: f01b ce3d 6d64 1cbd 9286 d73c 9660 d33c
00000040: aefa 85bd 2928 71bd 25bc 81bc 4d4e 21bc
00000050: 5fed ac3d 3364 98bd 6984 aabc e292 a1bd
00000060: 026d 0abc 95a1 f7bc 2393 d13c 70f9 1c39
00000070: 7340 a83d eff8 14bb d89d 3b3b c517 b43d
00000080: 6003 c83c c884 97bc fd67 a73d 523a 9abd
00000090: 6c1d afbc 62e8 82bd 1f40 8cbd 97f8 ba3d
000000a0: 73dc 163d e7e5 af3c 98b3 86bd 7c40 693d
000000b0: 4767 543c 270d 33bd 0354 e23b 3e0a 9c3d
000000c0: 4c91 403d fe2d 97bd 935d 043d 58ab 4bbc
000000d0: cb69 a03d ee66 abbd 64f7 ae3d 102d 8bbd
000000e0: 5382 92bd 8b3f 8ebb 143b 9c3d dcb5 dc3d
000000f0: 2560 7a3d bf41 023d 14f6 0bbd 30b9 e83a
00000100: d710 8ebd 8b2c 59bd 9c7e 68bb 975e 2d3d
00000110: a29f d9bc f95c e53d 48b5 9f3c 0831 d2bd
00000120: 38c3 c13c 6c6f cc3d 9969 e63d 1cc4 9fbd
00000130: bf31 273d 9098 893d e8b8 5d3b 4c22 b53c
00000140: db99 c43d 4f6e ba3d e197 6abd 9665 003d
00000150: 4e82 8ebd 5c7f b4bd d4e5 31bc c5d3 883d
00000160: d61b 663c be08 cd3d 6f4b fbbc dda3 70bc
00000170: caca c2bc f945 2ebc be7a a13d 0095 af3d
00000180: 9535 6cbd e079 d13d bdde 963c efbb 453d
00000190: 1add 10bd 5878 ae3b 0e66 0c3d 9d08 0fbb
000001a0: 6047 523d 8914 b6bd aab1 58bd dddd 3abd
000001b0: f1f6 b5bd 2996 b03c 4336 2cbd 44ab adbd
000001c0: d558 5c3c 870d a3bb 6064 b43d 63a7 8f3d
000001d0: 04f8 80bd 986f 9c3d ac4b c23b e3e6 45bd
000001e0: 21d3 83bd 5a54 8fbd f181 8dbd a690 10bd
000001f0: 4e1b a9bd f31e a5bd e7f6 23bd c510 0dbd
00000200: 7f4c 833d a731 b8bc 2bc0 84bd 85cd 9abd
00000210: af48 92bd d08f 863d c4ab 7ebd ca41 b9bd
00000220: 8850 893c 4aa7 553d 57d3 b13d 1d2b c93d
00000230: ef7f fb3c 36d1 ae3d 4b37 93bd e725 993d
00000240: c2b3 3ebd be80 3cbd ef86 943d e535 ca3d
00000250: 60e6 7a3d 8d8f 3cbd 268c 7fbd cc54 eb3c
00000260: 1724 cc3d 8f9b d039 c531 6cbd 0746 483d
00000270: a472 843d 0393 cbbc 1b22 443d ba5d 843d
00000280: 96dc 96bd 3231 97bb 27c2 883d 6369 3abd
00000290: e537 c7bb f21a 8bbd 968e 9c3c a2af c039
000002a0: 0df1 ab3d ea30 b63d af6f c2bd 965e 45bc
000002b0: 7ceb c03d 86c8 0abc 601c ba3c 127d bfbd
000002c0: 426a fa3b 0f35 4b3c 33c6 0f3d 3816 a63d
000002d0: ceaa 68bd 3e48 a9bc d32c bf3d 1b9f 773c
000002e0: 4464 553d 0086 803d c7c8 843b cea7 143d
000002f0: 3996 3ebd e667 bbbc 0646 64bc 1417 903d
00000300: ea69 7fbd 515b d43d ed42 99bb 82b6 5b3d
00000310: a7e7 08bd ad6a b03d 9cb6 abbc d879 aabd
00000320: 4f8a 253d e2b2 c03d f5a0 103d 822b 353b
00000330: b284 a1bd 7e8b ecbc dac5 c1bc b55e acbd
00000340: f814 85bd 0863 c43d ba16 8a3d 8bbd bfbd
00000350: d43b 43bd dd0a eabc 1035 6abd ef29 3cbc
00000360: 4c12 16bc 6893 91bd 9708 d0bd ee50 c4bc
00000370: e59b b73b 4e6a b63d 917e e9bc d6d0 2f3d
00000380: 1bcc b03c 251d 373c c2ff 573d de0d 3c3d
00000390: efbe 51bc a866 133d d5e1 743d 6f79 e73c
000003a0: cf90 4ebd ff12 2f3b 5745 893a 6132 0dbd
000003b0: d582 e7bc f32c 873d f41d dabc 539c b33d
000003c0: 53ac 18bc 68de ca3d 990d 893d eaf1 66bd
000003d0: a6b1 853d bc41 0fbd 8b0d 123d b8a6 f63c
000003e0: 166d 5abd a20d 973c 1479 a5bd d3a6 e83c
000003f0: 4361 8cbd a55c 673a f3b8 823d 7d35 afbc
0.081901275 -0.03959539 0.025294896 0.06305895 -0.061316296 -0.0058134086 -0.020297969 -0.015928585
-0.02396909 -0.03682532 -0.032224685 -0.052883007 0.100639224 -0.03818171 0.026309285 0.025802892
-0.06541954 -0.05887619 -0.015836785 -0.0098453285 0.084437124 -0.074409865 -0.020815091 -0.07889344
-0.008448841 -0.030228416 0.025582856 0.00014970242 0.08215418 -0.0022731384 0.0028628018 0.08793596
0.024415672 -0.018495932 0.08174131 -0.07530655 -0.021376334 -0.0639198 -0.06848168 0.09129446
0.03683133 0.02147193 -0.065772235 0.056946263 0.012964076 -0.043713715 0.0069069876 0.07619141
0.047013566 -0.07381819 0.0323158 -0.012430988 0.078326784 -0.08369242 0.0854328 -0.06795704
-0.071537636 -0.004341071 0.07628456 0.107768744 0.061126847 0.03180098 -0.034170225 0.0017755385
-0.06936806 -0.053020995 -0.0035475856 0.042326536 -0.026565377 0.11199374 0.019495621 -0.10263258
0.023652658 0.099821895 0.1125061 -0.07801077 0.040818926 0.06718552 0.0033832137 0.02211108
0.09599658 0.09103071 -0.05727375 0.03134688 -0.069584474 -0.088133544 -0.010858018 0.06681017
0.014044723 0.10011433 -0.030675618 -0.014687506 -0.023778338 -0.0106368 0.07884739 0.08573341
-0.057668287 0.10228324 0.018416757 0.04827493 -0.03536711 0.0053244047 0.034277014 -0.0021825202
0.0513376 -0.088906355 -0.05290381 -0.04562174 -0.08884991 0.021555977 -0.042043936 -0.08479932
0.013448914 -0.004975978 0.088082075 0.07014348 -0.06297305 0.07638472 0.005929431 -0.048315894
-0.06436754 -0.06998511 -0.0690955 -0.035294197 -0.08257161 -0.08062544 -0.040030386 -0.03443982
0.06411075 -0.022484614 -0.06481966 -0.07558731 -0.071427695 0.06570399 -0.062175527 -0.090457514
0.016762033 0.052161492 0.08682888 0.09822676 0.030700652 0.085359976 -0.07188281 0.074779324
-0.04655815 -0.046021216 0.07252299 0.09873561 0.06125486 -0.04603534 -0.062389515 0.028726958
0.09967821 0.00039788752 -0.05766465 0.04889491 0.064671785 -0.024850374 0.047884088 0.064631894
-0.07366292 -0.004614019 0.066776566 -0.04551066 -0.006079661 -0.06792249 0.019110959 0.0003675195
0.08395586 0.08896048 -0.09493958 -0.012046477 0.09419915 -0.00847066 0.022718608 -0.09350027
0.0076420614 0.012402787 0.035101127 0.08109707 -0.056803517 -0.02066433 0.093347214 0.015113617
0.052097574 0.062755585 0.004052255 0.036292844 -0.046529982 -0.022876691 -0.0139327105 0.07035652
-0.062356867 0.1036898 -0.0046771676 0.05364085 -0.033424046 0.08614097 -0.020961098 -0.08324021
0.040415104 0.09409119 0.03530975 0.002764434 -0.07886638 -0.028875109 -0.023653913 -0.084165014
-0.0649814 0.09589201 0.06742616 -0.09362324 -0.04766448 -0.028569633 -0.05717951 -0.011484607
-0.009159636 -0.07108194 -0.101578884 -0.023964372 0.005603301 0.08906995 -0.028502734 0.04292377
0.0215817 0.011176382 0.052734144 0.045911662 -0.01280187 0.035986573 0.059785683 0.028256146
-0.05043107 0.0026714203 0.0010472935 -0.034471873 -0.028260628 0.0660037 -0.02662561 0.08770051
-0.009318429 0.09905702 0.06692047 -0.05638305 0.065280244 -0.0349748 0.035657447 0.030108795
-0.05332669 0.018439118 -0.080797344 0.02839986 -0.06854489 0.0008825756 0.063829325 -0.02138781

model.2.weight f4 [96, 512]
00000000: 45e0 953c 7d4f 54bc 5fae 44bc e71e 933c
00000010: d208 47bd c8ef 30bd cc11 3f3c decd 693c
00000020: 5cba 6e3d cfbb 92bc ee3b f0bb 4861 9bbc
00000030: 017e d13a b180 13bd 043a 45bd 6eff 0bbd
00000040: 57ed 853c 5acd 19bd c99d 96bc 4ca9 83bc
00000050: 040c 083d f94a 08bd 95a2 b23b 25d1 d9bb
00000060: 9213 05bc 4281 cd3c 6fad 53bd 7488 a13c
00000070: 28db dcbb b1dd ea3c f110 e93c c60d 86bc
00000080: 8708 0ebd 793d 5d3c 79e1 503b 8cc9 593c
00000090: fd5d a6bc 348e 873c 7f88 103d 9575 83bc
000000a0: c63f 2e3d 6531 d8bc b742 ec3c 36af 2d3c
000000b0: 1995 083c ff9a 92bc db8f 313d 9967 cabb
000000c0: b467 753c ce90 c4bc 1022 3cbd 8df7 00bd
000000d0: e054 a7bc 1e34 fd3b 7d39 7a3b 20fb af3c
000000e0: 681a 45bd e5d8 4b3d 63ff 83bc fef2 e53c
000000f0: e4a9 25bd 8561 93bc b453 3bbd 723f 033c
00000100: 1320 00bc 56e5 b23c 9cc1 d03b e8ae 213c
00000110: 4947 963c dbb2 14bc abbf 4d3d b054 45bc
00000120: 0369 d73c 9279 c4bc 0e44 a23a e0fe d5bc
00000130: 778f 423c 887c 4e3d 936d 9c3c 2235 06bc
00000140: 9a88 91bc 56c7 a1bc bad3 2a39 0363 4a3d
00000150: 2b94 e53c be62 a83b 90a0 d23c eda9 0e3c
00000160: a120 59bb e319 0cbd c865 2ebc 284d d23c
00000170: b49f a9bc b76d 00bd ef0c 303b 0406 58bc
00000180: fe57 dcbb 1784 e43c cc5f 143d 8cd4 0a3d
00000190: 0b53 38bd 48fb a23b a98e a6bd 40b0 743c
000001a0: 4ac2 9bbb 44b0 6a3d 891b cdbb 80f7 143c
000001b0: ebbf 4abc 461e a4ba 7328 4dbc 3a77 cabb
000001c0: 57b7 28ba 2413 3c3d 53de f2bb 0115 01bd
000001d0: 6d16 d93c 6785 323d feef 133d 9792 1f3c
000001e0: 1570 003d 69b9 4d3d ff3e 363a 9d09 0f3d
000001f0: ce2a a73c 6f02 3cbc d482 40bd 36b4 c23c
00000200: 4528 83bc b51d 7d3c 9a24 d93c 9c8d 0e3c
00000210: 583c 403a f3f5 333d 2fbd 323d 5cd4 393d
00000220: 4617 d83c d42e 5f3d 73e0 2b3d ea47 ddbc
00000230: b959 043d aa97 a4bc 091a 963c a270 353d
00000240: 6e9e 31bc 75b6 7fbc 4e2e 52bc ae5c a5bc
00000250: 5cfd afba 5713 edbc bc77 e63b 8dd1 4ebc
00000260: 4e6e 563c 9886 083d caa1 253d d125 f7bc
00000270: ee08 81bc afbe f3bc 30bc 86bc d5ef 09bc
00000280: 889a d63b 81e5 113d bdcf a23c e9e4 a53c
00000290: b6c2 6ebc cf2b 0d3d f8e7 8a3c 1d3c 483b
000002a0: d82f 2dbc b74a 223d 811d 39ba 14d5 5a3d
000002b0: 262b f8bc 0e32 9a3c d7ce 093d 8bbb c4bc
000002c0: 271b 9c3c c23a 50bd b67c 3fbd 3e88 90bc
000002d0: 33c0 c2bc 9d8b b93b 9c5f 65ba efcd 7c3c
000002e0: d7b9 063d 513a 0fbd 5ff7 a23b 05d3 e8bb
000002f0: e6e4 483b d10a 53bc 0557 0ebd 14e4 8b3b
00000300: 1da9 613c 512e 133d 4fb5 14bd 6ddf 033d
00000310: 9c26 b0bc 62b8 803d 01cb 673d 93b4 76bb
00000320: ddfa bfbc 93e7 2b3c 1e8e d63c d8fa 5bbd
00000330: 40e1 743c 76a6 6cbd 7af1 05ba 238a 81bd
00000340: fe3e 52bd c1bc 22bc 24c6 29bd 6671 c33c
00000350: 9112 a23c c0f0 92b9 893a dcbc a44d 803c
00000360: b3af 08bd 79e7 06bc d843 193d 1c38 abbc
00000370: 2939 7abc ecc7 cdbb 0328 c83c 247e 133c
00000380: fe45 dd3c d939 27bc e08b 2abd a24e 1bbd
00000390: c8c3 523b bfb8 b2bc 6e89 4dbd f4e7 0e3d
000003a0: fca5 a6bc 6741 643b 0623 043d 09c6 863d
000003b0: f67b 21bd 8796 b1b9 fe03 f93c 84cb 6e3c
000003c0: 1c2d f43a d772 6e3c 9a21 b63a 4f6c 01bd
000003d0: 775d dabc e4f1 da3c 8877 823c 81ba 3b3b
000003e0: 06e4 583b e1fc 60bd 2eb4 143d a860 26bb
000003f0: 8ace bb3c d22f f6bb 23f8 0a3d d453 79bc
0.018295417 -0.012958405 -0.012004464 0.017959071 -0.048592396 -0.043197423 0.011661958 0.014270274
0.058283195 -0.01791182 -0.007331363 -0.018967286 0.0015982987 -0.0360114 -0.04815103 -0.034179144
0.016348524 -0.037549354 -0.018385785 -0.016071938 0.033214584 -0.033274624 0.00545151 -0.0066472464
-0.008122342 0.025086049 -0.05167907 0.019718386 -0.0067399926 0.028670164 0.028450461 -0.01636399
-0.0346761 0.013503426 0.0031872673 0.013292681 -0.020308489 0.0165473 0.035286423 -0.016047278
0.042541288 -0.02639074 0.028840406 0.010600856 0.008336329 -0.017896174 0.043350082 -0.0061769006
0.014978338 -0.02399483 -0.045930922 -0.031486083 -0.020426214 0.00772716 0.0038181238 0.02148205
-0.048120886 0.049767394 -0.016112989 0.02806997 -0.040445223 -0.017990837 -0.045734122 0.008010732
-0.007820147 0.021837872 0.0063707363 0.009868361 0.018344538 -0.009075846 0.050231617 -0.012044117
0.02629519 -0.02398375 0.0012379901 -0.02612251 0.011875025 0.05041173 0.019095218 -0.008191379
-0.017765332 -0.019748371 0.00016291338 0.04941083 0.028024754 0.005138724 0.025711328 0.008707506
-0.003313102 -0.034204375 -0.010644384 0.025671557 -0.020706035 -0.031354632 0.0026863178 -0.013185028
-0.0067243567 0.027895017 0.03622417 0.033894107 -0.04500107 0.0049738027 -0.08132679 0.014934599
-0.0047533857 0.057297006 -0.006259386 0.009092212 -0.012374858 -0.0012521229 -0.012521851 -0.0061787637
-0.0006436011 0.04591669 -0.007411757 -0.03151417 0.026499951 0.043584254 0.036117546 0.00973954
0.03135689 0.05022565 0.0006952136 0.034921277 0.020406153 -0.01147519 -0.046999767 0.023767572
-0.016010413 0.015448977 0.02650671 0.0087007545 0.00073332107 0.043935727 0.04363745 0.045368537
0.026378285 0.05448802 0.0419621 -0.02701183 0.03231213 -0.02009185 0.018322961 0.04429687
-0.010840995 -0.015607466 -0.012828423 -0.020185795 -0.0013426947 -0.028939886 0.0070333164 -0.012623203
0.013087822 0.033331484 0.040437497 -0.0301694 -0.015751328 -0.029754011 -0.016447157 -0.008418997
0.0065491833 0.035619263 0.019874448 0.020250754 -0.01457279 0.034465607 0.016956314 0.0030553408
-0.010570489 0.039622035 -0.00070615864 0.053425863 -0.030294012 0.018822696 0.033644523 -0.024015209
0.019055916 -0.050837286 -0.046749793 -0.01764309 -0.023773288 0.005662395 -0.00087499036 0.015429958
0.032892074 -0.034967724 0.0049733366 -0.0071052336 0.0030654012 -0.012880997 -0.034750957 0.0042691324
0.01377323 0.035932843 -0.03630572 0.032195497 -0.021502785 0.06285168 0.056590084 -0.0037644252
-0.02343505 0.010492223 0.026190814 -0.05370602 0.014946282 -0.057775937 -0.000510953 -0.063251756
-0.051329605 -0.009932698 -0.041448727 0.023857784 0.019784244 -0.00028026663 -0.02688338 0.015662022
-0.033370685 -0.008233898 0.037418216 -0.020900778 -0.015272417 -0.006279936 0.024433142 0.009002242
0.027010914 -0.010206663 -0.0416373 -0.037916787 0.0032160152 -0.02181661 -0.05017989 0.034889176
-0.02034282 0.0034829022 0.032259963 0.06580741 -0.03942486 -0.00033872222 0.030397411 0.014574889
0.0018629166 0.014553747 0.0013895512 -0.03159743 -0.026655896 0.02672667 0.015926138 0.00286451
0.0033094897 -0.054928664 0.036304645 -0.0025387201 0.022925634 -0.007513025 0.033928048 -0.01521774

model.2.bias f4 [96]
00000000: 215e bebc 43e5 b03c a06c bdbc 4ba4 493c
00000010: d639 02bc 223c 413c 31db fa3c 2be0 aebc
00000020: a4a3 013c 1e86 8f3c 4f42 d93c 37db 8b3b
00000030: 0dce 313d 75fe 6b3c afa2 bc3c e265 b7bb
00000040: 9b00 1ebd c35b 003d 91f2 d13c 117b 243d
00000050: 2dcc 233d 7fe7 dfbc 23ae b33b d6af 06bd
00000060: dde2 a1bc f9fe 1a3c 0b40 9fbb b57d f4bc
00000070: da7e f439 ea79 1c3c b78c 483b 579b aa3c
00000080: fd1b bfbc e5c8 24bd 3fc5 4d3c 1507 133b
00000090: c8f5 afbc e70a 0fbd febf 88bc 8c24 0abd
000000a0: e42f 273d fffb 4e3c 6daf b93b 2645 cc3a
000000b0: 1035 d7bb ff3b a7bc 5e23 c73c a6c8 f03b
000000c0: d5ba f13c 7dfd c1bc 38a6 80bc 2864 c8bc
000000d0: 6ce5 2e3d c52a 06bd a23e 01bd 20d1 dfbc
000000e0: d67d ecbb fe44 12bd 8f52 05bd 6b6c 1cbc
000000f0: 7c02 70bc 4a0c 09bd 3ab5 08bb c733 90bc
00000100: 3640 1cbd 1865 013d 8b11 d73c eaae 9ebc
00000110: dd9b 30bd 22bc babc b972 25bd 2af0 653c
00000120: 3e0e 0bbc 3a93 07bd f24a efbc 58ba ae3c
00000130: ef5f 1bbd 298d 123d 0ce5 0cbd d7d2 75bc
00000140: 37c8 b8bb 09c6 ad3c f9ae 813c 785d afbb
00000150: 746a 2d3d 94ff c13b 8af3 dd3c 88c3 b2bc
00000160: 4f62 dabc 1e2e 1ebd fa54 8fbc 3367 323c
00000170: 83fb 0cbd 0f3f 28bd 0228 b7bc cda1 f33c
-0.023238244 0.021593696 -0.023123085 0.012307237 -0.0079483595 0.011794122 0.030622097 -0.021347126
0.00791255 0.017520007 0.026520876 0.004268076 0.043409396 0.014403929 0.023026792 -0.005596862
-0.038574796 0.03133751 0.02562836 0.040156428 0.03998964 -0.027332066 0.005483405 -0.032882534
-0.019761497 0.009460204 -0.0048599294 -0.029845098 0.00046633818 0.009550551 0.003060145 0.020826025
-0.023328776 -0.04023065 0.012559234 0.002243464 -0.021479502 -0.034922507 -0.016693112 -0.03372626
0.040817156 0.012633323 0.0056666643 0.0015584573 -0.006567605 -0.02041435 0.024308857 0.007348138
0.029508034 -0.023680443 -0.01570426 -0.02446182 0.042699262 -0.032755632 -0.031553872 -0.027321398
-0.0072171493 -0.035710327 -0.032549437 -0.009547333 -0.01464903 -0.033458985 -0.0020859973 -0.017602814
-0.038147174 0.03159055 0.026253482 -0.019370515 -0.043117393 -0.022794787 -0.04039261 0.01403431
-0.008487282 -0.03309939 -0.029210541 0.02132909 -0.037933286 0.035779152 -0.034398124 -0.015003881
-0.005639102 0.021212595 0.015830504 -0.0053517185 0.04233785 0.00592036 0.027093668 -0.021821752
-0.026658205 -0.0386182 -0.017496575 0.010888862 -0.034419548 -0.041075762 -0.022357944 0.029740239
