checkpoints/test1_CycleNet_solar_data_bs32_ftMS_sl96_ll48_pl96/checkpoint.pth (torch, 399271 bytes, 5 tensors)

cycleQueue.data f4 [24, 12]
000000 00 00 00 00 00 00 00 00 00 00 00 00 00 00 00 00
       0.0 0.0 0.0 0.0
000010 00 00 00 00 00 00 00 00 00 00 00 00 00 00 00 00
       0.0 0.0 0.0 0.0
000020 00 00 00 00 00 00 00 00 00 00 00 00 5b be 01 3d
       0.0 0.0 0.0 0.031675678
000030 00 00 00 00 00 00 00 00 00 00 00 00 00 00 00 00
       0.0 0.0 0.0 0.0
000040 00 00 00 00 00 00 00 00 00 00 00 00 00 00 00 00
       0.0 0.0 0.0 0.0
000050 00 00 00 00 00 00 00 00 00 00 00 00 85 90 c6 3b
       0.0 0.0 0.0 0.0060597085
000060 00 00 00 00 00 00 00 00 00 00 00 00 00 00 00 00
       0.0 0.0 0.0 0.0
000070 00 00 00 00 00 00 00 00 00 00 00 00 00 00 00 00
       0.0 0.0 0.0 0.0
000080 00 00 00 00 00 00 00 00 00 00 00 00 b1 d4 1e bc
       0.0 0.0 0.0 -0.009694264
000090 00 00 00 00 00 00 00 00 00 00 00 00 00 00 00 00
       0.0 0.0 0.0 0.0
0000a0 00 00 00 00 00 00 00 00 00 00 00 00 00 00 00 00
       0.0 0.0 0.0 0.0
0000b0 00 00 00 00 00 00 00 00 00 00 00 00 6c 9d c8 3b
       0.0 0.0 0.0 0.006122282
0000c0 00 00 00 00 00 00 00 00 00 00 00 00 00 00 00 00
       0.0 0.0 0.0 0.0
0000d0 00 00 00 00 00 00 00 00 00 00 00 00 00 00 00 00
       0.0 0.0 0.0 0.0
0000e0 00 00 00 00 00 00 00 00 00 00 00 00 05 45 6c 3c
       0.0 0.0 0.0 0.014420752
0000f0 00 00 00 00 00 00 00 00 00 00 00 00 00 00 00 00
       0.0 0.0 0.0 0.0
000100 00 00 00 00 00 00 00 00 00 00 00 00 00 00 00 00
       0.0 0.0 0.0 0.0
000110 00 00 00 00 00 00 00 00 00 00 00 00 38 4f 3f bc
       0.0 0.0 0.0 -0.011676602
000120 00 00 00 00 00 00 00 00 00 00 00 00 00 00 00 00
       0.0 0.0 0.0 0.0
000130 00 00 00 00 00 00 00 00 00 00 00 00 00 00 00 00
       0.0 0.0 0.0 0.0
000140 00 00 00 00 00 00 00 00 00 00 00 00 08 c1 91 bc
       0.0 0.0 0.0 -0.01779224
000150 00 00 00 00 00 00 00 00 00 00 00 00 00 00 00 00
       0.0 0.0 0.0 0.0
000160 00 00 00 00 00 00 00 00 00 00 00 00 00 00 00 00
       0.0 0.0 0.0 0.0
000170 00 00 00 00 00 00 00 00 00 00 00 00 36 f9 55 bc
       0.0 0.0 0.0 -0.013059905
000180 00 00 00 00 00 00 00 00 00 00 00 00 00 00 00 00
       0.0 0.0 0.0 0.0
000190 00 00 00 00 00 00 00 00 00 00 00 00 00 00 00 00
       0.0 0.0 0.0 0.0
0001a0 00 00 00 00 00 00 00 00 00 00 00 00 e2 43 56 3b
       0.0 0.0 0.0 0.003269427
0001b0 00 00 00 00 00 00 00 00 00 00 00 00 00 00 00 00
       0.0 0.0 0.0 0.0
0001c0 00 00 00 00 00 00 00 00 00 00 00 00 00 00 00 00
       0.0 0.0 0.0 0.0
0001d0 00 00 00 00 00 00 00 00 00 00 00 00 6e f9 a7 3b
       0.0 0.0 0.0 0.00512617
0001e0 00 00 00 00 00 00 00 00 00 00 00 00 00 00 00 00
       0.0 0.0 0.0 0.0
0001f0 00 00 00 00 00 00 00 00 00 00 00 00 00 00 00 00
       0.0 0.0 0.0 0.0
000200 00 00 00 00 00 00 00 00 00 00 00 00 0f 5a 29 3c
       0.0 0.0 0.0 0.010336413
000210 00 00 00 00 00 00 00 00 00 00 00 00 00 00 00 00
       0.0 0.0 0.0 0.0
000220 00 00 00 00 00 00 00 00 00 00 00 00 00 00 00 00
       0.0 0.0 0.0 0.0
000230 00 00 00 00 00 00 00 00 00 00 00 00 a3 34 03 3d
       0.0 0.0 0.0 0.03203262
000240 00 00 00 00 00 00 00 00 00 00 00 00 00 00 00 00
       0.0 0.0 0.0 0.0
000250 00 00 00 00 00 00 00 00 00 00 00 00 00 00 00 00
       0.0 0.0 0.0 0.0
000260 00 00 00 00 00 00 00 00 00 00 00 00 0e 0d f1 3c
       0.0 0.0 0.0 0.02942517
000270 00 00 00 00 00 00 00 00 00 00 00 00 00 00 00 00
       0.0 0.0 0.0 0.0
000280 00 00 00 00 00 00 00 00 00 00 00 00 00 00 00 00
       0.0 0.0 0.0 0.0
000290 00 00 00 00 00 00 00 00 00 00 00 00 f3 82 87 3b
       0.0 0.0 0.0 0.0041354834
0002a0 00 00 00 00 00 00 00 00 00 00 00 00 00 00 00 00
       0.0 0.0 0.0 0.0
0002b0 00 00 00 00 00 00 00 00 00 00 00 00 00 00 00 00
       0.0 0.0 0.0 0.0
0002c0 00 00 00 00 00 00 00 00 00 00 00 00 74 96 a9 bb
       0.0 0.0 0.0 -0.005175406
0002d0 00 00 00 00 00 00 00 00 00 00 00 00 00 00 00 00
       0.0 0.0 0.0 0.0
0002e0 00 00 00 00 00 00 00 00 00 00 00 00 00 00 00 00
       0.0 0.0 0.0 0.0
0002f0 00 00 00 00 00 00 00 00 00 00 00 00 f5 d6 61 3a
       0.0 0.0 0.0 0.00086151
000300 00 00 00 00 00 00 00 00 00 00 00 00 00 00 00 00
       0.0 0.0 0.0 0.0
000310 00 00 00 00 00 00 00 00 00 00 00 00 00 00 00 00
       0.0 0.0 0.0 0.0
000320 00 00 00 00 00 00 00 00 00 00 00 00 cf 4a 51 bc
       0.0 0.0 0.0 -0.012774183
000330 00 00 00 00 00 00 00 00 00 00 00 00 00 00 00 00
       0.0 0.0 0.0 0.0
000340 00 00 00 00 00 00 00 00 00 00 00 00 00 00 00 00
       0.0 0.0 0.0 0.0
000350 00 00 00 00 00 00 00 00 00 00 00 00 59 ef 9a bc
       0.0 0.0 0.0 -0.018912958
000360 00 00 00 00 00 00 00 00 00 00 00 00 00 00 00 00
       0.0 0.0 0.0 0.0
000370 00 00 00 00 00 00 00 00 00 00 00 00 00 00 00 00
       0.0 0.0 0.0 0.0
000380 00 00 00 00 00 00 00 00 00 00 00 00 44 b4 4b bc
       0.0 0.0 0.0 -0.012433115
000390 00 00 00 00 00 00 00 00 00 00 00 00 00 00 00 00
       0.0 0.0 0.0 0.0
0003a0 00 00 00 00 00 00 00 00 00 00 00 00 00 00 00 00
       0.0 0.0 0.0 0.0
0003b0 00 00 00 00 00 00 00 00 00 00 00 00 b5 e6 15 3c
       0.0 0.0 0.0 0.009149243
0003c0 00 00 00 00 00 00 00 00 00 00 00 00 00 00 00 00
       0.0 0.0 0.0 0.0
0003d0 00 00 00 00 00 00 00 00 00 00 00 00 00 00 00 00
       0.0 0.0 0.0 0.0
0003e0 00 00 00 00 00 00 00 00 00 00 00 00 7e 6f 97 3a
       0.0 0.0 0.0 0.0011553613
0003f0 00 00 00 00 00 00 00 00 00 00 00 00 00 00 00 00
       0.0 0.0 0.0 0.0

model.0.weight f4 [512, 96]
000000 3a 9a a7 bc 1d c2 c3 3d 81 b5 0e bd 5d 60 db bd
       -0.020459283 0.095585085 -0.034841064 -0.10711739
000010 71 e3 17 bd 43 24 29 3d 99 24 9c bc 23 b6 3a bc
       -0.03708214 0.041294347 -0.01906042 -0.011395964
000020 45 cc a5 bc e3 13 82 bd c5 64 ae bd 3a 79 f1 3c
       -0.020239005 -0.06351449 -0.08515314 0.02947675
000030 ef 4c 6e bd 68 b7 d2 3c 19 d5 1f 3d fd 95 85 3d
       -0.05817884 0.02572222 0.039021585 0.065227486
000040 40 f7 24 3d 99 50 31 3c 6c 2a 1e 3d 91 0e d0 bc
       0.04027486 0.010822439 0.038614675 -0.02539757
000050 c5 aa a8 bb 9b 64 03 bd d3 4b b6 3d 8f e5 1a 3d
       -0.0051473104 -0.032078367 0.08901181 0.03781658
000060 5c fe ac ba c9 b4 46 3c 23 b3 7f 3d 30 2c 97 3d
       -0.0013198364 0.0121280635 0.062426697 0.07381475
000070 85 2c 0e 3d 90 7f 9b 3d e0 4f 19 3d be 49 bc 3d
       0.034710426 0.0759269 0.03742969 0.09193753
000080 d7 09 b9 bb 4e c6 c5 bd 1a 14 60 3d 92 e1 dd bc
       -0.005646925 -0.09656964 0.05470667 -0.0270851
000090 a7 5c ed 3c fd f5 dc bd d4 31 1e bd 78 3a d3 3d
       0.028974844 -0.10789106 -0.03862174 0.103138864
0000a0 f7 c5 a1 3d e9 7f 26 bc 6e 84 51 bd 17 9c ad bc
       0.07899087 -0.010162332 -0.051151685 -0.021192594
0000b0 b5 9d cb 3d 02 e6 a5 bd 36 aa b1 3c a2 7e b8 bd
       0.099421896 -0.08100511 0.021687608 -0.09008528
0000c0 9b c8 db 3d 88 61 af 3d 58 a3 cd 3d 50 80 f9 3c
       0.10731622 0.085635245 0.10040921 0.030456692
0000d0 d4 3d 97 3d de de 87 3d 35 4d 95 bd a3 2e a9 3d
       0.0738484 0.066343054 -0.07290117 0.082608484
0000e0 e8 5e b7 3d 3a ab 4f 3d 82 b3 37 3c 76 f4 36 bd
       0.08953649 0.050700404 0.011212232 -0.04466673
0000f0 6e 34 b4 3d a2 53 c5 3d dd 2e 84 bd 3e 1f 11 3c
       0.08799063 0.09635092 -0.06454251 0.008857546
000100 19 39 68 3d ea 13 ca bc b0 44 d9 bb aa 48 79 3c
       0.056695078 -0.024667699 -0.0066305026 0.015215078
000110 72 2b 2f 3d bf 84 44 3d 97 ae 94 3c 0f c2 24 3d
       0.042766042 0.04797816 0.018149657 0.04022413
000120 f5 e6 88 bc b6 a5 de 3d 8c ac 99 3d 90 7c 09 3b
       -0.016711691 0.108714506 0.07503614 0.0020978786
000130 eb 0c 1d 3d 99 09 bd 3d 0b d0 39 bd 56 9f a8 3d
       0.038342398 0.09230346 -0.04536442 0.08233516
000140 37 e9 61 bd a0 10 d7 3b 1d 4d 3d bd 5f 64 14 bd
       -0.05515405 0.006563261 -0.04621612 -0.036228534
000150 9e d2 d3 3c 69 a4 aa bd 52 3b 9a bd 7d 19 10 3d
       0.025857266 -0.0833214 -0.07530846 0.035180558
000160 65 6d e6 3d 26 56 db 3c 80 53 d1 3c 6b 0b 35 ba
       0.11251334 0.026774477 0.025552511 -0.00069063035
000170 45 c2 b6 3d cf f4 ca 3d 97 af 93 bc 8f 7f 5a bc
       0.08923773 0.09909975 -0.018028064 -0.013336076
000180 f0 7e ad bd 05 9a 33 bb 0c b1 7a bd cc fd 98 bb
       -0.08471477 -0.0027405035 -0.061204 -0.004668927
000190 8a b7 8f bd 56 f4 77 bc 36 9a 33 3d de d9 ba bd
       -0.07017429 -0.015133938 0.04384824 -0.09123586
0001a0 0d 90 b6 bc 14 6e 37 bd 62 77 b3 bd eb db 38 bb
       -0.022285486 -0.044782713 -0.08763005 -0.0028207253
0001b0 75 fb 37 bd 45 d4 80 bd 68 fc 7f bd eb c3 1b 3c
       -0.044917542 -0.06290487 -0.062496573 0.00950716
0001c0 18 4f 04 bc 69 2b ef 3c a1 e8 7d 3d ab b0 d1 bc
       -0.008075498 0.029195504 0.06198943 -0.025596937
0001d0 14 f7 ff 3c f4 f9 97 3c df e2 17 3d 8c 10 5c 3d
       0.031245746 0.018551804 0.037081596 0.053726718
0001e0 ff e8 94 3d 77 6a 4a bd a4 da b6 3c d6 b7 ca bd
       0.07271003 -0.04941794 0.022321053 -0.09898345
0001f0 75 8b 87 bb 09 7c 7c bd 42 ee e4 bc 96 07 f2 3c
       -0.0041364976 -0.061641727 -0.027945641 0.029544633
000200 73 56 0b bd 4c f7 33 3b d0 ac 88 bc 13 32 43 3d
       -0.03401799 0.0027460633 -0.016683966 0.047655176
000210 fb 34 5d bd 82 cf 63 3c 4c 5c d8 bc ea 5f 81 bd
       -0.054005604 0.013904454 -0.026411198 -0.06317122
000220 7e 78 75 bd 4b 77 04 3d 41 42 a2 3c e2 01 c9 bd
       -0.059929363 0.03234033 0.019806983 -0.09814812
000230 16 86 8a 3d 6a cd 49 3d 4e b6 73 bd b1 14 61 bd
       0.06763856 0.049268164 -0.05950003 -0.054951373
000240 30 92 e3 3c a5 ad 09 bd ff b4 06 3c c8 59 a3 bc
       0.027779669 -0.033612866 0.008221864 -0.019940272
000250 40 81 9f bd e6 78 b7 bd b0 0d b9 bd a5 e0 ad 3d
       -0.07788324 -0.089586064 -0.09035814 0.08490113
000260 ab 6b b2 3d 1d c1 b0 bd ec cc f2 3c a4 d5 a4 bd
       0.08711942 -0.086305834 0.02963873 -0.08048561
000270 8c cc b4 bd 74 96 cf bd 33 29 ed bc 19 01 a4 bd
       -0.08828077 -0.101361185 -0.02895031 -0.08008022
000280 e7 61 52 bd e9 a1 03 bc 6a bc d1 3c f5 1a 2f 3d
       -0.0513629 -0.008034208 0.025602538 0.042750318
000290 62 24 b8 3d 23 c2 e7 3a cf 3a b8 bd 47 2b bc bd
       0.089913145 0.0017681759 -0.08995592 -0.09187942
0002a0 47 d0 8e bd 20 d9 12 3c 7c dd c4 3d 00 95 a2 bd
       -0.069733195 0.008962899 0.09612557 -0.07938576
0002b0 8d 11 42 3c cb 48 97 bd f3 1e 01 3d 67 1b 13 3c
       0.011845005 -0.07386931 0.031523656 0.008978701
0002c0 ed d1 77 bd 01 16 a1 3d f7 d0 9c 3d 75 e6 1a bc
       -0.060502935 0.07865525 0.076570444 -0.009454359
0002d0 22 0f ea bd a3 20 8b bd 32 17 47 bd 33 08 34 bd
       -0.114286676 -0.06793334 -0.048606105 -0.043953132
0002e0 ba 2b de 3c 6a 45 e3 bc 7d 06 2e 3d ae 9b a4 bc
       0.02712046 -0.02774306 0.042486656 -0.020093765
0002f0 53 e3 ba bd 7f f0 b3 3d af 96 37 bd 49 5b c0 3d
       -0.0912539 0.08786105 -0.044821437 0.09392411
000300 7a 35 13 3d aa c1 0c bd 37 05 d4 3c e6 b0 ac bd
       0.03593967 -0.03436438 0.025881393 -0.08432178
000310 39 3a c9 3c 23 92 73 bd 28 3a e6 bc 6d 70 11 bd
       0.024563896 -0.05946554 -0.028103903 -0.03550761
000320 9e 05 57 3c 8a ad 87 bd 43 99 20 bd 45 51 81 bd
       0.013123898 -0.06624897 -0.03920866 -0.06314329
000330 97 7e bb 3d 90 95 0e 3c d4 29 8f bd a3 25 8e 3d
       0.091550045 0.008702651 -0.069904 0.069407724
000340 a3 b7 1a bd af 00 9f 3d 84 65 6a bd 89 10 84 bd
       -0.037772786 0.07763802 -0.05722572 -0.06448466
000350 ad 9e df 3b 59 07 4f 3d 53 06 14 bb b3 05 26 3d
       0.0068243355 0.050544117 -0.0022586777 0.04053278
000360 05 f4 65 3b a5 ac 29 bd ba b4 42 bd d0 4f e0 bb
       0.0035088074 -0.041424412 -0.047535636 -0.006845452
000370 39 fd 69 bc 4e 84 8c bc 52 9d 02 bd f4 93 a4 3c
       -0.014281564 -0.017152932 -0.031888314 0.02009008
000380 82 61 c5 3d a6 c7 21 bd 3f 8f 1f 3b 7e 11 76 3d
       0.09637739 -0.03949704 0.0024346856 0.060075276
000390 35 ea b1 bd ad f2 68 bd 16 72 93 bd 95 de 5b bd
       -0.086872496 -0.05687206 -0.071994945 -0.053679068
0003a0 b0 60 a4 bc ba 95 11 bd 94 0e 00 bc 00 1e c2 bd
       -0.020065635 -0.03554318 -0.007815976 -0.09478378
0003b0 9b 9b c9 3c fe 42 d3 3d 79 b3 a2 bc 3d 2c 91 3d
       0.024610331 0.10315512 -0.01986097 0.07088516
0003c0 8e 10 a7 bd 55 88 91 3c 0f 73 88 bd d5 c7 9d 3d
       -0.081574544 0.017765203 -0.06662571 0.077041306
0003d0 72 c6 95 bc b6 f1 94 3d c9 25 cb bd b0 c5 a0 3c
       -0.018283103 0.07272665 -0.09919316 0.019625515
0003e0 59 c3 d9 3d 84 a2 a2 3d 73 ec a0 3d a7 e7 6b 3d
       0.10632963 0.07941154 0.07857599 0.057593968
0003f0 cb 1f 4a 3d ca e9 6b bc a6 ca 74 3d 73 24 00 3d
       0.049346726 -0.014399001 0.059763573 0.03128476

model.0.bias f4 [512]
000000 36 ea ac 3d 7d 3d 2a bd 37 77 00 3d 87 67 78 3d
       0.0844311 -0.041562546 0.031363692 0.060645606
000010 ca c3 67 bd b3 d2 96 bb 63 36 b6 bc 7b a4 84 bc
       -0.056583203 -0.004602754 -0.02224273 -0.016191712
000020 c0 37 af bc 64 43 09 bd 81 e0 0d bd bc b3 5e bd
       -0.021388888 -0.033511534 -0.03463793 -0.054370627
000030 19 2e d0 3d 91 dc 20 bd 78 db d4 3c 8b 77 f3 3c
       0.101650424 -0.03927285 0.025983557 0.029720088
000040 9a fc 91 bd 89 27 6e bd dd 0e 91 bc 99 9e ff bb
       -0.07128258 -0.058143172 -0.017707283 -0.0078008887
000050 a6 5a a7 3d 07 09 8f bd 05 56 ae bc 59 a9 9a bd
       0.08171587 -0.06984144 -0.021281252 -0.07551832
000060 8b 2f fb bb 84 07 ca bc b3 ae ec 3c 35 e9 85 3a
       -0.0076655797 -0.024661787 0.028891897 0.0010216596
000070 5e f5 b3 3d 6b 18 53 bb fb 60 c0 b9 c6 b2 b9 3d
       0.087870345 -0.00322106 -0.0003669335 0.090673015
000080 fc c1 aa 3c 9b 5c 94 bc 55 36 a9 3d 8a d4 9c bd
       0.020844452 -0.018110564 0.08262316 -0.07657726
000090 b3 5f b4 bc 60 8f 82 bd 32 ce 88 bd ac d6 b5 3d
       -0.02201829 -0.06375003 -0.06679954 0.08878836
0000a0 dd 69 03 3d 92 66 8e 3c 05 d1 86 bd 09 68 68 3d
       0.03208338 0.017382894 -0.06582836 0.05673984
0000b0 79 96 04 3c b0 92 2b bd 1f 1b 9d 3c 8e 6e a2 3d
       0.008092516 -0.04188794 0.019177971 0.07931243
0000c0 f8 5f 35 3d 0c 4b 98 bd 93 df e6 3c 29 46 9d bc
       0.044280976 -0.07436189 0.02818278 -0.019198494
0000d0 dd e4 99 3d 2b 84 a2 bd c4 cc a4 3d df d0 86 bd
       0.07514355 -0.07935365 0.080468684 -0.06582808
0000e0 20 7d 93 bd 77 b7 cf 3b 18 ba a4 3d 39 74 de 3d
       -0.072016 0.0063390094 0.08043307 0.108620115
0000f0 db cc 6b 3d 21 0e 09 3d 28 74 0f bd 6d 1a 45 37
       0.057568412 0.03346074 -0.035022885 1.1748268e-05
000100 00 e5 8d bd ba 18 61 bd c9 12 60 bb 21 c8 25 3d
       -0.06928444 -0.05495522 -0.0034190884 0.04047406
000110 8d 29 e8 bc 84 ed e5 3d 35 d3 a1 3c 1c 44 d1 bd
       -0.028340125 0.11226943 0.019754032 -0.10218069
000120 d5 b0 b7 3c 8a b6 ba 3d 40 f7 ee 3d dc 89 9d bd
       0.022423187 0.09116848 0.11668253 -0.0769231
000130 ac 27 2b 3d db 14 8c 3d fb f8 29 3b 6a ff c5 3c
       0.04178588 0.06839915 0.0025935757 0.024169642
000140 f3 b1 c5 3d 7f 79 b0 3d 8d 04 5d bd 62 ac e1 3c
       0.09653082 0.086169235 -0.053959418 0.027548019
000150 92 a8 98 bd 47 5e b7 bd 99 a5 13 bc 3f a8 8c 3d
       -0.07454027 -0.08953529 -0.0090116495 0.06868028
000160 00 ae 67 3c ed 3b cd 3d 39 29 e4 bc 58 42 77 bc
       0.014140606 0.100211956 -0.027851688 -0.015091501
000170 42 2d a0 bc 23 11 2f bc a4 7a a7 3d 53 d1 aa 3d
       -0.01955283 -0.010685238 0.08177689 0.08340707
000180 44 03 60 bd 1c b3 d1 3d 93 69 95 3c 11 11 4a 3d
       -0.054690614 0.102392405 0.018238818 0.049332682
000190 6c 05 17 bd 4a 87 d3 3b 26 f2 05 3d 1c a2 22 ba
       -0.036870405 0.0064553367 0.032701634 -0.0006203966
0001a0 ea 21 61 3d 9f 7a b2 bd f1 63 54 bd 5f 3d 30 bd
       0.054963984 -0.08714794 -0.051853124 -0.043027278
0001b0 52 f6 bb bd 9d 80 a1 3c 5a 77 2d bd 11 ad aa bd
       -0.09177841 0.019714648 -0.04235015 -0.08333791
0001c0 bd 5d 5c 3c 44 07 b9 bb eb 0b b4 3d a1 b2 8b 3d
       0.013450083 -0.005646618 0.08791336 0.0682118
0001d0 e5 28 80 bd 00 e2 96 3d 76 26 f1 3a 3f 3a 43 bd
       -0.062578 0.07367325 0.0018398303 -0.04766297
0001e0 47 e8 85 bd d2 1c 92 bd 69 ee 9d bd 2d 49 0c bd
       -0.06538444 -0.07134403 -0.07711489 -0.034249473
0001f0 31 07 af bd 9a c0 9d bd e0 2c 20 bd e0 e4 32 bd
       -0.085462935 -0.077027515 -0.039105296 -0.043675303
000200 4b 26 8b 3d ea 9b a3 bc 2e 28 84 bd 8a 12 9e bd
       0.06794413 -0.019971807 -0.06452976 -0.0771838
000210 f6 45 96 bd 25 79 89 3d 1b 9e 7a bd 41 09 bc bd
       -0.07337563 0.067125596 -0.061185937 -0.091814525
000220 bc 1d 95 3c 7d 68 58 3d 02 ff b3 3d 7c f9 ca 3d
       0.018202655 0.052834023 0.08788873 0.099108666
000230 c3 3b 01 3d ee 43 af 3d 9a 38 94 bd 57 57 97 3d
       0.031551134 0.085578784 -0.072373584 0.07389706
000240 c8 69 41 bd f3 6e 32 bd 98 d7 91 3d 59 fa cd 3d
       -0.04722002 -0.04356284 0.07121199 0.10057516
000250 bd 61 73 3d 86 b8 42 bd 72 58 8b bd a9 11 03 3d
       0.059419382 -0.047539257 -0.06803979 0.031999264
000260 d9 7e d6 3d 4c 12 02 bb 32 49 73 bd bb 11 56 3d
       0.10473413 -0.0019847332 -0.059395976 0.052263003
000270 92 eb 83 3d 2c b8 cb bc 50 37 44 3d d8 32 77 3d
       0.06441416 -0.024868093 0.047904313 0.060351223
000280 7d 12 98 bd 41 dd 66 bb ae 87 84 3d 71 d2 30 bd
       -0.07425401 -0.0035227092 0.06471191 -0.043169443
000290 85 e9 ba bb a5 02 85 bd d6 c3 a6 3c 12 4c 32 ba
       -0.005704107 -0.06494645 0.020357054 -0.00068014965
0002a0 fd 7c aa 3d 3b 00 bd 3d 3b 61 b5 bd 73 ec 18 bc
       0.08324621 0.092285596 -0.08856436 -0.009333718
0002b0 e8 c8 c1 3d 82 c2 3f bc f5 5d c1 3c 3c ba b9 bd
       0.09462148 -0.011704089 0.023604373 -0.090687245
0002c0 b0 45 bd 3b 09 c4 7a 3c c8 99 02 3d 1a 97 ab 3d
       0.0057761297 0.0153055275 0.03188494 0.0837843
0002d0 46 fd 5c bd 69 02 aa bc a2 eb c2 3d 5a 3b 99 3c
       -0.053952478 -0.020753102 0.095176 0.018705059
0002e0 76 e7 3c 3d f6 33 7e 3d 87 56 a4 ba 1f 09 15 3d
       0.046119176 0.062061273 -0.0012537994 0.03638565
0002f0 b2 cd 4c bd 71 ed aa bc ca 0e 65 bc 20 3a 8f 3d
       -0.050000854 -0.020865174 -0.013980577 0.06993508
000300 e2 fd 75 bd fd fa cd 3d 80 98 3b bc d5 c4 54 3d
       -0.060056575 0.10057638 -0.011449933 0.051945526
000310 a4 d6 03 bd 68 0e b4 3d 83 62 aa bc 44 83 ad bd
       -0.03218712 0.0879181 -0.020798927 -0.084723026
000320 fd fb 27 3d ac 0a c1 3d 5d 68 08 3d 00 7d 2b 3c
       0.0410118 0.094258636 0.033302654 0.010466814
000330 fc 13 9d bd bd 0a b3 bc 12 39 b0 bc a6 8a ae bd
       -0.07669827 -0.021855706 -0.021511588 -0.08522539
000340 e3 aa 87 bd 75 84 c4 3d 1b 4b 86 3d 2d 38 c2 bd
       -0.06624391 0.09595577 0.06557294 -0.09483371
000350 13 77 4f bd 65 8b fe bc 2d bb 75 bd 2c b9 48 bc
       -0.050650667 -0.031072328 -0.059992958 -0.01225118
000360 5f 3b 6b bc b9 56 92 bd bf 89 d1 bd 31 32 c4 bc
       -0.014357417 -0.07145447 -0.10231351 -0.023949714
000370 9b 2a 61 3b c0 fb b8 3d 17 5d ea bc a3 a6 2f 3d
       0.003435767 0.090323925 -0.028608842 0.042883527
000380 ca 1e a2 3c 72 cc e8 3b 0f af 51 3d 27 23 4b 3d
       0.019790072 0.00710445 0.05119234 0.04959407
000390 47 eb 2e bc 5a 27 1f 3d 4a 8c 69 3d 42 71 f4 3c
       -0.010676212 0.038855888 0.057018556 0.029839162
0003a0 6b b4 5e bd fb 1b 6a 3a ee 7e 2c ba 97 66 13 bd
       -0.05437128 0.0008930561 -0.00065801933 -0.03598651
0003b0 d1 09 e2 bc 00 80 85 3d 64 0a f2 bc dd e8 b2 3d
       -0.027592571 0.06518555 -0.02954597 0.087358214
0003c0 49 3b a6 bb 5c 1d c0 3d 8d 58 83 3d 04 ce 5a bd
       -0.0050729853 0.093806 0.06413374 -0.053419128
0003d0 10 22 86 3d f3 1e 0b bd 97 7e 28 3d 3a f9 00 3d
       0.06549466 -0.033965062 0.04113635 0.03148768
0003e0 be 38 55 bd 3d 17 8a 3c 77 a1 9d bd 42 6b d7 3c
       -0.052056067 0.016856784 -0.076968126 0.026296262
0003f0 e3 36 8e bd f4 0a 02 3b cf 00 84 3d 44 85 47 bc
       -0.069440626 0.0019842954 0.06445467 -0.012177769

model.2.weight f4 [96, 512]
000000 0f 3f bd 3c 56 c7 53 bc 4d ec bc bb 2c 9a 8e 3c
       0.023101358 -0.012925943 -0.005765474 0.0174075
000010 17 79 d7 bc f5 90 2f bd 78 d2 2d 3c 49 15 6e 3c
       -0.026302857 -0.04286285 0.010609262 0.014531442
000020 56 9d 79 3d c4 66 89 bc 6f bf f9 bb 38 3e a4 bc
       0.060941063 -0.016772635 -0.0076216976 -0.0200492
000030 ac 96 8f 3a 96 bc 11 bd 34 a5 42 bd 48 bf 23 bd
       0.0010954938 -0.03558024 -0.04752083 -0.039977342
000040 b5 b5 3c 3c e7 90 ea bc 85 8d ae bc b2 43 7c bc
       0.011517932 -0.028633548 -0.021307716 -0.015396999
000050 9e 57 0c 3d b7 a2 1d bd aa 7d 18 3c b7 04 d0 bb
       0.034263246 -0.038485255 0.009307304 -0.0063482183
000060 13 81 11 bc f0 5e c7 3c 28 a6 58 bd b3 aa 92 3c
       -0.008880871 0.024337262 -0.052892834 0.017903661
000070 e4 0f 42 bc 42 c3 e7 3c 65 ba e1 3c 31 83 85 bc
       -0.011844609 0.028291348 0.0275547 -0.016297908
000080 8f b5 0a bd 91 70 23 3c 91 fb 1a 39 2c 53 60 3c
       -0.033864554 0.009975568 0.000147803 0.013691705
000090 41 6c cb bc 63 0c 85 3c c3 af 0f 3d 7d 75 86 bc
       -0.024831893 0.016241258 0.03507973 -0.016413445
0000a0 9e 6b 2c 3d d3 57 ca bc 82 ed eb 3c 1d bd 4a 3c
       0.04209482 -0.024700081 0.028799776 0.01237419
0000b0 6e fe d9 3b fd c1 94 bc 50 d5 29 3d 8a fe 8a bb
       0.006652645 -0.018158907 0.041463196 -0.004241769
0000c0 af cc 33 3c aa 45 ae bc 38 0e 2a bd c4 5f f3 bc
       0.010974093 -0.021273453 -0.041517466 -0.02970875
0000d0 89 3e b0 bc 93 d7 d5 3a 78 b4 85 3b d6 fb 9c 3c
       -0.021514194 0.0016314856 0.0040803514 0.019163053
0000e0 07 67 42 bd 16 88 4d 3d 41 c8 81 bc 34 13 d3 3c
       -0.047461536 0.05017861 -0.015842559 0.025765993
0000f0 be 9a 16 bd ba 3f 95 bc 4e ce 33 bd 45 38 e7 3b
       -0.036768667 -0.018218864 -0.04389792 0.0070562684
000100 1c ee 99 bb e6 aa a1 3c 0b a9 b8 3b ef 92 05 3c
       -0.0046975743 0.019734811 0.005635386 0.0081527075
000110 d2 58 97 3c 4b 6c 1d bc 86 63 49 3d 28 6d 2e bc
       0.01847497 -0.009608339 0.04916718 -0.010646142
000120 de fa d2 3c b4 e5 d6 bc 52 65 02 3b 1c 4e c7 bc
       0.025754388 -0.026232578 0.0019896817 -0.024329238
000130 45 36 41 3c 0d d1 4d 3d 62 8f 81 3c e5 87 d6 bb
       0.011792724 0.050248194 0.01581544 -0.0065469616
000140 57 55 93 bc 4e b6 b9 bc 72 3d 06 3b 70 92 42 3d
       -0.01798503 -0.022669937 0.0020483402 0.047502935
000150 45 fd f0 3c 2c a6 3e 3b af b9 bf 3c fd be ff 3b
       0.029417643 0.0029090745 0.02340397 0.00780475
000160 0d 72 26 bb 65 3c 0b bd 7b f6 68 bc de 68 c5 3c
       -0.002539757 -0.033993144 -0.014218922 0.024097856
000170 34 41 ad bc e9 2a 03 bd 8d 79 68 3b 16 12 66 bc
       -0.021149255 -0.032023344 0.003547284 -0.014042398
000180 4e f8 f6 bb d4 aa e4 3c 76 ae 0b 3d e7 a3 0d 3d
       -0.0075369244 0.027913488 0.034101926 0.034580138
000190 a3 d5 35 bd c8 65 a2 3b cf 3b 8e bd 7b 47 69 3c
       -0.044393193 0.004955981 -0.06945001 0.014238234
0001a0 48 19 96 bb 85 f0 5e 3d 6f db 1e bc 5f d9 20 3c
       -0.0045806505 0.054428596 -0.009695872 0.00981745
0001b0 1a 16 11 bc 5e 2e 44 bb c6 c3 2c bc 3f bb d6 bb
       -0.008855367 -0.0029934864 -0.010544723 -0.006553083
0001c0 41 ab 5d bb 8c 96 30 3d 04 e2 32 bc ac af fc bc
       -0.0033824 0.043112323 -0.010918144 -0.030845486
0001d0 f8 2e e7 3c 29 47 34 3d 6c ff 11 3d 2e 16 2d 3c
       0.028220639 0.044013176 0.03564398 0.01056437
0001e0 30 a1 04 3d 4d 85 50 3d e6 51 69 ba 2f 0b 09 3d
       0.032380283 0.050908376 -0.00089004484 0.03345793
0001f0 0b 27 91 3c 45 2c 4c bc 3b 61 37 bd d1 1f cb 3c
       0.017718812 -0.012461727 -0.04477046 0.024795445
000200 c7 b8 5f bc df 87 74 3c 3c 6b c8 3c 24 88 20 3c
       -0.013654894 0.014924972 0.024465196 0.009798083
000210 14 be 65 bb f3 d6 29 3d 71 49 3a 3d 8f bc 36 3d
       -0.0035055922 0.041464757 0.045480195 0.044613417
000220 52 bf e7 3c 8f 77 5b 3d 23 16 19 3d d2 a5 da bc
       0.02828947 0.053580817 0.037374627 -0.026690397
000230 d4 9d e4 3c c7 23 9f bc ee 22 84 3c 92 f4 31 3d
       0.02790729 -0.01942624 0.016129937 0.04344613
000240 08 87 1e bc e4 46 84 bc 89 82 4b bc ae eb b4 bc
       -0.009675749 -0.016147085 -0.012421259 -0.022085037
000250 99 37 27 ba 55 e4 f8 bc 71 8c 68 3c ae fd 81 bc
       -0.0006378829 -0.030382315 0.01419364 -0.015868034
000260 ac 46 5c 3c 2b 67 0b 3d 58 a8 1b 3d 84 37 fa bc
       0.013444584 0.034033936 0.038002342 -0.03054405
000270 f5 1d 6e bc ef 43 fc bc 4c 37 8f bc fe c2 84 bb
       -0.0145335095 -0.030794112 -0.017482422 -0.004051565
000280 ea 38 ff 3b a3 cd 29 3d 46 e7 8f 3c ee 5e 8a 3c
       0.007788767 0.041455876 0.017566334 0.01689097
000290 cc 8f 68 bc dc 36 0b 3d 7f 0c 91 3c a8 fe bf 3a
       -0.01419444 0.033987865 0.017706154 0.0014648037
0002a0 d0 17 16 bc 96 3f 21 3d 09 78 dd ba 04 5e 62 3d
       -0.009160951 0.03936728 -0.0016896735 0.05526544
0002b0 2b 67 e4 bc ca 1f 88 3c 5c a8 f0 3c 39 24 cb bc
       -0.027881226 0.01661672 0.029377155 -0.024797546
0002c0 d5 da a4 3c 9c 1e 54 bd 4f 35 41 bd 39 d6 8a bc
       0.020123878 -0.051787004 -0.04716998 -0.016947852
0002d0 96 99 d8 bc 1f eb ce 3b 7b 2d 14 bb e9 07 5a 3c
       -0.026440423 0.0063146497 -0.0022610116 0.01330755
0002e0 d9 5d 10 3d ab 7d fe bc 5e 13 c8 3b 3f 68 94 bb
       0.03524575 -0.031065783 0.0061058244 -0.0045290287
0002f0 7e 14 20 3b 5c b3 81 bc 91 9c 08 bd e9 3a 3d 3b
       0.0024426277 -0.015832596 -0.03335244 0.0028874225
000300 88 bc 78 3c 1b 5e 08 3d 82 d1 0d bd c9 98 04 3d
       0.015181668 0.03329287 -0.03462363 0.03237227
000310 43 0e a9 bc 78 83 77 3d bb ce 59 3d 15 53 13 bc
       -0.020636683 0.060428113 0.05317567 -0.008991976
000320 6f ea bf bc 46 53 3d 3c 4d 2f d3 3c 8d 9a 61 bd
       -0.023427216 0.0115554985 0.02577939 -0.05507903
000330 c6 a3 53 3c 47 f9 6b bd f5 20 86 bb ea c9 83 bd
       0.012917465 -0.057610776 -0.0040932843 -0.064349964
000340 e1 e1 4f bd 0c 90 27 bc 8c 13 2c bd 32 85 bc 3c
       -0.050752524 -0.010227215 -0.04201083 0.023012731
000350 40 6a 9d 3c 7b 4a ec ba d0 7d e1 bc c5 06 9e 3c
       0.019215703 -0.0018027568 -0.027525812 0.019290337
000360 7a 02 0c bd bc f9 13 bc f8 79 16 3d 01 1a 9e bc
       -0.03418205 -0.009031709 0.036737412 -0.019299509
000370 83 42 8a bc 35 ac 93 bb 12 38 a0 3c e7 e8 00 3c
       -0.016877418 -0.0045066127 0.019557986 0.007868028
000380 ef c2 ed 3c 00 47 4b bc b6 39 36 bd dc 9a 19 bd
       0.029023616 -0.012407064 -0.04448863 -0.0375012
000390 9d 08 97 3a 24 62 bf bc 26 02 48 bd f1 06 1e 3d
       0.0011522953 -0.023362227 -0.048830174 0.03858084
0003a0 b4 be a8 bc f2 1b 03 3c 10 2d 01 3d 26 07 85 3d
       -0.020598747 0.008002268 0.031537116 0.06495504
0003b0 97 14 1f bd 75 a3 8a 39 0d f9 f9 3c b9 42 65 3c
       -0.038837995 0.00026443196 0.030514264 0.013992959
0003c0 5b 4a a0 bb 08 6a 58 3c f3 a6 a2 ba c7 76 00 bd
       -0.0048916764 0.013208874 -0.0012409374 -0.031363275
0003d0 b2 e4 e5 bc 9b 4f d8 3c fd f6 7e 3c 46 37 29 3b
       -0.028063152 0.026405146 0.015561816 0.00258203
0003e0 b8 4d b8 3b ed 80 5e bd 19 e5 14 3d 8b 6a 37 bb
       0.005624499 -0.054322172 0.036351297 -0.0027987089
0003f0 68 19 bb 3c aa 9f 5a bc 12 31 fb 3c c6 05 84 bc
       0.022839263 -0.013343731 0.030663047 -0.016116034

model.2.bias f4 [96]
000000 e1 ca ba bc b4 a5 b6 3c 22 73 b8 bc a3 aa 4f 3c
       -0.022801818 0.02229581 -0.022515837 0.01267496
000010 97 82 f5 bb cf 49 3e 3c ab cf ef 3c 0a a1 ba bc
       -0.007492374 0.011614277 0.029273828 -0.022781868
000020 01 5d e4 3b 20 d8 8b 3c c8 70 cf 3c ed 67 20 3b
       0.0069690947 0.01707083 0.025322333 0.0024476007
000030 68 0a 2b 3d 8c 09 58 3c a9 2c bf 3c ce 7a a6 bb
       0.04175797 0.01318587 0.023336725 -0.0050805574
000040 69 65 20 bd 9d 60 fe 3c 45 7c d5 3c 57 6e 22 3d
       -0.039159212 0.031051928 0.026060233 0.03965601
000050 de e8 22 3d bd 31 e4 bc 99 15 a6 3b df e5 03 bd
       0.03977286 -0.027855748 0.0050684926 -0.032201644
000060 4f cb 9c bc 86 8e 1f 3c b3 f6 7f bb 83 c7 d1 bc
       -0.019139914 0.00973857 -0.0039056956 -0.02560783
000070 cb f4 4c 3b 0e aa 46 3b 17 42 46 3b 5a fe aa 3c
       0.0031273838 0.0030313763 0.0030251795 0.020873237
000080 ba cf c8 bc b3 6f 26 bd 3f 7a 45 3c e6 c6 1d 3b
       -0.024513114 -0.04063387 0.0120530715 0.0024074852
000090 f0 fb b6 bc 3a 70 11 bd 6d 3a 85 bc 62 f5 09 bd
       -0.02233693 -0.03550742 -0.016263211 -0.03368128
0000a0 3f 76 26 3d 34 8f 47 3c 43 75 d1 3b 2c 0c d4 3a
       0.040640112 0.012180138 0.0063921525 0.0016177944
0000b0 50 fa c6 bb 0c b7 a6 bc 7d 2f d2 3c 63 02 0c 3c
       -0.00607232 -0.020350955 0.02565741 0.008545491
0000c0 80 de ee 3c 07 4b be bc 6b cd 73 bc 00 b9 cb bc
       0.02915883 -0.023229135 -0.014880518 -0.024868488
0000d0 db e0 31 3d 4d 03 04 bd 6b 20 01 bd 01 4d dd bc
       0.04342733 -0.03222971 -0.031525057 -0.027014257
0000e0 d0 b9 fa bb fc b0 10 bd 0d eb 04 bd 7d 0f 10 bc
       -0.007651545 -0.035325035 -0.032450724 -0.008792755
0000f0 66 6a 5e bc a7 e9 05 bd 0b 41 bf ba 2d 3a 8d bc
       -0.013575172 -0.03269353 -0.0014591528 -0.017239654
000100 4e 12 19 bd d1 7d 00 3d 57 87 dd 3c e2 b9 93 bc
       -0.037370972 0.031369988 0.027042074 -0.018032972
000110 b1 96 2f bd 8a 6d bf bc e3 2f 25 bd f4 14 75 3c
       -0.04286832 -0.023367662 -0.04032887 0.014958609
000120 15 a2 14 bc 2f e8 05 bd 72 5e ee bc c3 e7 a6 3c
       -0.0090718465 -0.03269213 -0.02909777 0.020374184
000130 9e 73 1d bd 12 99 0a 3d 47 5b 0b bd bb a5 80 bc
       -0.03844034 0.033837385 -0.034022596 -0.015704026
000140 6e 7b b3 bb 05 c9 b1 3c aa c9 83 3c 46 60 71 bb
       -0.0054773604 0.021702299 0.016087372 -0.0036831065
000150 01 0a 2e 3d 99 82 d0 3b 43 72 e1 3c d8 e6 ae bc
       0.04249001 0.0063632247 0.027520305 -0.02135031
000160 d7 72 de bc 90 9c 20 bd 0f 33 98 bc 38 ee 30 3c
       -0.02715437 -0.03921181 -0.018579034 0.010798983
000170 9b 3f 08 bd 98 31 28 bd 3b 03 bb bc 8d 73 ee 3c
       -0.033263784 -0.04106292 -0.022828689 0.029107833
