checkpoints/solar_data_CycleNet_solar_data_ftMS_sl336_ll48_pl12/checkpoint.pth (torch, 718375 bytes, 5 tensors)

cycleQueue.data f4 [24, 12]
0	0x00000000	0.0
1	0x00000000	0.0
2	0x00000000	0.0
3	0x00000000	0.0
4	0x00000000	0.0
5	0x00000000	0.0
6	0x00000000	0.0
7	0x00000000	0.0
8	0x00000000	0.0
9	0x00000000	0.0
10	0x00000000	0.0
11	0x3a5f45e5	0.000851719
12	0x00000000	0.0
13	0x00000000	0.0
14	0x00000000	0.0
15	0x00000000	0.0
16	0x00000000	0.0
17	0x00000000	0.0
18	0x00000000	0.0
19	0x00000000	0.0
20	0x00000000	0.0
21	0x00000000	0.0
22	0x00000000	0.0
23	0xbb276822	-0.0025544246
24	0x00000000	0.0
25	0x00000000	0.0
26	0x00000000	0.0
27	0x00000000	0.0
28	0x00000000	0.0
29	0x00000000	0.0
30	0x00000000	0.0
31	0x00000000	0.0
32	0x00000000	0.0
33	0x00000000	0.0
34	0x00000000	0.0
35	0xbaf5e6cc	-0.00187608
36	0x00000000	0.0
37	0x00000000	0.0
38	0x00000000	0.0
39	0x00000000	0.0
40	0x00000000	0.0
41	0x00000000	0.0
42	0x00000000	0.0
43	0x00000000	0.0
44	0x00000000	0.0
45	0x00000000	0.0
46	0x00000000	0.0
47	0x3bdd4b4c	0.006753361
48	0x00000000	0.0
49	0x00000000	0.0
50	0x00000000	0.0
51	0x00000000	0.0
52	0x00000000	0.0
53	0x00000000	0.0
54	0x00000000	0.0
55	0x00000000	0.0
56	0x00000000	0.0
57	0x00000000	0.0
58	0x00000000	0.0
59	0x3c8823d0	0.01661864
60	0x00000000	0.0
61	0x00000000	0.0
62	0x00000000	0.0
63	0x00000000	0.0
64	0x00000000	0.0
65	0x00000000	0.0
66	0x00000000	0.0
67	0x00000000	0.0
68	0x00000000	0.0
69	0x00000000	0.0
70	0x00000000	0.0
71	0xbbc9b76b	-0.0061558983
72	0x00000000	0.0
73	0x00000000	0.0
74	0x00000000	0.0
75	0x00000000	0.0
76	0x00000000	0.0
77	0x00000000	0.0
78	0x00000000	0.0
79	0x00000000	0.0
80	0x00000000	0.0
81	0x00000000	0.0
82	0x00000000	0.0
83	0xbcc229f7	-0.023701651
84	0x00000000	0.0
85	0x00000000	0.0
86	0x00000000	0.0
87	0x00000000	0.0
88	0x00000000	0.0
89	0x00000000	0.0
90	0x00000000	0.0
91	0x00000000	0.0
92	0x00000000	0.0
93	0x00000000	0.0
94	0x00000000	0.0
95	0xbc0cd5d9	-0.008595907
96	0x00000000	0.0
97	0x00000000	0.0
98	0x00000000	0.0
99	0x00000000	0.0
100	0x00000000	0.0
101	0x00000000	0.0
102	0x00000000	0.0
103	0x00000000	0.0
104	0x00000000	0.0
105	0x00000000	0.0
106	0x00000000	0.0
107	0x3cd2f448	0.025751248
108	0x00000000	0.0
109	0x00000000	0.0
110	0x00000000	0.0
111	0x00000000	0.0
112	0x00000000	0.0
113	0x00000000	0.0
114	0x00000000	0.0
115	0x00000000	0.0
116	0x00000000	0.0
117	0x00000000	0.0
118	0x00000000	0.0
119	0x3c9e2e4d	0.019309187
120	0x00000000	0.0
121	0x00000000	0.0
122	0x00000000	0.0
123	0x00000000	0.0
124	0x00000000	0.0
125	0x00000000	0.0
126	0x00000000	0.0
127	0x00000000	0.0
128	0x00000000	0.0
129	0x00000000	0.0
130	0x00000000	0.0
131	0x3bb50845	0.0055246674
132	0x00000000	0.0
133	0x00000000	0.0
134	0x00000000	0.0
135	0x00000000	0.0
136	0x00000000	0.0
137	0x00000000	0.0
138	0x00000000	0.0
139	0x00000000	0.0
140	0x00000000	0.0
141	0x00000000	0.0
142	0x00000000	0.0
143	0x3d49f1c7	0.049302842
144	0x00000000	0.0
145	0x00000000	0.0
146	0x00000000	0.0
147	0x00000000	0.0
148	0x00000000	0.0
149	0x00000000	0.0
150	0x00000000	0.0
151	0x00000000	0.0
152	0x00000000	0.0
153	0x00000000	0.0
154	0x00000000	0.0
155	0x3cfa0f3b	0.03052484
156	0x00000000	0.0
157	0x00000000	0.0
158	0x00000000	0.0
159	0x00000000	0.0
160	0x00000000	0.0
161	0x00000000	0.0
162	0x00000000	0.0
163	0x00000000	0.0
164	0x00000000	0.0
165	0x00000000	0.0
166	0x00000000	0.0
167	0xbb365d62	-0.0027826657
168	0x00000000	0.0
169	0x00000000	0.0
170	0x00000000	0.0
171	0x00000000	0.0
172	0x00000000	0.0
173	0x00000000	0.0
174	0x00000000	0.0
175	0x00000000	0.0
176	0x00000000	0.0
177	0x00000000	0.0
178	0x00000000	0.0
179	0x3c7cf2ed	0.015438777
180	0x00000000	0.0
181	0x00000000	0.0
182	0x00000000	0.0
183	0x00000000	0.0
184	0x00000000	0.0
185	0x00000000	0.0
186	0x00000000	0.0
187	0x00000000	0.0
188	0x00000000	0.0
189	0x00000000	0.0
190	0x00000000	0.0
191	0x3cfcc150	0.030853897
192	0x00000000	0.0
193	0x00000000	0.0
194	0x00000000	0.0
195	0x00000000	0.0
196	0x00000000	0.0
197	0x00000000	0.0
198	0x00000000	0.0
199	0x00000000	0.0
200	0x00000000	0.0
201	0x00000000	0.0
202	0x00000000	0.0
203	0x3bf1919b	0.007372094
204	0x00000000	0.0
205	0x00000000	0.0
206	0x00000000	0.0
207	0x00000000	0.0
208	0x00000000	0.0
209	0x00000000	0.0
210	0x00000000	0.0
211	0x00000000	0.0
212	0x00000000	0.0
213	0x00000000	0.0
214	0x00000000	0.0
215	0xbc87f0bc	-0.016594283
216	0x00000000	0.0
217	0x00000000	0.0
218	0x00000000	0.0
219	0x00000000	0.0
220	0x00000000	0.0
221	0x00000000	0.0
222	0x00000000	0.0
223	0x00000000	0.0
224	0x00000000	0.0
225	0x00000000	0.0
226	0x00000000	0.0
227	0xbc60b849	-0.013715812
228	0x00000000	0.0
229	0x00000000	0.0
230	0x00000000	0.0
231	0x00000000	0.0
232	0x00000000	0.0
233	0x00000000	0.0
234	0x00000000	0.0
235	0x00000000	0.0
236	0x00000000	0.0
237	0x00000000	0.0
238	0x00000000	0.0
239	0x3c7738bb	0.015089209
240	0x00000000	0.0
241	0x00000000	0.0
242	0x00000000	0.0
243	0x00000000	0.0
244	0x00000000	0.0
245	0x00000000	0.0
246	0x00000000	0.0
247	0x00000000	0.0
248	0x00000000	0.0
249	0x00000000	0.0
250	0x00000000	0.0
251	0x3c40216b	0.011726717
252	0x00000000	0.0
253	0x00000000	0.0
254	0x00000000	0.0
255	0x00000000	0.0

model.0.weight f4 [512, 336]
0	0x3cd92edb	0.0265116
1	0x3d4be98d	0.04978328
2	0x3d70b170	0.058762968
3	0xbd7ed5ff	-0.0622158
4	0xbcb20407	-0.021730436
5	0x3d463366	0.04838886
6	0xbd0e6afd	-0.03477
7	0x3d3a8a16	0.045541845
8	0xbd3adaee	-0.045618944
9	0xbca2fd74	-0.019896246
10	0xbb079050	-0.0020685382
11	0xbce2a12d	-0.027664745
12	0xbb498ba4	-0.0030753398
13	0x3d1ceefb	0.038313847
14	0xbc27c7f6	-0.0102405455
15	0x3d648509	0.055790935
16	0x3d0f0e2f	0.034925636
17	0x3ccb459b	0.024813464
18	0xbd00df4a	-0.031462945
19	0xbb7c530f	-0.0038501655
20	0x3d413173	0.0471663
21	0xbd35b620	-0.04436314
22	0xbcb0b561	-0.021570863
23	0xbd2168c2	-0.039406545
24	0x3ce81c36	0.028333765
25	0x3c27ccd1	0.010241703
26	0xbc937dc4	-0.018004306
27	0x3d2553c9	0.040363107
28	0x3d727c2c	0.05920045
29	0xbd5d2162	-0.053986914
30	0xbc28af7a	-0.010295743
31	0x3ce0d743	0.027446395
32	0xbd0fd565	-0.03511562
33	0xbc9707cb	-0.018436333
34	0x3cba513a	0.02274381
35	0x3d2a10b3	0.041519832
36	0x3c04a246	0.00809533
37	0x3ce5ebf6	0.028066617
38	0xbc0c04de	-0.008546082
39	0x3af55ef6	0.0018720317
40	0x3cb7c2f2	0.022431824
41	0x3d14f27e	0.03636407
42	0xbc10e5ca	-0.0088438485
43	0x3d3fd4cf	0.04683381
44	0x3c581821	0.0131893465
45	0xbca3d51e	-0.019999083
46	0x3c69614f	0.014244392
47	0x3c6b3f28	0.014358319
48	0x3cd8960a	0.026438732
49	0x3cb8615a	0.022507358
50	0xbc886d24	-0.016653605
51	0xbbcf1d58	-0.0063206367
52	0x3ba65d19	0.005077016
53	0x3d1cd402	0.038288124
54	0xbd3ee133	-0.046601485
55	0xbc780aa7	-0.0151392585
56	0xbd17c67e	-0.03705453
57	0x3c9aaf0e	0.0188823
58	0x3d328d42	0.043591745
59	0xbbead55a	-0.007166547
60	0x3d28fe03	0.04125787
61	0xbd0c0315	-0.034182627
62	0xbd1b4a94	-0.03791292
63	0xbd1ac38f	-0.037784155
64	0x3ca58ded	0.020209277
65	0xbd20274d	-0.03909998
66	0x3ca50fe5	0.02014918
67	0x3d387075	0.045029122
68	0x3d12ee6a	0.0358719
69	0x3d4e02e7	0.050295737
70	0x3d2012e4	0.039080516
71	0x3d700a6e	0.058603697
72	0xbd22042a	-0.039554752
73	0xbd7e05f3	-0.062017392
74	0xbd3deac5	-0.04636647
75	0x3ccf6601	0.025317194
76	0xbd7878c4	-0.060662046
77	0x3b6e6b14	0.0036379742
78	0x3d22bebb	0.039732676
79	0xbb814e43	-0.003946097
80	0x3cc3cdcd	0.023901844
81	0xbcb93fde	-0.022613462
82	0x3b838408	0.004013542
83	0x3d370e6d	0.044691492
84	0xbcf01dd1	-0.029311093
85	0xbc1521be	-0.009102283
86	0x3ce167fc	0.027515404
87	0xbd15bc9e	-0.036556832
88	0xbcf3aa1b	-0.029744199
89	0xbd34947d	-0.044086922
90	0xbcace083	-0.02110315
91	0xbd3bb4a5	-0.045826573
92	0xbcd07063	-0.025444215
93	0xbc441550	-0.011967972
94	0xbd1abe15	-0.037778933
95	0x3d19fe08	0.03759578
96	0x3a9d579a	0.0012004257
97	0x3d256467	0.040378954
98	0x3c3cf234	0.011532355
99	0x3d126891	0.035744254
100	0x3d2d4a0f	0.042306956
101	0x3cb03a47	0.021512164
102	0xbc7c4bb7	-0.015398911
103	0x3d271b27	0.04079738
104	0x3a8bc84d	0.0010664553
105	0xbb9803b4	-0.0046391133
106	0x3d3b5371	0.045733873
107	0xbcc9ef1c	-0.024650149
108	0xbc4bbe79	-0.012435549
109	0x3c608dc4	0.013705675
110	0xbccd0392	-0.025026117
111	0xbd203f18	-0.03912267
112	0x3d1c036a	0.038089193
113	0xbcdbed27	-0.026846481
114	0x3d40e61b	0.047094446
115	0x3bcf5701	0.0063275103
116	0x3d0d1271	0.034441415
117	0x3d075165	0.03303661
118	0x3cea34b4	0.028589584
119	0x3d606175	0.054780442
120	0xbd1e8bd4	-0.03870757
121	0xbcdce30a	-0.02696373
122	0xbd2cf023	-0.0422212
123	0x3d331e62	0.043730147
124	0xbc6959c2	-0.014242591
125	0x3b6660dd	0.003515295
126	0x3b89f06f	0.00420957
127	0x3d404cd0	0.046948254
128	0xbaf8474d	-0.0018942148
129	0xbd3addb5	-0.045621593
130	0x3c793a4d	0.015211654
131	0x3c4a2b43	0.012339416
132	0xbcafc376	-0.021455508
133	0xbcb5a15f	-0.022171674
134	0x3cddf8f2	0.027096245
135	0xbc8000ff	-0.015625475
136	0xbcb4c79b	-0.022067836
137	0x383f3895	4.5590645e-05
138	0xbc1494d5	-0.009068687
139	0xbd21e664	-0.03952636
140	0xbd032f5f	-0.0320276
141	0xbd553bdd	-0.052059043
142	0x3d48f432	0.049061008
143	0x3ad8404c	0.0016498654
144	0x3d1304e2	0.03589333
145	0x3d15437d	0.036441315
146	0xbb9ab2b4	-0.00472101
147	0xbcbca797	-0.023029132
148	0xbc2a6a94	-0.010401387
149	0xbb7069ab	-0.0036684077
150	0xbc551c4e	-0.013007237
151	0xbd1d7ab6	-0.038447104
152	0x3d2bc521	0.041936044
153	0xbd403fe4	-0.04693593
154	0xbb176775	-0.0023102437
155	0xbc314451	-0.010819511
156	0xbce11810	-0.027477294
157	0xbd61f84a	-0.055168428
158	0xbce34e6a	-0.027747352
159	0xbd05a7ae	-0.032630615
160	0xbcc35a15	-0.023846665
161	0x3d3194bd	0.04335474
162	0xbd043145	-0.03227355
163	0xbcd71410	-0.026254684
164	0x3b231f45	0.0024890464
165	0xbc5fe43e	-0.013665257
166	0xbd071957	-0.03298315
167	0x3ce007f1	0.027347537
168	0xbc8f2756	-0.017474812
169	0xbcbfe138	-0.023422822
170	0xbd30ddb8	-0.043180197
171	0x3cb595f5	0.022166232
172	0xbc03817d	-0.008026478
173	0xbc437c70	-0.011931524
174	0x3d26026b	0.04052965
175	0xbd907126	-0.07052831
176	0x3d47c666	0.048773192
177	0x3d1e7b47	0.038691785
178	0xbd2c93a2	-0.04213298
179	0xbd35b19f	-0.044358846
180	0x3ca9c7fc	0.020725243
181	0x3d5cc982	0.05390311
182	0x3d5342aa	0.051577248
183	0x3d17cabb	0.037058573
184	0xbd07e65e	-0.03317868
185	0xbcf4c9a8	-0.029881313
186	0xbcf7abec	-0.030233346
187	0x3d1c69d1	0.038186852
188	0x3d27a20d	0.040926028
189	0x3ca43c7d	0.020048374
190	0xbcd7eed6	-0.026359003
191	0xbcf84e8e	-0.030310895
192	0x3d56e2fd	0.052462567
193	0x3d4895fb	0.048971158
194	0xbcd69f53	-0.026199019
195	0xbd526e39	-0.051374648
196	0x3c86f398	0.016473576
197	0x3ce86956	0.02837054
198	0x3bbe729b	0.005812002
199	0xbc2bfa05	-0.010496621
200	0x3d4df04d	0.050277997
201	0xbd436027	-0.04769912
202	0xbce91079	-0.028450238
203	0xbd192220	-0.03738606
204	0x3b5667a8	0.0032715593
205	0xbd1f79e9	-0.038934622
206	0xbb3c4879	-0.002872972
207	0xbcde0043	-0.027099734
208	0x3d6c5eea	0.057707705
209	0x3cf65ebd	0.030074472
210	0x3d26f33e	0.040759318
211	0x3b855158	0.004068535
212	0x3b6f9ee9	0.0036563224
213	0x3c541acd	0.012945843
214	0xbd630106	-0.055420898
215	0xbb7b23ea	-0.0038320967
216	0xbb62647a	-0.0034544752
217	0x3ce66174	0.028122641
218	0xbc4bf406	-0.012448316
219	0xbcfc69fd	-0.030812258
220	0x3cf20d07	0.029547228
221	0x3bf95c7a	0.007609901
222	0xbd6ee96a	-0.05832807
223	0x3d212b4b	0.039347928
224	0x3cc39746	0.023875844
225	0xbcb88404	-0.022523887
226	0xbca2142d	-0.019785011
227	0xbc3651e5	-0.011127924
228	0xbbf38258	-0.0074313097
229	0x3d3c1cbe	0.04592585
230	0xbbbdbf3a	-0.0057906182
231	0xbd2bc100	-0.041932106
232	0x3c6f8a50	0.014620379
233	0x3d3d63cb	0.046237748
234	0xb93a868a	-0.00017788462
235	0x3c1cfa48	0.009581156
236	0xbb99669b	-0.004681421
237	0xbd25bd46	-0.04046371
238	0xbbddf59a	-0.0067736628
239	0x3d6341af	0.055482563
240	0xbcb63816	-0.02224354
241	0x3d87726d	0.06613622
242	0x3d1d6b7e	0.03843259
243	0x3be092fa	0.0068534585
244	0x3d23c17a	0.039979436
245	0xbc9aefcc	-0.018913172
246	0x3d391204	0.045183197
247	0x3ac2e3bb	0.0014868894
248	0x3d0ad9ee	0.03389924
249	0x3cb8c4aa	0.022554714
250	0xbcbbbbc0	-0.022916675
251	0xbc857e29	-0.01629551
252	0xbbf52d4d	-0.007482207
253	0x3a2d87a7	0.000661964
254	0xbcec6463	-0.028856462
255	0xbc92f49b	-0.017938903

model.0.bias f4 [512]
0	0xbc8b7962	-0.017025653
1	0xbc38e7ca	-0.011285732
2	0x3d0b027d	0.03393792
3	0x3bfbf6c7	0.0076893303
4	0xbd22920f	-0.039690074
5	0xbd815b4c	-0.063162416
6	0xbc9d406c	-0.019195758
7	0x3a3ba527	0.00071580935
8	0x3d221eb4	0.039580062
9	0x3d1189c6	0.03553178
10	0xbd067b20	-0.032832265
11	0x3d6e821a	0.058229543
12	0x3d0e42c4	0.03473164
13	0xbd5a140d	-0.05324178
14	0xbc9e7bfe	-0.019346233
15	0x3cdb4aaa	0.026769001
16	0xbbc9a2de	-0.0061534485
17	0x3bbc1ad6	0.005740504
18	0xbcba1109	-0.022713201
19	0x3c6d679d	0.014490035
20	0xbd08ce39	-0.033399794
21	0x3d14b751	0.036307637
22	0x3a7a2ff4	0.0009543889
23	0x3c031dee	0.008002741
24	0xbd161d99	-0.03664932
25	0x3d3e519f	0.04646456
26	0x3d01cfe3	0.031692397
27	0xbce032cf	-0.027367977
28	0xbcb93082	-0.022606138
29	0x3cc70727	0.024295403
30	0xbcff6959	-0.031178163
31	0x3c518a0f	0.012789263
32	0xbd4a892b	-0.04944722
33	0xbbb41aab	-0.005496343
34	0x3d846055	0.064636864
35	0xbd6c1203	-0.057634365
36	0xbd4f1461	-0.050556544
37	0xbd25673f	-0.040381666
38	0xbb8efd63	-0.004363702
39	0x3d0460bb	0.032318812
40	0x3c9bb790	0.019008428
41	0xbcefcff2	-0.02927396
42	0xbcfa61b3	-0.030564165
43	0xbcb8d3a6	-0.02256186
44	0xbd1ea679	-0.03873298
45	0xbc8c5242	-0.017129067
46	0xbd4a01de	-0.049318187
47	0xbbaa4f7c	-0.0051974636
48	0x3bdad9de	0.006678804
49	0xbd3bbc66	-0.045833968
50	0xbd5d4183	-0.054017555
51	0xbb6f468e	-0.003651056
52	0xbc256b08	-0.010096319
53	0x3c0f9181	0.008762718
54	0xbd1a07d2	-0.037605114
55	0x3c270858	0.01019486
56	0x3d7dcb2b	0.061961334
57	0x3c006957	0.007837615
58	0x3cb40afc	0.021977894
59	0x3b27a1aa	0.0025578537
60	0x3cc5359e	0.024073418
61	0xbd483bae	-0.04888504
62	0xbc862150	-0.016373307
63	0xbcc8440d	-0.024446512
64	0x3d65d127	0.056107666
65	0xbd6985e7	-0.057012465
66	0x3d1c0e1b	0.03809939
67	0xbd12df97	-0.035857763
68	0x3d1d76bd	0.038443316
69	0x3d4820c5	0.048859376
70	0x3d3d0eb0	0.046156585
71	0xbc673406	-0.014111524
72	0x3c71454e	0.014725996
73	0xbaeb2a4d	-0.0017941684
74	0x3c1e04b1	0.009644673
75	0x3d594888	0.053047687
76	0x3ca8fcc7	0.020628346
77	0xbc606c47	-0.01369769
78	0x3caf6ffe	0.021415707
79	0xbd33d837	-0.04390737
80	0xbc30160e	-0.010747446
81	0x3c4512d8	0.0120284185
82	0xbc893e48	-0.01675333
83	0x3c00c6d0	0.007859901
84	0x3d01e40d	0.031711627
85	0xbcf52195	-0.02992324
86	0xbc8104fd	-0.015749449
87	0xbcc10cdb	-0.0235657
88	0x3c0a3263	0.008434865
89	0xbd1503f2	-0.036380716
90	0xbd11d8e2	-0.035607226
91	0xbc9f2c35	-0.01943026
92	0x3d52d1bf	0.05146956
93	0xbb52d69b	-0.0032171372
94	0x3bf29a8b	0.007403677
95	0x3d0dd652	0.03462822
96	0xbd55a88f	-0.052162703
97	0x3c201b42	0.009772124
98	0x3d4e6586	0.05038979
99	0x3d0cd28f	0.03438049
100	0x3c863660	0.01638335
101	0xbcbce07a	-0.023056258
102	0x3d2329e0	0.039834857
103	0xbcc729f0	-0.02431199
104	0xbc856a0f	-0.016285924
105	0xbb8694ef	-0.0041071097
106	0xbd371d34	-0.044705585
107	0x3d47d208	0.048784286
108	0x3cab3336	0.020898443
109	0x3c034a6f	0.008013352
110	0x3ce223bf	0.027604936
111	0x3c9fcfe4	0.01950831
112	0xbd1b712f	-0.037949737
113	0x3c4956e4	0.012288783
114	0xbb841fc8	-0.004032109
115	0xbd3ba679	-0.045813058
116	0x3cc5df53	0.02415434
117	0x3b4eab06	0.0031535043
118	0x3cb20e8f	0.021735458
119	0x3a70850b	0.00091750984
120	0xbd4c02d0	-0.04980737
121	0x3d7ff041	0.062484983
122	0xbc8bef86	-0.017081987
123	0x3d3af952	0.045647927
124	0xbb4e2798	-0.0031456705
125	0xbc92b005	-0.017906198
126	0xbd051971	-0.032494966
127	0x3d840226	0.06445722
128	0xbc739d02	-0.014868977
129	0x3d050c07	0.032482173
130	0x3d5821a4	0.052766457
131	0x3b4147a9	0.0029492176
132	0x3cbd91df	0.023140846
133	0x3d32ff00	0.04370022
134	0xbd04b0da	-0.03239522
135	0xbccf95f5	-0.02534006
136	0x3c209172	0.009800302
137	0x3d4b5c15	0.049648363
138	0xbbbea23c	-0.0058176797
139	0x3d3920b4	0.045197204
140	0xbd1cb8c1	-0.038262133
141	0xbd3fc501	-0.046818737
142	0xbc5f2dc6	-0.013621753
143	0x3cc448f3	0.023960566
144	0x3b234802	0.0024914746
145	0x3cf1a9c4	0.029499896
146	0x3c236727	0.009973324
147	0xbd3ff484	-0.046864048
148	0x3ca438a1	0.020046534
149	0xbcc515e5	-0.024058292
150	0xbc1be42a	-0.009514848
151	0xbd2e93ea	-0.04262153
152	0xbd67ce91	-0.05659348
153	0xbd107cd6	-0.035275303
154	0xbd75b15f	-0.059983607
155	0xbbb82b29	-0.0056203795
156	0x3d31b9d2	0.043390103
157	0x3d3be6f6	0.04587456
158	0xbd0b43b8	-0.03400013
159	0x3d064966	0.032784842
160	0x3d3a94c3	0.045552026
161	0x3d6be288	0.057589084
162	0x3a663ce3	0.00087828765
163	0x3cde57ab	0.027141413
164	0xbc9964dd	-0.018724853
165	0x3cbdc61e	0.023165759
166	0xbc967459	-0.018366026
167	0x3989429e	0.0002618031
168	0x3b7159da	0.0036827237
169	0xbd116c87	-0.03550389
170	0xbcb9f56c	-0.022700034
171	0x3d4503c8	0.04809931
172	0x399c6b9b	0.0002983481
173	0xbcd18d45	-0.025580058
174	0xbcc6765b	-0.024226358
175	0x3d2fd250	0.04292518
176	0xbcc55a4f	-0.024090914
177	0x3d58c46b	0.052921694
178	0x3d30072e	0.042975597
179	0x3d104d5a	0.03523002
180	0xbd026a46	-0.03183963
181	0x3bf92f6f	0.0076045315
182	0xbb91f6a2	-0.0044544498
183	0xbd3e213b	-0.04641841
184	0x3c2b46c4	0.010453884
185	0x3c8117f4	0.015758492
186	0xbbe4aab5	-0.0069783577
187	0x3d5cbb45	0.05388953
188	0x3c8e3b96	0.017362397
189	0x3d0cd113	0.034379076
190	0xbd3f0cb4	-0.046642974
191	0x3d1eb8e7	0.038750555
192	0x3c3dd739	0.011586958
193	0xbd3ef39f	-0.046619054
194	0xbb66a26e	-0.003519203
195	0x3d4ccd15	0.05000027
196	0x3d08949f	0.03334486
197	0xbbdd462a	-0.006752749
198	0x3ce753ee	0.028238263
199	0x3d63bcb5	0.055599887
200	0xbcbb4933	-0.022862053
201	0x3c68e72d	0.014215273
202	0x3c25f235	0.010128547
203	0xbd053856	-0.03252443
204	0x3d0b5e22	0.03402532
205	0xbd120473	-0.035648774
206	0x3ce00a66	0.027348708
207	0xbd28970a	-0.041159667
208	0x3c8825b6	0.016619544
209	0x3d35cea0	0.044386506
210	0x3b72abfa	0.0037028776
211	0x3c3350de	0.010944573
212	0x3c015a56	0.007895073
213	0x3d4de7fe	0.050270073
214	0xbd624b2a	-0.055247463
215	0x3d42ae73	0.04752965
216	0xbc98a88b	-0.018635055
217	0xbcb8ba0d	-0.022549653
218	0xbd379cd9	-0.044827316
219	0x3d358310	0.044314444
220	0x3d621056	0.05519136
221	0x3cb735b6	0.022364479
222	0xbc152917	-0.009104035
223	0x3ba25d69	0.004954983
224	0xbc1a6e0e	-0.009425653
225	0x3d58ea5d	0.05295788
226	0xbcad2fa7	-0.021140886
227	0x3d3163c0	0.04330802
228	0x3b833dae	0.0040051555
229	0x3d275346	0.0408509
230	0xb8b558d8	-8.647301e-05
231	0xbc50dcad	-0.012747926
232	0x3d393643	0.045217764
233	0x3cd22c8e	0.025656011
234	0x3ba0e5b4	0.0049101952
235	0x3b8001e1	0.003906474
236	0x3d66435b	0.05621658
237	0xbb18e623	-0.0023330532
238	0x3d199fa2	0.037505753
239	0x3b125a7e	0.002233177
240	0xbc8a2da6	-0.01686747
241	0xbc59a944	-0.013284985
242	0xbd22d7b7	-0.039756503
243	0xbd56cf99	-0.052444074
244	0x3cb510fb	0.022102823
245	0x3b848fe4	0.0040454734
246	0xbd1d21d7	-0.03836235
247	0xbd031ca0	-0.03200972
248	0x3d6da620	0.058019757
249	0xbb9a4f5e	-0.0047091683
250	0x3cdcd953	0.026959097
251	0xbd6d0d19	-0.05787382
252	0x3c18ec6c	0.009333711
253	0x3c9c7f80	0.019103765
254	0x3d6071f7	0.054796185
255	0xbc96c829	-0.01840599

model.2.weight f4 [12, 512]
0	0x3d224691	0.03961808
1	0x3c27249b	0.0102015985
2	0xbada0172	-0.0016632511
3	0x3b472d8f	0.0030392145
4	0x3d0f9ed9	0.0350636
5	0xbcfbf650	-0.0307571
6	0xbcb9e734	-0.022693254
7	0xbcaa4721	-0.02078587
8	0x3d70009f	0.058594342
9	0x3c73d23d	0.014881668
10	0x3d5a495f	0.05329263
11	0x3d33fe2e	0.043943577
12	0x3cacd4ff	0.021097658
13	0xbd135d89	-0.035977874
14	0x3c57c3d4	0.013169248
15	0x3afe78d2	0.0019414669
16	0xbd37b978	-0.04485461
17	0xbcd4b271	-0.025963994
18	0xbd085241	-0.03328157
19	0x3c4aab64	0.012369964
20	0xbc9226a0	-0.017840683
21	0xbc8b9b38	-0.017041788
22	0xbcaafcc0	-0.020872474
23	0x3c192f65	0.009349679
24	0x3cdd93f5	0.02704809
25	0x3cf1d763	0.02952165
26	0xbd1caaf7	-0.038248982
27	0xbcffa72d	-0.031207645
28	0xbcd1853c	-0.025576226
29	0xbcf35dc2	-0.029707793
30	0x3d5861c4	0.05282761
31	0x3bbee22b	0.005825301
32	0xbc50b0e0	-0.012737483
33	0x3b02bab6	0.0019947714
34	0x3aac09b7	0.0013125454
35	0xbcf85231	-0.03031263
36	0xbcd5da71	-0.026105138
37	0xbc8d29ba	-0.01723181
38	0x3ca254d0	0.019815832
39	0xbc3bb7d9	-0.011457407
40	0xbb8cf331	-0.0043014516
41	0x3c75af0f	0.0149953505
42	0x3d19b91e	0.037530057
43	0xbd40013c	-0.046876177
44	0x3d4015d0	0.046895802
45	0x3c5ef3a1	0.01360789
46	0x3c5c38cb	0.013441275
47	0x3c36d4a4	0.011159096
48	0x3d3050e6	0.0430459
49	0x3cbec71a	0.023288298
50	0x3c3c7afe	0.011503933
51	0xbc8ddd78	-0.017317519
52	0x3c37053a	0.01117068
53	0x3d000f0f	0.03126436
54	0x3c28c1af	0.010300084
55	0xbd199954	-0.03749974
56	0x3c8f7653	0.017512476
57	0xbc704583	-0.01466501
58	0xbc2baf08	-0.010478742
59	0xbc904745	-0.017612109
60	0x3c723f0d	0.01478554
61	0xbc9adc1e	-0.018903788
62	0xbca5e15a	-0.020249058
63	0x3c328409	0.010895737
64	0xbd0d672b	-0.034522217
65	0xbd208b88	-0.039195567
66	0x3d31d453	0.04341538
67	0xbc59dc73	-0.013297188
68	0x3d1187e0	0.03552997
69	0x3d2ab769	0.04167882
70	0xbd00ac22	-0.03141416
71	0x3c892765	0.016742418
72	0xbd0c445f	-0.03424489
73	0x391104f8	0.00013830129
74	0xba1c4584	-0.00059612864
75	0xbba0d28e	-0.0049079126
76	0x3bf0391e	0.0073310276
77	0x3d22f18b	0.039781135
78	0xbcc38d63	-0.02387113
79	0x3d2a67dc	0.041602954
80	0xbcb6aa70	-0.022298068
81	0xbc173d25	-0.009230887
82	0x3c77a9de	0.015116183
83	0xbcefee4c	-0.029288433
84	0x3ce45407	0.027872099
85	0xbbef4a65	-0.0073025697
86	0xbd10650d	-0.03525262
87	0x3c5db4ed	0.013531906
88	0xbafe79de	-0.0019414981
89	0x3be3e195	0.0069543817
90	0x3cbff74b	0.023433348
91	0xbd2d6cde	-0.042340152
92	0xbca3893b	-0.019962898
93	0x3cfb946d	0.030710423
94	0xbd14b480	-0.03630495
95	0xb9e0d2a2	-0.00042881543
96	0xbc06671c	-0.008203294
97	0xbb9cb40d	-0.004782206
98	0x3c0f96f7	0.00876402
99	0x3cfd623b	0.030930629
100	0x3aa720f1	0.0012750906
101	0x3d33e636	0.043920718
102	0x3ccb44a2	0.024813
103	0x3d124a0e	0.035715155
104	0x3b6571ae	0.0035010385
105	0xbaa6d656	-0.0012728672
106	0x3c14e268	0.009087183
107	0x3d3bce8d	0.04585128
108	0xbc6ede09	-0.0145793045
109	0x3b8471e2	0.004041896
110	0xbc085bbd	-0.008322653
111	0x3d2d82dd	0.04236113
112	0x3d0c1926	0.03420367
113	0x3d1de874	0.038551763
114	0x3c9626d3	0.01832906
115	0x3ce65a8a	0.028119344
116	0xbccd8b9c	-0.025090985
117	0x3d020d2b	0.03175084
118	0x3d5c060c	0.053716704
119	0xbc177021	-0.009243042
120	0xbcb7dd02	-0.022444252
121	0xbc22673d	-0.009912309
122	0x3cbbef86	0.022941362
123	0xbd19ecac	-0.037579224
124	0x3c392046	0.0112991985
125	0xbca678e1	-0.020321311
126	0xbcecfd2f	-0.028929321
127	0xbd484957	-0.048898067
128	0x3b4f5772	0.0031637815
129	0x3c9747a6	0.018466782
130	0x3d27b756	0.040946327
131	0xbd3e31dd	-0.046434272
132	0xbc993c09	-0.018705385
133	0xbca92325	-0.020646641
134	0xbd2f818d	-0.04284816
135	0xbca9c224	-0.020722456
136	0xbd24b6ae	-0.04021328
137	0xbcb6b7e8	-0.02230449
138	0xbc5d558f	-0.013509168
139	0x3ce833d3	0.028345024
140	0xbce4dbae	-0.027936783
141	0x3c075f1d	0.008262423
142	0xbbc07f9e	-0.005874588
143	0x3ce22399	0.027604865
144	0x3cdfd765	0.027324388
145	0xbd1c7ec0	-0.038206816
146	0x3cfcbddd	0.030852253
147	0x3b6bb77d	0.0035967522
148	0x3c14c724	0.009080682
149	0xbc4536c5	-0.012036984
150	0x3ce85231	0.028359504
151	0xbd19a3d6	-0.03750976
152	0xbcea2a2c	-0.028584562
153	0x3d129c6d	0.03579371
154	0x3b876b04	0.0041326303
155	0xbd1d8e87	-0.038466003
156	0x3cf06594	0.029345311
157	0xbc3ab860	-0.0113964975
158	0x3d2a1d9f	0.041532155
159	0xbd1af1db	-0.037828308
160	0xbc85c0d4	-0.0163273
161	0x3cf3f127	0.029778076
162	0x3bb5aa71	0.005544
163	0xbcdda5fd	-0.027056688
164	0x3c36d63b	0.011159475
165	0x3d170dae	0.03687828
166	0x3c146a33	0.009058523
167	0x3d03c81d	0.032173265
168	0xbcd0a4c3	-0.02546919
169	0xbcc5f5de	-0.02416509
170	0x3ca96aaa	0.020680744
171	0x3d2e3e1e	0.04253971
172	0x3d326a1d	0.04355823
173	0xbbba3acb	-0.005683278
174	0x3d268bcc	0.040660664
175	0xbd45f3ba	-0.04832814
176	0xbc93226d	-0.017960751
177	0x3c589d0d	0.013221038
178	0x3c726d34	0.014796544
179	0x3c9ee3cd	0.019395733
180	0x3d13ed53	0.036115002
181	0x3bb5a95e	0.005543872
182	0xbd4373a1	-0.047717694
183	0x3d043be8	0.032283694
184	0xbcad5d7a	-0.021162737
185	0xbcf39a12	-0.029736552
186	0x3c2dbb3c	0.010603722
187	0x3cb59f2c	0.022170626
188	0x3d1989a4	0.03748478
189	0xbd3188c3	-0.043343317
190	0x3d3970e2	0.04527367
191	0x3c84e8b5	0.016224245
192	0x3c30cac2	0.010790529
193	0x3c9abc81	0.018888714
194	0x3b88d51e	0.004175796
195	0x3c8cd566	0.0171916
196	0x3d567ea5	0.05236687
197	0xbd1f7608	-0.038930923
198	0x3a3e8c78	0.0007268856
199	0x3cd88da5	0.026434729
200	0xbc3b7acf	-0.011442854
201	0x3d1e50b3	0.03865118
202	0xbd19c6ed	-0.037543226
203	0x3cc4cbf2	0.02402303
204	0xbc4118ed	-0.011785728
205	0xbc050b34	-0.008120347
206	0x3ce4f6fc	0.027949803
207	0x3cd406ab	0.025882086
208	0xbc564272	-0.013077365
209	0xbd2ef12d	-0.042710472
210	0xbc9b2f52	-0.018943463
211	0xbd299971	-0.0414061
212	0x3d30dc19	0.04317865
213	0xbbd869fc	-0.006604431
214	0x3cbc19f6	0.022961598
215	0xbbf2d5e3	-0.007410751
216	0xbcdc5247	-0.026894702
217	0xbd006924	-0.03135027
218	0x3d2b3dae	0.04180687
219	0x3c746937	0.014917663
220	0x3c8ae3a5	0.016954252
221	0xbc09739a	-0.008389378
222	0x3a9b4918	0.0011847345
223	0xbcd949a7	-0.026524378
224	0x3d08d8ba	0.03340981
225	0x3c6d6a41	0.014490665
226	0xbd11162b	-0.03542153
227	0x3d5e6945	0.05429961
228	0x3d215b3b	0.039393645
229	0xbd1a4a5a	-0.037668563
230	0xbb22f4c7	-0.0024865137
231	0xbd42634d	-0.04745798
232	0xbc720168	-0.014770843
233	0x38db8722	0.00010467904
234	0x3cb47634	0.02202902
235	0x3d03585b	0.032066684
236	0xbc49f076	-0.012325397
237	0xbc869c0b	-0.016431829
238	0x3cc23119	0.023705052
239	0x3cda2658	0.026629612
240	0xbc3381f4	-0.010956276
241	0xbcb6f9ac	-0.02233585
242	0x3d3e4491	0.04645211
243	0x3d49a84f	0.049232777
244	0xbcacda65	-0.021100232
245	0x3d0ac609	0.033880267
246	0xb9d6ab5d	-0.00040944936
247	0x3baad876	0.0052137924
248	0xbd1b3c76	-0.037899457
249	0xbd35df59	-0.044402454
250	0x3d077ad4	0.033076122
251	0xbd06e4ed	-0.032933164
252	0x3cbc2f29	0.022971706
253	0x3a50495f	0.00079455035
254	0xbcf63ced	-0.030058349
255	0xbd54d0c5	-0.05195691

model.2.bias f4 [12]
0	0xbcbac25b	-0.022797754
1	0x3d37e688	0.044897586
2	0xbc0ccf0a	-0.008594284
3	0x3d2b9afb	0.041895848
4	0x3d068117	0.032837953
5	0xbc46088d	-0.012087
6	0xbaecfa1a	-0.0018079907
7	0x3c2efa68	0.010679819
8	0x3d63269c	0.055456743
9	0x3d3ca633	0.046056937
10	0x3b1b35ba	0.0023683147
11	0x3d2813bf	0.041034456
