checkpoints/solar_data_CycleNet_solar_data_ftMS_sl96_ll48_pl12/checkpoint.pth (torch, 226855 bytes, 5 tensors)

cycleQueue.data f4 [24, 12]
000000 00 00 00 00 00 00 00 00 00 00 00 00 00 00 00 00
       0.0 0.0 0.0 0.0
000010 00 00 00 00 00 00 00 00 00 00 00 00 00 00 00 00
       0.0 0.0 0.0 0.0
000020 00 00 00 00 00 00 00 00 00 00 00 00 d0 98 b3 bc
       0.0 0.0 0.0 -0.021923453
000030 00 00 00 00 00 00 00 00 00 00 00 00 00 00 00 00
       0.0 0.0 0.0 0.0
000040 00 00 00 00 00 00 00 00 00 00 00 00 00 00 00 00
       0.0 0.0 0.0 0.0
000050 00 00 00 00 00 00 00 00 00 00 00 00 a0 d5 10 bd
       0.0 0.0 0.0 -0.03535998
000060 00 00 00 00 00 00 00 00 00 00 00 00 00 00 00 00
       0.0 0.0 0.0 0.0
000070 00 00 00 00 00 00 00 00 00 00 00 00 00 00 00 00
       0.0 0.0 0.0 0.0
000080 00 00 00 00 00 00 00 00 00 00 00 00 18 4b 07 bc
       0.0 0.0 0.0 -0.00825765
000090 00 00 00 00 00 00 00 00 00 00 00 00 00 00 00 00
       0.0 0.0 0.0 0.0
0000a0 00 00 00 00 00 00 00 00 00 00 00 00 00 00 00 00
       0.0 0.0 0.0 0.0
0000b0 00 00 00 00 00 00 00 00 00 00 00 00 7c b3 49 3c
       0.0 0.0 0.0 0.012310859
0000c0 00 00 00 00 00 00 00 00 00 00 00 00 00 00 00 00
       0.0 0.0 0.0 0.0
0000d0 00 00 00 00 00 00 00 00 00 00 00 00 00 00 00 00
       0.0 0.0 0.0 0.0
0000e0 00 00 00 00 00 00 00 00 00 00 00 00 12 33 90 3c
       0.0 0.0 0.0 0.017602477
0000f0 00 00 00 00 00 00 00 00 00 00 00 00 00 00 00 00
       0.0 0.0 0.0 0.0
000100 00 00 00 00 00 00 00 00 00 00 00 00 00 00 00 00
       0.0 0.0 0.0 0.0
000110 00 00 00 00 00 00 00 00 00 00 00 00 6e c5 a2 ba
       0.0 0.0 0.0 -0.0012418458
000120 00 00 00 00 00 00 00 00 00 00 00 00 00 00 00 00
       0.0 0.0 0.0 0.0
000130 00 00 00 00 00 00 00 00 00 00 00 00 00 00 00 00
       0.0 0.0 0.0 0.0
000140 00 00 00 00 00 00 00 00 00 00 00 00 ae 4e b3 bc
       0.0 0.0 0.0 -0.021888103
000150 00 00 00 00 00 00 00 00 00 00 00 00 00 00 00 00
       0.0 0.0 0.0 0.0
000160 00 00 00 00 00 00 00 00 00 00 00 00 00 00 00 00
       0.0 0.0 0.0 0.0
000170 00 00 00 00 00 00 00 00 00 00 00 00 57 9f 99 3b
       0.0 0.0 0.0 0.0046881842
000180 00 00 00 00 00 00 00 00 00 00 00 00 00 00 00 00
       0.0 0.0 0.0 0.0
000190 00 00 00 00 00 00 00 00 00 00 00 00 00 00 00 00
       0.0 0.0 0.0 0.0
0001a0 00 00 00 00 00 00 00 00 00 00 00 00 de 63 0a 3d
       0.0 0.0 0.0 0.033786647
0001b0 00 00 00 00 00 00 00 00 00 00 00 00 00 00 00 00
       0.0 0.0 0.0 0.0
0001c0 00 00 00 00 00 00 00 00 00 00 00 00 00 00 00 00
       0.0 0.0 0.0 0.0
0001d0 00 00 00 00 00 00 00 00 00 00 00 00 90 23 72 3c
       0.0 0.0 0.0 0.014778987
0001e0 00 00 00 00 00 00 00 00 00 00 00 00 00 00 00 00
       0.0 0.0 0.0 0.0
0001f0 00 00 00 00 00 00 00 00 00 00 00 00 00 00 00 00
       0.0 0.0 0.0 0.0
000200 00 00 00 00 00 00 00 00 00 00 00 00 f1 02 0e bb
       0.0 0.0 0.0 -0.0021669234
000210 00 00 00 00 00 00 00 00 00 00 00 00 00 00 00 00
       0.0 0.0 0.0 0.0
000220 00 00 00 00 00 00 00 00 00 00 00 00 00 00 00 00
       0.0 0.0 0.0 0.0
000230 00 00 00 00 00 00 00 00 00 00 00 00 37 c8 31 3d
       0.0 0.0 0.0 0.04340383
000240 00 00 00 00 00 00 00 00 00 00 00 00 00 00 00 00
       0.0 0.0 0.0 0.0
000250 00 00 00 00 00 00 00 00 00 00 00 00 00 00 00 00
       0.0 0.0 0.0 0.0
000260 00 00 00 00 00 00 00 00 00 00 00 00 95 c8 d9 3c
       0.0 0.0 0.0 0.026584903
000270 00 00 00 00 00 00 00 00 00 00 00 00 00 00 00 00
       0.0 0.0 0.0 0.0
000280 00 00 00 00 00 00 00 00 00 00 00 00 00 00 00 00
       0.0 0.0 0.0 0.0
000290 00 00 00 00 00 00 00 00 00 00 00 00 3d b7 ab bb
       0.0 0.0 0.0 -0.0052403496
0002a0 00 00 00 00 00 00 00 00 00 00 00 00 00 00 00 00
       0.0 0.0 0.0 0.0
0002b0 00 00 00 00 00 00 00 00 00 00 00 00 00 00 00 00
       0.0 0.0 0.0 0.0
0002c0 00 00 00 00 00 00 00 00 00 00 00 00 83 cf a1 3c
       0.0 0.0 0.0 0.01975227
0002d0 00 00 00 00 00 00 00 00 00 00 00 00 00 00 00 00
       0.0 0.0 0.0 0.0
0002e0 00 00 00 00 00 00 00 00 00 00 00 00 00 00 00 00
       0.0 0.0 0.0 0.0
0002f0 00 00 00 00 00 00 00 00 00 00 00 00 50 22 dc 3c
       0.0 0.0 0.0 0.02687183
000300 00 00 00 00 00 00 00 00 00 00 00 00 00 00 00 00
       0.0 0.0 0.0 0.0
000310 00 00 00 00 00 00 00 00 00 00 00 00 00 00 00 00
       0.0 0.0 0.0 0.0
000320 00 00 00 00 00 00 00 00 00 00 00 00 56 7b 53 bc
       0.0 0.0 0.0 -0.012907824
000330 00 00 00 00 00 00 00 00 00 00 00 00 00 00 00 00
       0.0 0.0 0.0 0.0
000340 00 00 00 00 00 00 00 00 00 00 00 00 00 00 00 00
       0.0 0.0 0.0 0.0
000350 00 00 00 00 00 00 00 00 00 00 00 00 c5 3b ce bc
       0.0 0.0 0.0 -0.025174985
000360 00 00 00 00 00 00 00 00 00 00 00 00 00 00 00 00
       0.0 0.0 0.0 0.0
000370 00 00 00 00 00 00 00 00 00 00 00 00 00 00 00 00
       0.0 0.0 0.0 0.0
000380 00 00 00 00 00 00 00 00 00 00 00 00 36 37 0c 38
       0.0 0.0 0.0 3.343002e-05
000390 00 00 00 00 00 00 00 00 00 00 00 00 00 00 00 00
       0.0 0.0 0.0 0.0
0003a0 00 00 00 00 00 00 00 00 00 00 00 00 00 00 00 00
       0.0 0.0 0.0 0.0
0003b0 00 00 00 00 00 00 00 00 00 00 00 00 99 e6 1c 3d
       0.0 0.0 0.0 0.038305853
0003c0 00 00 00 00 00 00 00 00 00 00 00 00 00 00 00 00
       0.0 0.0 0.0 0.0
0003d0 00 00 00 00 00 00 00 00 00 00 00 00 00 00 00 00
       0.0 0.0 0.0 0.0
0003e0 00 00 00 00 00 00 00 00 00 00 00 00 48 57 13 3d
       0.0 0.0 0.0 0.03597191
0003f0 00 00 00 00 00 00 00 00 00 00 00 00 00 00 00 00
       0.0 0.0 0.0 0.0

model.0.weight f4 [512, 96]
000000 2a 3d a4 3c 89 e5 d1 3c 7a 80 0f bc 7d e7 30 bd
       0.020048697 0.025622146 -0.008758659 -0.043189514
000010 59 22 9d bd 21 c6 f2 bb 0c f8 b8 bd 33 e2 82 bd
       -0.07672567 -0.0074088727 -0.09031686 -0.063908
000020 92 f6 94 bd f9 7a 40 bd 39 87 30 3d 75 08 af bd
       -0.07273592 -0.046992276 0.04309771 -0.08546535
000030 9a ef e8 bd 83 b6 b8 bd 01 c5 23 bd 6a 85 68 bc
       -0.11373825 -0.09019186 -0.0399828 -0.014191965
000040 f5 f2 15 3d 63 ef 69 3d e4 33 6b 3d e4 2e da 3c
       0.036608655 0.057113063 0.057422534 0.026633687
000050 87 0e 8a 3d 21 9f ef 3c 21 ae d2 bd 33 d6 41 bd
       0.06741052 0.029250683 -0.10287119 -0.047323417
000060 b2 ee 34 3c f1 a7 81 bd be 16 91 bd c6 0d 93 3c
       0.0110432375 -0.063308604 -0.07084416 0.017950904
000070 3f b2 a1 bd 0f 97 b1 3d e3 7d 69 bd b8 c2 83 3d
       -0.07895326 0.0867139 -0.05700482 0.06433624
000080 8c 70 ab bd e7 28 8b bd ff 47 94 bc 2a 0d 0d 3c
       -0.08371076 -0.06794911 -0.018100737 0.008609096
000090 ac 73 6b 3d a1 9e 2f bd 88 61 8c bd bf ab d5 3c
       0.05748336 -0.04287589 -0.0685454 0.026082871
0000a0 ff 37 34 3c cb bf 58 3d 87 06 44 3d 83 d7 79 3d
       0.010999679 0.052917283 0.047857787 0.060996544
0000b0 25 73 45 3c af ce a6 3d e0 c0 f8 bc 00 cc 5f ba
       0.012051378 0.081448905 -0.030365407 -0.0008537173
0000c0 aa 4d 8c 3c a0 78 62 bd 42 04 13 bd 67 ee 83 3d
       0.017126877 -0.05529082 -0.035892732 0.06441956
0000d0 18 29 30 3c fe d9 7a 3d 9e fc bc b8 9b 49 92 3d
       0.010751985 0.06124305 -9.011592e-05 0.071429454
0000e0 76 a1 c5 3d 4c c2 52 bd 94 bd 64 bd d2 2f 71 3c
       0.09649937 -0.051454827 -0.05584486 0.014720874
0000f0 b9 0f 8c bc 90 61 b3 3d 03 55 b9 3d 5a 19 e1 3d
       -0.01709734 0.08758843 0.09049418 0.109911636
000100 47 d6 31 3d 08 f4 8d 3d a6 72 be 3b d8 2b 03 bd
       0.04341724 0.06931311 0.005812007 -0.032024235
000110 02 ce 8c 3d e0 52 7f 3d a9 fe 4b bc 2c 11 8b 3d
       0.0687523 0.062334895 -0.012450852 0.06790385
000120 ad d2 78 bd d9 6d 8b bd d0 41 d5 bd d2 6f 71 3d
       -0.06074779 -0.06808061 -0.10412943 0.05894453
000130 7a bc 30 3d e8 d9 dc 3d 93 5b 17 3d 69 65 8e 3d
       0.043148495 0.1078375 0.036952566 0.06952936
000140 36 c7 0f 3d 2f 0d 70 3d b4 16 eb bb 5c 78 21 3b
       0.03510209 0.058606323 -0.0071743373 0.002463839
000150 92 53 e8 bd 86 06 9c 3d 27 05 ad bd 95 5e 5d 3d
       -0.11344065 0.07618432 -0.08448248 0.05404528
000160 cd b2 11 bc 6a 6a 4b 3c a8 5c b0 bd a3 79 a8 bc
       -0.008892727 0.012415508 -0.08611423 -0.020565813
000170 b5 5b 40 3d 4c 7a d6 3c b0 28 9c bd e3 4d 91 bd
       0.04696246 0.026181363 -0.07624948 -0.07094934
000180 bf 10 08 3d 73 64 01 bd 1e eb e3 bd 17 b1 4d 3d
       0.033219095 -0.031589936 -0.111288294 0.050217714
000190 6c 60 33 bd 6b 0b f6 3a 28 54 16 3d ed cc 90 bd
       -0.043793127 0.0018771713 0.03670135 -0.070703365
0001a0 3e 71 bf bd be 5f 19 3d b5 4b ac 3d 1b aa a3 3c
       -0.09347771 0.037444822 0.084128775 0.019978574
0001b0 52 26 c3 3d 12 f3 7a 3c a3 1b d5 3d c5 9f 58 bd
       0.095287934 0.015316742 0.10405662 -0.052886743
0001c0 85 ea 9b 3d 53 d7 81 bc 29 99 17 bc 41 91 13 3c
       0.076130904 -0.015849745 -0.009252825 0.009006799
0001d0 c8 9b 6c 3d db fc 73 bd ac 2f 06 be e2 af f6 bd
       0.057765752 -0.059567314 -0.13104123 -0.12045266
0001e0 9b 1c b1 bd cb 89 1e bc 08 6e d5 3d f7 00 90 bc
       -0.08648034 -0.009676407 0.104213774 -0.017578585
0001f0 66 7e 1b bd 6e 1b d8 3d e2 92 92 bd 25 cc 8c bd
       -0.03796234 0.10552107 -0.07156922 -0.06874875
000200 34 11 bf 3d 40 b3 42 bc cb 2c cf 3c ce 8d 99 bd
       0.09329453 -0.011883557 0.025289914 -0.0749775
000210 63 3a c4 3d 2e fc 0f 3b 8e bd c1 bd 9d 01 94 3d
       0.09581449 0.002197038 -0.09459983 0.0722687
000220 94 28 d1 3d 2d 36 5a 3d 00 e3 b7 3c 6e 3d 89 bd
       0.10212818 0.053274322 0.02244711 -0.0670117
000230 d8 f0 fd bb 57 d2 01 3d 54 a3 85 bd 29 5f d2 3c
       -0.007749658 0.031694736 -0.06525293 0.025680142
000240 1b 52 d0 bc 16 b9 a6 bd 38 9e 4f bc 73 56 ef 3d
       -0.025429776 -0.08140771 -0.012672 0.11686411
000250 08 56 bc 3d b3 7d e8 bc f7 bc cb 3d af 64 8b bd
       0.09196097 -0.02838025 0.099481516 -0.06806313
000260 03 86 57 bd ff 7a 19 3d a7 b4 5f bd 4b c7 b1 bd
       -0.052618038 0.037470814 -0.054615643 -0.0868059
000270 f1 18 a2 3d 31 9f 69 bd bc e8 57 ba 09 ce fd 3c
       0.079149134 -0.057036582 -0.0008236279 0.030982034
000280 bf 86 b5 bd 9d 0f 59 3d 90 be 6c 3c b7 0b a4 bd
       -0.088635914 0.052993406 0.0144497305 -0.08010047
000290 a1 67 90 3d 16 89 d2 bc 23 81 25 3d b2 04 c1 bd
       0.07051016 -0.025700133 0.040406357 -0.09424724
0002a0 05 58 3c 3d d1 44 0a 3d f2 64 ce 3d 36 15 9e 3b
       0.04598238 0.033757035 0.100778475 0.004824306
0002b0 d4 67 64 3d e0 ce 42 bd d9 6b 78 bd f6 29 2c 3d
       0.05576308 -0.047560573 -0.060649727 0.042032205
0002c0 f1 8b 75 3d 91 a0 35 bd 83 e5 55 bd f4 85 c2 bd
       0.05994791 -0.04434258 -0.052220833 -0.09498206
0002d0 0a 0c e2 ba 3a cb 1f bd 1b 77 9e bd b6 30 a8 3c
       -0.001724602 -0.03901217 -0.07737561 0.02053104
0002e0 76 ff bb 3c b5 f9 b4 bd ff 98 a0 3d a2 5e ad bc
       0.022948962 -0.0883669 0.07841682 -0.021163289
0002f0 e5 9b ea bd 1f c6 98 3d a0 2d 11 bd e9 6e 23 3d
       -0.11455516 0.074596636 -0.035443902 0.039900694
000300 88 06 02 bd f1 7b 39 3d 67 4d 93 bd 71 c4 30 bd
       -0.03174451 0.045284215 -0.07192498 -0.04315609
000310 59 bf 30 3d 63 a4 3d bd 08 33 b3 bd a4 ea 4b bd
       0.043151233 -0.04629935 -0.08749968 -0.049784318
000320 0a f0 65 3d 12 9b bc bd a7 bf df bd e4 f8 65 bd
       0.056137122 -0.09209265 -0.10925227 -0.056145564
000330 94 8d e9 3c e8 93 1b bd b8 60 3e bd e1 98 ca bc
       0.028509893 -0.03798285 -0.046478957 -0.024731101
000340 84 1a 23 bd 63 ea b9 bc ee b3 a9 3d 1c b1 0e 3d
       -0.03982021 -0.022694772 0.08286272 0.034836873
000350 22 03 c8 bc 33 1f 9b 3d fc 39 47 3d 2e 66 fe 3b
       -0.024415556 0.0757431 0.048639283 0.0077636456
000360 39 09 c1 3c 77 30 80 3d 56 5d 49 bd c6 64 8a 3d
       0.023563968 0.06259244 -0.049161278 0.06757502
000370 a3 4e 2f bd e0 6e fd bc b7 30 0e 3d fa 47 fc bc
       -0.042799603 -0.030936658 0.034714427 -0.03079604
000380 0e 57 86 bd ae bc 3a bd a0 68 5c 3c 99 e5 af 3c
       -0.06559573 -0.045590095 0.013452679 0.021471785
000390 6d ac cd bb 4c 96 b2 3d 02 79 b2 bd d5 5b 6e bd
       -0.0062766583 0.08720073 -0.08714487 -0.058193047
0003a0 aa 20 34 bd 43 7d b2 bd 66 49 ab bd c2 f2 98 bd
       -0.043976463 -0.08715298 -0.08363609 -0.074681774
0003b0 11 5b b4 bd 2e ec c1 bd d3 bd 51 3d dc b5 48 bb
       -0.08806432 -0.09468876 0.05120642 -0.0030625975
0003c0 a0 0a 8b 3d a5 c5 be bd 84 d9 51 bc 19 db 2a 3d
       0.06789136 -0.093150415 -0.012808207 0.041712854
0003d0 c3 14 05 3d 7f 13 d3 3c ff cf 1f bc 4d 2c 78 bd
       0.032490503 0.025766132 -0.00975418 -0.060589124
0003e0 b2 ca b6 3d 67 28 45 bc 13 5b 87 3d a8 0d 10 bc
       0.0892538 -0.012033558 0.06609168 -0.008792318
0003f0 23 c9 97 3b 53 59 39 bd 40 a3 1c bd 82 c1 1e 3d
       0.0046321317 -0.0452512 -0.038241625 0.038758762

model.0.bias f4 [512]
000000 e3 d4 6a 3b 9a d0 95 bd b1 53 4e bd d0 8a 44 bd
       0.0035832457 -0.07315178 -0.050372783 -0.047983944
000010 b7 22 d1 bc 33 ba bb bd 52 b5 2f 3d 34 8c 64 bd
       -0.025529249 -0.09166374 0.04289753 -0.05579777
000020 e7 bb 42 bd 86 c3 ad 3d 9f 08 2f 3d 5d a7 7b 3d
       -0.04754248 0.08484559 0.04273283 0.061438907
000030 9a e9 c0 3d 95 fe e8 3d 88 40 c0 3c 46 21 df 3d
       0.09419556 0.11376683 0.02346827 0.10895018
000040 bc a7 8a bd d4 c0 b4 bc f8 77 8a 3d 3e 2c 22 bd
       -0.06770274 -0.022064604 0.067611635 -0.039592974
000050 a0 2f c0 3c 12 ce 96 3d 5b ac 0b 3d 78 78 6e 3d
       0.02346021 0.073635235 0.034099918 0.058220357
000060 0e 03 6c 3d 17 27 bc 3d 75 05 18 bb a8 77 0e 3d
       0.0576201 0.09187143 -0.0023196612 0.03478208
000070 f5 ac 32 bd 0c f5 c1 3d be 18 bf 3d 7e 75 dc bc
       -0.043621976 0.09470567 0.09330891 -0.026911493
000080 64 e5 69 bd b4 a3 cf 3d 0f 79 83 bd 22 20 0b bd
       -0.05710353 0.10138646 -0.064195745 -0.03396619
000090 bc 88 f0 3c c3 64 e2 3c cd 9c d6 bb 9f db 0f bc
       0.029362075 0.027635938 -0.006549454 -0.008780389
0000a0 88 23 8c bd c5 dd cf 3a 41 67 98 bc bb 5d 90 bc
       -0.068427145 0.0015858939 -0.018603923 -0.01762282
0000b0 d2 47 aa 3d 36 c2 1a bc 07 8c a9 bd bd a3 a3 3d
       0.0831448 -0.009445718 -0.08278661 0.07990215
0000c0 68 01 7a bb b0 7c 54 bd a2 a3 0f bc 84 38 b8 bd
       -0.003814781 -0.051876724 -0.00876704 -0.089951545
0000d0 e8 99 3c bc b8 6e f7 bc 47 62 83 bd 19 69 b3 3d
       -0.0115113035 -0.030204162 -0.06415229 0.0876028
0000e0 f0 b3 a0 3b cf a7 93 3d 71 2a 1c 3d e3 bf 51 3d
       0.0049042627 0.07209741 0.038126413 0.051208388
0000f0 51 d3 a1 bd 71 1e 50 bd 98 69 27 bd 04 ef 3a 3c
       -0.079016335 -0.05081028 -0.040872186 0.011409525
000100 86 54 3d bd b0 8b 86 bd 86 a2 3b bd 41 5f 54 bc
       -0.046223186 -0.06569612 -0.04580929 -0.012962163
000110 0e 6f db 3d 2a 09 22 3d 37 fe a7 3d 69 cc 82 3d
       0.107145414 0.03955952 0.082027845 0.063866444
000120 2a 61 aa 3d 8e 14 83 3d bb b3 df 3c 87 16 df bc
       0.08319314 0.06400405 0.027307382 -0.027232422
000130 7d 39 0c bc d3 58 81 bd c2 4d 73 3d 1a 0f a1 3d
       -0.008558628 -0.0631577 0.059400328 0.078642085
000140 1e df e5 bc a8 72 6a bd 6e b6 53 3d 0a ef f2 3c
       -0.028060492 -0.05723825 0.05168765 0.029654998
000150 8b 53 2c 3d c2 77 75 3d e2 37 cd bd 7f 6c 92 bc
       0.04207186 0.059928663 -0.100204244 -0.017874
000160 a5 28 72 3d 35 76 5e 3d 29 45 69 3d 31 89 a3 bc
       0.059120793 0.05431195 0.056950722 -0.019962879
000170 2b 88 e2 3c b3 d9 ca bd cf 78 48 bd 85 12 c1 bd
       0.02765282 -0.09904804 -0.048943337 -0.094273604
000180 3e 71 5a 3d 9f d5 b9 bc 9f 0e ab bd d4 72 8f bd
       0.053330652 -0.02268487 -0.08352398 -0.070043236
000190 03 8d 93 3b 36 fb 97 3d ac 0c 6c 3d 64 e0 11 3c
       0.004502894 0.074209616 0.057629272 0.008903597
0001a0 c9 9d 1d bd 45 90 bc 3d b6 5e 93 bd b2 e9 c5 3d
       -0.038480554 0.09207205 -0.07195799 0.096637145
0001b0 e2 e3 15 bd cd f4 f7 bc ec 62 cb 3d bd 64 d2 bd
       -0.03659428 -0.030268097 0.09930977 -0.102731206
0001c0 8d d1 7f bd 9b be cb bc a6 e1 77 3c 90 da b1 3c
       -0.062455703 -0.024871161 0.015129482 0.021710664
0001d0 42 e7 9b bd 37 78 57 3d d7 43 7c 39 92 a0 a0 bc
       -0.07612468 0.05260488 0.00024057865 -0.019607816
0001e0 2f a6 92 bd 29 b9 6f bc 8f 01 a3 3d 83 96 13 3d
       -0.07160603 -0.014631548 0.07959282 0.03603221
0001f0 8c a4 6d bd e6 1c 94 bd a6 bf 1c 3d 66 1c 12 3b
       -0.058018252 -0.072320744 0.038268708 0.0022294759
000200 bd 81 4d bd c6 3f 65 3d 0c be 9e 3d fd 51 2b bd
       -0.050172556 0.055969022 0.07751092 -0.041826237
000210 12 b3 bd 3d c9 97 31 3d d3 ab 10 3d 6b 1a 78 bd
       0.092626706 0.043357644 0.035320114 -0.06057207
000220 61 0d be 3d 6e f6 97 bd 2a dd a1 3d 20 61 a2 bd
       0.092798956 -0.074200496 0.07903512 -0.079286814
000230 1a c9 e9 bc af 8a 23 3c 12 d0 a2 bc 84 d5 29 3d
       -0.028538276 0.009981795 -0.019874606 0.04146339
000240 d6 14 3b ba b3 0d 8e 3d 17 a9 c2 3d 2a 2e 85 bd
       -0.00071365887 0.06936207 0.095049076 -0.06502946
000250 c6 a4 8b 3d ef e6 af bd b3 8e ca bc 50 d0 ac 3c
       0.068185374 -0.08588969 -0.024726247 0.021095425
000260 c1 06 3e bd 8c db a1 3c 73 dc 31 3c 16 70 9b 3c
       -0.04639316 0.019758008 0.010855782 0.018974345
000270 4a e4 0d 3d 5e bd 9b 3d 64 a7 d2 bb bb 26 1a bd
       0.03464154 0.07604478 -0.006428646 -0.037634593
000280 d0 ef 91 3c 56 b8 9c bd 01 d6 a1 3d 29 e1 9e bc
       0.017814547 -0.07652347 0.07902146 -0.019394474
000290 1a 1f 4e bd 53 89 6a 3c 28 66 91 3c ea f0 13 bd
       -0.05032263 0.014314967 0.017748907 -0.036118425
0002a0 0a 98 3d bd 82 01 b1 ba e8 2a 81 bd 44 a6 d6 bd
       -0.046287574 -0.0013504478 -0.06307012 -0.104809314
0002b0 f2 c9 8f 3d 2a 96 35 3c f9 78 3f 3d e7 0d 91 bc
       0.0702094 0.011083165 0.046746228 -0.017706824
0002c0 0f 95 4a bb a2 73 59 3d 71 23 2c 3d bf 86 c4 bd
       -0.00309116 0.05308879 0.042025987 -0.09596013
0002d0 e4 b5 c7 3b 80 f3 6e 3d 1d fb 32 3d 7e de 81 3d
       0.006094681 0.05833769 0.04369651 0.06341265
0002e0 52 aa 2d 3d 0a 1e 5f 3d 48 e4 67 bd d3 fb 75 3d
       0.04239876 0.054472007 -0.05661419 0.06005461
0002f0 bc ee 18 bd c7 7c 1e bd c8 ae e1 bc 1d 18 25 bc
       -0.03733705 -0.038693216 -0.027549163 -0.01007655
000300 5d 1c b7 bd be ca 5a 3c b9 fc 81 bc eb c4 a2 3d
       -0.08940957 0.013354002 -0.015867578 0.07947715
000310 81 15 e6 bc 48 d8 94 bc df 5d c3 bd ea dc cf 3d
       -0.028086426 -0.018169537 -0.09539389 0.10149558
000320 9d 7e 1b 3d f7 23 f9 bc ff 7a c6 3d d0 a5 bc 3d
       0.037962545 -0.030412657 0.096914284 0.09211314
000330 24 d1 bc bc b9 fe 5a 3d 22 57 9f 3b 9d 6d 34 bd
       -0.023048945 0.05346558 0.004862682 -0.044049848
000340 72 fa 50 3d 75 c0 c9 bb 62 83 b8 bb 6f 90 24 bd
       0.051020093 -0.006156976 -0.0056308964 -0.040176805
000350 dd 9b 53 3d 07 0d 4c bd e6 87 fe 3c 52 e7 25 bd
       0.051662315 -0.04981711 0.03107066 -0.040503807
000360 a5 6f bd bd 52 59 2e 3d 7b f7 c9 3d 71 3d 55 bd
       -0.0924981 0.04256565 0.09861656 -0.05206055
000370 1d b3 6a 3c 62 6b a5 bc 9c c0 9b 3d 7a a7 b1 3d
       0.0143249305 -0.020192806 0.07605097 0.08674522
000380 e6 35 f7 3c 3e fa b1 bd 88 f5 8e 3d ca 10 97 bd
       0.030177068 -0.08690308 0.06980425 -0.07376249
000390 3a ce c3 bd e4 57 59 bd 7c 42 bc bc a6 8e ac 3d
       -0.09560819 -0.053062335 -0.022980921 0.084256455
0003a0 35 9a ca bc 8a 45 66 3c eb a4 81 bd c3 e8 a1 bd
       -0.024731735 0.014054665 -0.06330284 -0.07905724
0003b0 1e bf a3 bd ae 31 4d bc b7 d9 cf bc ca 3f 37 bd
       -0.07995437 -0.012524052 -0.02537237 -0.04473857
0003c0 67 38 94 3c 60 ed cf bd 52 c5 65 bd 83 ca a3 3d
       0.018093301 -0.101526976 -0.056096382 0.079976104
0003d0 92 7d 79 3d f5 80 37 bd 8a d6 b7 bc fb d7 87 bd
       0.06091077 -0.044800717 -0.022441167 -0.06632992
0003e0 1e 83 95 3d ed cd 4a 3d 95 51 8c bd 7d f4 57 bd
       0.07300399 0.049512792 -0.06851498 -0.052723397
0003f0 d0 d9 a4 3b 14 73 6f bb 78 56 d8 3d 76 f3 a0 3d
       0.005030848 -0.0036537098 0.105633676 0.078589365

model.2.weight f4 [12, 512]
000000 82 ad 5e bc 9b 0a 31 bd 21 b3 dc 3c 85 43 0c bd
       -0.013591172 -0.043223005 0.026940884 -0.03424408
000010 bb 79 a2 3c c1 c2 09 3d ba 8e a4 bc f3 d2 94 bc
       0.019833436 0.033632997 -0.020087589 -0.018166995
000020 45 1e c7 bc 77 e1 1d 3d 88 ee 41 bc b0 c6 8d 3c
       -0.024306426 0.0385451 -0.011836655 0.017306656
000030 81 50 22 3d d7 e5 08 bb 03 44 08 bc f2 74 61 3c
       0.039627556 -0.0020888948 -0.0083169965 0.013760792
000040 9c 8e 5a 3d 68 47 c7 3c 5c bf bd bc e4 26 d1 bc
       0.05335866 0.024326041 -0.023162536 -0.02553124
000050 7e 7d 01 bd dd 62 9b bc 84 b8 8c 3c 51 d0 93 3c
       -0.03161382 -0.01896804 0.017177828 0.018043669
000060 4d 35 19 bd a5 54 dd 3a 32 57 24 bd 6e fc 7d 3d
       -0.037404347 0.0016886188 -0.04012222 0.062008314
000070 68 97 35 bd 8d 89 71 3b 73 78 ba 3c 91 ab 88 3c
       -0.044333845 0.0036855668 0.022762513 0.016683372
000080 d2 c1 e0 bb 3f 72 1f bd c4 c8 ba 3b 52 f3 df 3c
       -0.0068590427 -0.038927313 0.0057002027 0.027337704
000090 49 3a 2e 3d 9c 8b 24 bb 4e f7 42 3c b8 f7 27 bc
       0.042536054 -0.0025107628 0.011899782 -0.010251932
0000a0 f0 d9 1e 3d 2d b6 41 3c 72 c6 7f 3c 5f e2 7c bc
       0.03878206 0.011823219 0.015611278 -0.01543483
0000b0 5d 3a 4f 3c 9b 14 a5 bc 57 a5 0d 3d f8 f9 d7 3a
       0.012648192 -0.020151427 0.03458151 0.0016477695
0000c0 90 63 1b bc f3 2d f6 3c 75 bf ec 3c 91 68 4a 3b
       -0.009484187 0.030051207 0.028899888 0.003088508
0000d0 09 63 c1 3c 0e 93 cf 3c 8e bc 9c 3c 71 23 9b 3c
       0.023606794 0.025338676 0.019132879 0.018937798
0000e0 85 f7 c8 3c 5d 63 47 39 64 c9 2e bc d5 cb 5d bc
       0.024532089 0.00019015135 -0.010668132 -0.013537367
0000f0 33 5d cf 3c 63 0e 03 bd 09 4c d4 bb 85 4a 8d 3c
       0.025312996 -0.031996142 -0.0064787907 0.017247448
000100 ad b9 6e bc b1 68 12 bc 20 10 bc bc c8 dd fd bc
       -0.014570636 -0.008936093 -0.022956908 -0.030989543
000110 c5 95 b5 3c 99 62 8e 3b 88 7b 14 3c 95 87 d6 3a
       0.022166142 0.00434525 0.009062655 0.0016367311
000120 a3 e4 5a 3b 9d 1d 48 bd 53 ea f7 3c 75 dc bb bb
       0.0033400438 -0.048856366 0.030263102 -0.0057330676
000130 ff 46 22 bd d1 95 dc 3c e7 5f e3 bc e5 7f 1b bb
       -0.03961849 0.026926907 -0.02775569 -0.0023727354
000140 94 5a 2f 3c a5 bd 9b 3c d1 e2 3c 3d 9e d2 06 bd
       0.010702748 0.019011328 0.046114746 -0.032915704
000150 e7 b0 be bb 76 cc 10 3d d8 96 02 3b ba b9 fb bc
       -0.0058194282 0.03535124 0.0019926336 -0.03072821
000160 f5 80 66 bd 64 7e 4c 3c 26 9b 7e bc c7 54 00 bd
       -0.056275327 0.012481306 -0.01553992 -0.03133085
000170 13 22 0b 3c 49 8d 03 bd 89 d4 5b bd 26 67 86 3c
       0.008492011 -0.032117162 -0.053669486 0.016406607
000180 dd 34 22 3d 7c 7d 2b 3c e1 23 40 bc 80 a7 c1 bc
       0.039601196 0.0104669295 -0.011727304 -0.02363944
000190 bb 29 82 bc f3 fc 06 3d ce e1 36 bb bd af 97 3c
       -0.01588904 0.032956075 -0.0027905586 0.018516416
0001a0 73 3e 41 bc 06 bc 5b bd 35 b8 3f bd e3 d4 03 3d
       -0.011794674 -0.05364611 -0.046806533 0.032185446
0001b0 e8 e4 36 3c 88 94 c9 3b 2a 79 24 3d 20 a8 04 bd
       0.011162974 0.0061517395 0.040154614 -0.0323869
0001c0 48 6a fb 3c 24 38 28 3c d3 eb fe 3b 43 aa 11 3d
       0.030690327 0.010267291 0.0077795773 0.035562765
0001d0 c8 b5 56 bc f1 cb 65 b9 a1 a9 03 bd 82 6f 2b 3d
       -0.013104863 -0.00021915116 -0.032144193 0.04185439
0001e0 64 d0 0f bd 2d ac 43 b9 70 f4 23 bc 75 c7 9d bc
       -0.035110846 -0.0001866079 -0.010007009 -0.019260148
0001f0 5b bf 42 bc 6f b0 d0 bc 18 8e e3 3c 24 46 03 3d
       -0.011886443 -0.025474755 0.027777717 0.032049313
000200 9d d7 f0 3c d8 72 32 3d b3 8d 14 3d 97 1e 52 b9
       0.029399687 0.043566555 0.036267947 -0.00020038556
000210 a4 5f 5f bc 5e ed 13 bd d2 f7 c9 3a 97 0d 0e 3b
       -0.013633642 -0.036115043 0.0015408939 0.002167558
000220 70 f1 ea 3c b4 61 24 3d 92 ea 0e 3d b2 24 81 3c
       0.02867958 0.04013224 0.034891672 0.015764568
000230 61 eb 2b 3d f6 f7 fd 3c 8a 02 fc 3c 9b f6 57 bd
       0.04197252 0.031002026 0.03076293 -0.052725416
000240 96 fd e9 3c b2 66 f6 3c 4b c4 c7 bb c6 75 ad bb
       0.028563302 0.030078266 -0.006096398 -0.0052935807
000250 56 07 10 3d 79 00 dc bc 15 ba a6 bc d4 ca cf 3b
       0.035163246 -0.026855694 -0.020352403 0.0063413177
000260 4e 92 ed 3a c8 55 70 bd d9 94 87 3c bf fc 58 3b
       0.0018125267 -0.058675557 0.016550468 0.0033109633
000270 27 d2 d4 3c 63 c6 a8 bb 87 e2 15 3d f6 f5 44 3d
       0.025979115 -0.0051506027 0.036592986 0.04808613
000280 7b 79 44 3d e4 30 61 3a 5a 35 2f bd 08 d9 00 bd
       0.047967415 0.0008590354 -0.04277549 -0.031456977
000290 50 9e 03 3c 23 24 f8 3c 6e 2b 63 bc 14 c2 0d bd
       0.00803335 0.030290669 -0.013865335 -0.034608915
0002a0 a6 f1 ab 3c 58 44 2b bd db 34 d9 bc de ff e8 bc
       0.02098925 -0.041813225 -0.026514461 -0.02844232
0002b0 63 3c 02 3b 3b 48 33 3c 6c 8d d7 bc 76 31 26 3c
       0.001987242 0.010942514 -0.026312552 0.010143628
0002c0 ea e3 d7 bc 3c e1 78 bb 6d 5b 2a 3d af 21 16 bd
       -0.026353795 -0.0037976047 0.041591097 -0.036653217
0002d0 cf 55 ee bc 5c 29 90 bc 17 9a 29 3d 92 06 f5 3c
       -0.029093651 -0.017597847 0.041406717 0.02991036
0002e0 27 81 f9 bc 90 6f 27 bd 9c 14 05 3d f2 bd 02 3d
       -0.030457092 -0.04087788 0.032490358 0.031919427
0002f0 f8 28 58 bc 9c 6b c7 3c bb 0d 18 bc d1 d5 36 3d
       -0.013193361 0.024343304 -0.009280617 0.044637505
000300 23 51 06 3d 63 35 04 3c 92 ca a5 3c 16 e6 dd bc
       0.03279222 0.008069369 0.020238195 -0.027087253
000310 7c 64 56 3c fe bd 7c bc f3 a6 c0 b9 d8 0c 97 bc
       0.013085481 -0.015426157 -0.0003674548 -0.018438742
000320 72 68 d3 3c 15 f5 1b bd 7a bf 0d bd 51 8f 66 3c
       0.02580664 -0.038075525 -0.034606434 0.014072255
000330 87 32 8d bc aa 59 33 3d 11 7e 07 bd 60 f7 48 bc
       -0.017236007 0.043786682 -0.03307921 -0.01226601
000340 68 ea 13 bd ad a0 66 bb 0d 8a 38 bd 4e ca 8b 3c
       -0.03611222 -0.0035190985 -0.04505353 0.01706424
000350 ab 47 18 3a b2 9e 34 3c 74 b1 4f ba df ee 18 3d
       0.0005809019 0.011024164 -0.0007922866 0.03733718
000360 18 77 cb 3b c2 55 3b bd 53 94 5f bc ce 96 0a 3d
       0.0062092654 -0.045736082 -0.013646203 0.033835225
000370 d4 51 03 bd 39 ae c9 bc d5 73 67 3b 94 a2 01 bc
       -0.03206046 -0.024619209 0.0035316844 -0.007912297
000380 2d a8 bd 3c a9 82 4a 3d 47 96 a7 bc c8 db 65 bc
       0.023151482 0.049441013 -0.0204574 -0.014029451
000390 46 68 aa bb 61 fb 3a 3d 65 e9 b7 bc 8f 89 33 3b
       -0.0052004186 0.04564989 -0.022450158 0.0027395224
0003a0 d7 62 0f 3c 81 0d 56 bd 38 1b 93 3c be ef 0a bd
       0.008751593 -0.052258972 0.017957315 -0.033920042
0003b0 24 2f 56 3d b3 30 32 3c f2 33 34 3d 66 0a b4 bc
       0.05229105 0.010875869 0.04399485 -0.021977615
0003c0 18 2a 44 3d 7a 2d 37 3a 57 be ea 3c ae a6 71 3b
       0.047891706 0.00069876725 0.028655214 0.003687303
0003d0 45 fa 29 3d 9c d0 e3 3c b9 47 1f 3d b9 10 09 bd
       0.04149844 0.027809434 0.03888676 -0.033463214
0003e0 1b f3 04 3d 1d e9 61 bc 09 6c d3 3c a1 b1 04 3d
       0.032458406 -0.013788489 0.025808351 0.032395963
0003f0 39 fa 92 3c 17 3a e9 3c 71 8f 5e 3c b1 fb 07 bc
       0.017941581 0.028470082 0.013584004 -0.008299754

model.2.bias f4 [12]
000000 34 26 19 3d 1d 16 f5 3c 49 2d c6 3c 8a ee cb bc
       0.03738995 0.029917771 0.024191516 -0.024894018
000010 01 56 16 3b 7d 22 de bc c7 df 8c 3c 91 72 3a 3d
       0.0022939446 -0.027116055 0.01719655 0.045519415
000020 98 69 1c 3d 5e 31 eb 3c 78 d1 f3 bc 15 f7 02 3d
       0.03818664 0.028710064 -0.029762968 0.031973917
