station/solar_data_s96_p96/checkpoint.pth (torch, 603170 bytes, 13 tensors)

weight f4 [2, 1]
0	0x3f74859c	0.9551637
1	0x3f5cfb4e	0.8632096

model.input.weight f4 [512, 16]
0	0xbcdd6ed6	-0.02703039
1	0x3dbfa366	0.09357338
2	0x3e6119bb	0.21982472
3	0x3b8df6dc	0.0043324064
4	0x3d02179c	0.031760797
5	0x3e6b7ac2	0.22996047
6	0xbd462b91	-0.048381392
7	0xbdf45644	-0.11930516
8	0xbe1b1275	-0.1514376
9	0xbdfd4f77	-0.12368672
10	0x3e09953b	0.13435833
11	0xbe366d0d	-0.17815037
12	0x3dae6171	0.08514679
13	0x3e186e3b	0.148858
14	0xbe1dc0aa	-0.15405527
15	0x3cde39fd	0.02712726
16	0xbe0a9b84	-0.13535887
17	0x3e7cb614	0.24678832
18	0x3bfcb647	0.007712159
19	0xbe81c2a0	-0.253438
20	0x3e235bbc	0.15952963
21	0xbd2a0a29	-0.041513596
22	0xbd7379f7	-0.059442487
23	0xbe2d198e	-0.1690428
24	0x3e76042c	0.24025029
25	0x3dc58203	0.096439384
26	0x3ddde635	0.10834924
27	0xbe870628	-0.26371884
28	0xbd8a61ba	-0.06756921
29	0x3e2fe13f	0.17175768
30	0x3b2fb835	0.0026812677
31	0xbd8cd404	-0.06876376
32	0x3ba00650	0.004883565
33	0x3dd010c6	0.10159449
34	0xbe1c4166	-0.15259323
35	0x3cb085e2	0.021548215
36	0xbe524df6	-0.20537552
37	0xbdbc7acf	-0.092031114
38	0xbe320bdc	-0.17387336
39	0x3dffcafa	0.124898866
40	0x3d43c483	0.04779483
41	0x3e6b6b81	0.22990228
42	0xbe47c951	-0.1951039
43	0x3dc78570	0.09742248
44	0xbe5864bc	-0.21132177
45	0xbe7769b4	-0.24161416
46	0xbd0a985f	-0.03383672
47	0x3ce2f56b	0.027704915
48	0xbe407f43	-0.18798546
49	0x3e008015	0.1254886
50	0x3d939953	0.07206979
51	0x3e60b32b	0.21943347
52	0xbcb908d9	-0.022587227
53	0x3e5a1234	0.21296006
54	0xbe2f3906	-0.17111596
55	0x3e64b9cf	0.22336505
56	0x3e4aeb2a	0.1981627
57	0x3d145107	0.036210086
58	0xbe0af106	-0.13568506
59	0x3e68fef1	0.22753502
60	0x3d4f4293	0.0506006
61	0x3c5db906	0.013532883
62	0xbda48a16	-0.0803415
63	0xbdacb23e	-0.084324345
64	0x3e0d4016	0.13793978
65	0x3e149dff	0.14513396
66	0x3d81b136	0.063326284
67	0x3e6ea13f	0.23303698
68	0xbc705115	-0.014667769
69	0xbe2a9312	-0.16657665
70	0xbe6f20be	-0.23352334
71	0x3e6a6183	0.2288876
72	0x3c83d024	0.01609046
73	0xbe4c6c0a	-0.19963089
74	0xbe4b437d	-0.19849963
75	0x3e2c0a77	0.16800867
76	0x3e3f4a0c	0.1868059
77	0xbe2b592d	-0.16733237
78	0x3ddf9068	0.10916215
79	0xbe190798	-0.14944303
80	0x3e607732	0.2192047
81	0xbd8d2268	-0.06891328
82	0x3e308875	0.17239554
83	0xbe41a856	-0.18911871
84	0x3da7a3a7	0.08185511
85	0x3d19d5aa	0.03755728
86	0xbe493709	-0.196499
87	0xbca1f262	-0.019768897
88	0xbe302d28	-0.17204726
89	0xbdcee58a	-0.10102375
90	0x3e4a1117	0.19733082
91	0xbddecbed	-0.108787395
92	0xbdd9339a	-0.10605545
93	0xbd93922d	-0.07205615
94	0x3de6d127	0.112703614
95	0x3da784f9	0.081796594
96	0x3e20b139	0.15692605
97	0xbe3eea67	-0.18644105
98	0x3e38db1c	0.18052334
99	0x3e66f265	0.22553404
100	0x3e5cb9db	0.21555273
101	0xbddd2171	-0.10797394
102	0x3e2466b5	0.16054805
103	0xbe3a1365	-0.18171461
104	0xbe75646e	-0.23964092
105	0xbacd161a	-0.0015646846
106	0xbde25144	-0.110506564
107	0x3e53748b	0.20649926
108	0xbe1ffe52	-0.15624359
109	0x3dba2607	0.090892844
110	0x3db89f7f	0.090147965
111	0x3b836bb1	0.0040106406
112	0xbd5b9962	-0.053613074
113	0x3e2592de	0.16169307
114	0x3ddebdfd	0.10876081
115	0xbce4bd8a	-0.02792241
116	0x3e7c1a47	0.24619399
117	0x3d268921	0.04065812
118	0xbe75c25c	-0.23999923
119	0xbe64344b	-0.22285573
120	0xbe60312e	-0.2189376
121	0x3e5dae3e	0.216485
122	0xbe309175	-0.17242987
123	0x3e6bde2d	0.23033972
124	0xbb784dc5	-0.003788815
125	0xbe71c5cf	-0.23610614
126	0x3e305334	0.1721924
127	0x3dbdff19	0.09277172
128	0x3e68318a	0.22675148
129	0xbe598307	-0.21241389
130	0xbddfee0a	-0.10934074
131	0xbdc79b50	-0.097464204
132	0x3e08050e	0.13283178
133	0x3e67d8a4	0.22641236
134	0x3e53c3cc	0.2068016
135	0x3e68e1eb	0.22742431
136	0x3d2e12c1	0.042498354
137	0x3e0afc0e	0.13572714
138	0x3e47ef4a	0.19524875
139	0x3e3b70e6	0.18304786
140	0x3d6901e0	0.056886554
141	0x3e170874	0.14749318
142	0x3c7a6cc3	0.01528472
143	0x3e0df320	0.13862276
144	0xbd112ab8	-0.03544113
145	0xbc6b14d1	-0.014348225
146	0xbbdb673a	-0.006695655
147	0x3e2b86c2	0.16750625
148	0x3e570a8c	0.21000117
149	0x3e4ad177	0.19806467
150	0xbdf112ef	-0.117711894
151	0x3e465e8f	0.19372009
152	0x3dda141b	0.10648366
153	0xbd5bb7bb	-0.053642016
154	0x3b93c90f	0.004510052
155	0xbe53822e	-0.20655128
156	0x3e7fed3a	0.24992839
157	0xbe6ca85e	-0.23111102
158	0xbe65a938	-0.22427833
159	0x3cd27ce6	0.025694322
160	0x3dcb31f4	0.09921637
161	0xbda4af8d	-0.08041296
162	0x3dc5cc12	0.09658064
163	0xbe060a93	-0.13089971
164	0x3d0cc0ad	0.034363437
165	0xbe419c23	-0.18907218
166	0x3e2d71e0	0.16937971
167	0xbdee32c3	-0.11630776
168	0x3e163b99	0.14671172
169	0xbe5baf67	-0.2145363
170	0xbd80188c	-0.06254682
171	0x3cd9239c	0.026506238
172	0xbdf8fec0	-0.12157965
173	0x3dd3c9d2	0.103412285
174	0x3d23bd5d	0.039975513
175	0xbddfe58b	-0.10932454
176	0xbe5c8072	-0.21533373
177	0xbe4f2608	-0.20229352
178	0xbe2ad203	-0.16681676
179	0x3e50f288	0.20405018
180	0x3dd84d16	0.10561578
181	0xbe6a34bb	-0.22871678
182	0x3cc4712a	0.023979742
183	0xbe21dc0e	-0.158066
184	0x3e101c99	0.14073409
185	0xbd9e0424	-0.077156335
186	0xbe3f6532	-0.18690947
187	0x3e4d1ed5	0.20031293
188	0x3dfad2e8	0.122472584
189	0xbe69495b	-0.22781889
190	0x3cb9b234	0.022667982
191	0xbd785bf5	-0.060634572
192	0x3cf7534a	0.030191083
193	0xbdd4ab49	-0.103842326
194	0x3d9ab291	0.0755359
195	0x3d61b384	0.05510284
196	0x3c62a24b	0.013832639
197	0x3d1caa57	0.038248386
198	0x3d381ce7	0.04494944
199	0x3cfd96d3	0.030955708
200	0x3e187dfc	0.14891809
201	0xbe6beae4	-0.23038822
202	0x3e3dadfb	0.185234
203	0xbe23efde	-0.16009471
204	0xbe10a59e	-0.14125678
205	0xbd064343	-0.03277899
206	0xb9254429	-0.00015761018
207	0x3e417ccb	0.18895261
208	0x3e020b24	0.12699562
209	0xbe205e66	-0.1566101
210	0x3a8745d3	0.0010320492
211	0xbe5d1585	-0.2159024
212	0xbd3ddc50	-0.046352684
213	0x3e778c56	0.24174628
214	0xbe3bee21	-0.18352558
215	0xbdfa72c2	-0.122289196
216	0xbd19f6eb	-0.037588995
217	0x3e5288e9	0.2056004
218	0xbd45218a	-0.04812769
219	0x3e05cbd3	0.13066034
220	0xbe729223	-0.23688559
221	0xba53fd64	-0.00080867694
222	0x3c295375	0.010334839
223	0x3db2b759	0.08726377
224	0xbdb1f030	-0.0868839
225	0xbc454cdb	-0.01204225
226	0xbe3e5ea6	-0.18590793
227	0x3d2afab5	0.041743
228	0x3d494a2b	0.049142998
229	0xbd9bd8fc	-0.07609746
230	0xbe82555f	-0.25455758
231	0x3de3cbf4	0.11122885
232	0xbd990f28	-0.07473594
233	0x3e594f33	0.21221618
234	0xbbe40da2	-0.006959633
235	0x3e3b961b	0.1831898
236	0x3e09678b	0.13418405
237	0xbd6ca02a	-0.05776993
238	0xbd3e4294	-0.046450213
239	0x3e6d8204	0.23194128
240	0x3dd4d98e	0.10393058
241	0xbda305a6	-0.07960062
242	0xbe77a4dd	-0.24183984
243	0x3e25cc68	0.16191256
244	0x3e56128f	0.20905517
245	0x3e124f6b	0.14288108
246	0x3e0f51d7	0.13996063
247	0x3e1870ab	0.1488673
248	0x3e4597c0	0.1929617
249	0x3e7d6b4b	0.2474796
250	0x3e4a0962	0.19730142
251	0x3d8b269c	0.067944735
252	0x3e1a3291	0.15058352
253	0x3d13e8fd	0.036110867
254	0xbc9758e5	-0.018475005
255	0xbe65d646	-0.2244502

model.input.bias f4 [512]
0	0xbe123e86	-0.14281663
1	0xbb354f51	-0.0027665684
2	0xbde45c50	-0.1115042
3	0x3d611eec	0.05496113
4	0xbe0db472	-0.13838366
5	0xbe14fba3	-0.14549117
6	0xbe0d8b1d	-0.13822599
7	0x3c5adc69	0.013358214
8	0x3e113116	0.14178881
9	0xbd8d7198	-0.06906432
10	0xbe4c0758	-0.19924676
11	0xbdb54e8e	-0.08852874
12	0xbe1dbb46	-0.1540347
13	0xbd9b5884	-0.075852424
14	0xbe316d8d	-0.17326947
15	0xbe19a124	-0.15002877
16	0xbe6f705d	-0.23382707
17	0xbd46b3ee	-0.048511438
18	0xbd2185df	-0.03943431
19	0x3be20330	0.0068973526
20	0xbe6c2d2b	-0.23064105
21	0x3dc408e9	0.09572012
22	0xbd2bdc02	-0.041957863
23	0x3d88ce9b	0.06680032
24	0x3e3f29d8	0.18668306
25	0x3e18c80d	0.14920063
26	0x3e0a217d	0.13489337
27	0xbd914675	-0.07093517
28	0xbb8b2688	-0.0042465366
29	0xbe23688d	-0.15957852
30	0x3e27d8c6	0.16391286
31	0x3e233712	0.15938976
32	0xbddcf7c4	-0.10789445
33	0xbce1a761	-0.027545633
34	0xbe71c421	-0.23609973
35	0xbd5ec0e6	-0.05438318
36	0xbdcd3c55	-0.10021273
37	0xbde56f54	-0.11202875
38	0xbd95062b	-0.07276567
39	0x3e6d86b0	0.2319591
40	0x3e2a036b	0.16602866
41	0x3d641f7a	0.05569408
42	0xbe15b5e8	-0.14620173
43	0xbe6379ab	-0.22214381
44	0xbbcc5e1c	-0.0062368046
45	0xbe567687	-0.20943652
46	0x3d32ba86	0.043634914
47	0xbe72afff	-0.2369995
48	0xbdb59e44	-0.088680774
49	0xbdd7e376	-0.105414316
50	0x3d85f4f6	0.06540863
51	0x3d7842df	0.06061065
52	0xbe7d4920	-0.24734926
53	0x3e606bb5	0.21916087
54	0x3d442749	0.047889028
55	0xbe2268b6	-0.15860257
56	0xbd90eac7	-0.0707603
57	0x3d2dbe64	0.0424179
58	0xbd24b7a0	-0.04021418
59	0xbe02da73	-0.12778644
60	0x3d4001f4	0.046876863
61	0x3e21eba1	0.15812542
62	0xbe054d8e	-0.13017866
63	0x3d4cdbe8	0.050014406
64	0xbe62e5b1	-0.22157933
65	0x3e668af9	0.22513951
66	0x3e11f8df	0.14255093
67	0xbdc6b834	-0.09703103
68	0x3e57f554	0.21089679
69	0xbdd78717	-0.10523813
70	0x3d366070	0.044525564
71	0xbdf76e92	-0.120816365
72	0x3b1ddcc4	0.0024087885
73	0x3d68655f	0.0567373
74	0xbe01f8c7	-0.12692557
75	0xbdfaf6b4	-0.12254086
76	0xbe6a1dc2	-0.22862914
77	0xbe5fd1ee	-0.21857426
78	0x3ce450a6	0.027870487
79	0xbe7827a2	-0.24233869
80	0x3d45dfd2	0.048309155
81	0x3c4275ae	0.011868877
82	0x3e4599b4	0.19296914
83	0xbdab430f	-0.083624
84	0x3e445f30	0.19176936
85	0x3e670261	0.22559501
86	0x3dae0a90	0.084981084
87	0xbe2e76b4	-0.17037469
88	0xbe6276fc	-0.22115701
89	0xbe643adf	-0.22288083
90	0x3da0c0f4	0.07849303
91	0xbe6d47a4	-0.2317186
92	0xbdc27689	-0.09495265
93	0xbe075904	-0.1321755
94	0xbe248739	-0.16067208
95	0xbe127067	-0.1430069
96	0xbe59acff	-0.21257399
97	0xbdd536cd	-0.10410843
98	0xbe3b1490	-0.18269563
99	0x3e4bc5c8	0.19899666
100	0x3bef59b8	0.0073043965
101	0x3e4d37a5	0.20040758
102	0xbe6e4467	-0.23268281
103	0x3e66e676	0.22548851
104	0x3e08502c	0.13311833
105	0xbdf01885	-0.11723427
106	0xbe4863b3	-0.19569282
107	0xbe479b61	-0.19492866
108	0x3e49cc6f	0.19706891
109	0x3d9ba173	0.07599153
110	0x3d5c744e	0.053821854
111	0x3e231fc0	0.1593008
112	0x3ca2214b	0.019791266
113	0xbdcb7954	-0.09935251
114	0x3c3fbe80	0.011703134
115	0xbdd10328	-0.1020568
116	0xbd8cc9a3	-0.06874397
117	0xbc37669d	-0.0111938985
118	0x3d9ee867	0.07759171
119	0xbe52becc	-0.20580596
120	0x3e66ea93	0.2255042
121	0xbe29d98c	-0.16586894
122	0xbc2ed513	-0.010670918
123	0x3d813439	0.06308789
124	0xbd5c729e	-0.053820245
125	0xbda382c0	-0.07983923
126	0xbb4032c0	-0.0029327124
127	0x3e42ea93	0.19034795
128	0xbc5bb6b4	-0.013410259
129	0xbdd26927	-0.102739625
130	0xbd4bc118	-0.049744695
131	0x3e3f3ee7	0.18676339
132	0x3df334c5	0.11875299
133	0x3de09f39	0.10967869
134	0x3d508f17	0.05091771
135	0xbc90c323	-0.017671173
136	0x3e4f2114	0.20227462
137	0xbd5ade88	-0.05343488
138	0x3e6ecc53	0.23320131
139	0xbe52457d	-0.2053432
140	0x3e5bf62e	0.21480629
141	0x3e23c0e8	0.15991557
142	0xbdaca5b6	-0.08430044
143	0xbd5c69ce	-0.05381184
144	0x3e29e3ec	0.16590852
145	0x3d724532	0.05914802
146	0xbe246e94	-0.16057807
147	0x3e28a110	0.1646769
148	0xbc47fd25	-0.01220635
149	0xbcd50b9d	-0.026006514
150	0xbe29f18c	-0.16596049
151	0xbccf2212	-0.0252848
152	0x3c78b758	0.015180431
153	0xbd12c670	-0.035833776
154	0x3dee943e	0.11649369
155	0xbe6e2018	-0.2325443
156	0xbd0a4df0	-0.033765733
157	0x3e49f4fe	0.19722363
158	0xbdd35192	-0.10318293
159	0xbdaaeec8	-0.08346325
160	0xbe4b1046	-0.19830427
161	0x3dd58d96	0.10427396
162	0x3df4793f	0.11937188
163	0x3d6b0b26	0.05738368
164	0x3c480b96	0.012209794
165	0x3e6f6324	0.23377663
166	0x3e5186cb	0.20461576
167	0x3e1386e9	0.14406933
168	0x3dc5cc0d	0.0965806
169	0xbe47a61d	-0.19496961
170	0xbb6209c7	-0.003449069
171	0x3d942a6a	0.07234652
172	0x3c9aad29	0.018881397
173	0x3e1c435c	0.1526007
174	0x3d295ef7	0.04135033
175	0xbbe27adc	-0.0069116186
176	0xbc6c941f	-0.014439612
177	0x3d5ea978	0.054360837
178	0x3e73768d	0.23775692
179	0x3d538ccd	0.05164795
180	0x3dec95b8	0.11551994
181	0xbe032158	-0.12805688
182	0xbd91dc4c	-0.071220964
183	0x3e36f8c5	0.17868336
184	0x3e6175c0	0.22017574
185	0xbbc806b1	-0.0061043133
186	0xbe36ebd7	-0.17863403
187	0x3e1dd395	0.15412743
188	0x3da32290	0.07965577
189	0x3d20fe8d	0.03930526
190	0x3dcd1703	0.10014155
191	0xbd722c01	-0.059123997
192	0xbc8f2c10	-0.017477065
193	0x3e496e4b	0.1967098
194	0xbd31e08a	-0.043427028
195	0x3cf41b59	0.029798197
196	0xbddc78c8	-0.10765225
197	0xbe51c093	-0.20483617
198	0xbe4d71b4	-0.20062906
199	0xbbf4eeec	-0.007474771
200	0x3d7d0fee	0.06178277
201	0x3e4bafa7	0.19891225
202	0x3d84b67e	0.0648012
203	0x3e1f391c	0.15549129
204	0xbe2e15bc	-0.17000479
205	0xbd903a2a	-0.07042344
206	0x3e72dd5e	0.23717257
207	0xbe2ffaa7	-0.1718546
208	0xbe7c3ffb	-0.24633782
209	0xbd5576f6	-0.052115403
210	0xbcdc6710	-0.026904613
211	0xbd0c194b	-0.03420381
212	0xbe004362	-0.12525705
213	0x3e0710dc	0.13190025
214	0x3e4883b8	0.19581497
215	0x3e30bcee	0.17259571
216	0x3da2a8b9	0.079423375
217	0xbe30b970	-0.17258239
218	0xbe1b04b4	-0.15138513
219	0x3cbc69fe	0.02299976
220	0x3dfe68da	0.124223426
221	0xbde8148e	-0.113320455
222	0xbd681337	-0.05665895
223	0x3e23f21b	0.16010325
224	0xbe37c168	-0.17944872
225	0x3d9ca5e4	0.076488286
226	0xbda7efd3	-0.0820004
227	0xbe4ba05d	-0.19885392
228	0x3e3e2011	0.1856692
229	0x3da1bac1	0.078969486
230	0xbc0f8517	-0.008759758
231	0xbd32e062	-0.04367102
232	0xbe57abcb	-0.21061628
233	0xbd9b7b83	-0.07591917
234	0x3d1e5e50	0.038664162
235	0xbe6c0a6b	-0.23050849
236	0xbe7614d4	-0.24031383
237	0x3e11e883	0.14248852
238	0x3dbcd647	0.09220558
239	0x3de3ee46	0.111294314
240	0xbe0031dc	-0.1251902
241	0x3e4d4b21	0.2004819
242	0xbe43932d	-0.19099112
243	0xbe62ce12	-0.22148922
244	0x3e113c1a	0.14183083
245	0x3e327490	0.17427278
246	0xbe361598	-0.17781675
247	0xbb1e5f18	-0.0024165567
248	0x3e43e814	0.191315
249	0xbe13415c	-0.14380401
250	0x3e4f2c98	0.20231855
251	0x3d50bca3	0.050961148
252	0x3d8a4dcf	0.06753122
253	0x3c83003d	0.015991325
254	0x3dc8e997	0.09810179
255	0x3e08abad	0.13346739

model.input_raw.weight f4 [512, 96]
0	0x3d50ab8b	0.050944846
1	0x3db44cf4	0.0880374
2	0x3cea745d	0.02861994
3	0xbd0ad6a4	-0.033896104
4	0x3d2a76b6	0.041617118
5	0x3d577543	0.052602064
6	0x3d7140f3	0.05889983
7	0xbdb088bb	-0.08619829
8	0xbd989bf9	-0.074516244
9	0xbd091af7	-0.03347298
10	0xbc1891cf	-0.009312107
11	0x3da570e0	0.0807817
12	0x3ca88f9b	0.020576289
13	0x3d8784b7	0.0661711
14	0x3b44cf09	0.003003063
15	0xbc093d4a	-0.008376429
16	0x3d9a373f	0.075300686
17	0x3c9091b3	0.0176476
18	0xbc9c109e	-0.019050892
19	0x3ca84911	0.020542653
20	0x3d974672	0.07386483
21	0x3d8152e7	0.063146405
22	0xbc3882a0	-0.011261612
23	0x3c9d6f52	0.01921812
24	0x3dac6e20	0.08419442
25	0x3d0e409e	0.034729593
26	0x3d059fcb	0.032623094
27	0x3da987ac	0.082778305
28	0xbd2e64c1	-0.042576555
29	0x3dc46d5d	0.09591172
30	0x3d7142ef	0.058901723
31	0x3d152e66	0.036421202
32	0x3c302a32	0.010752248
33	0x3d20bb9a	0.03924141
34	0x3d93e07b	0.072205506
35	0x3d189281	0.037249092
36	0x3d51369b	0.051077466
37	0xbd80be34	-0.06286278
38	0xbc1fbcdf	-0.00974962
39	0x3c121c95	0.008917947
40	0x3d1e4490	0.038639605
41	0x3da8d3f4	0.08243552
42	0x3d36abb4	0.044597343
43	0xbd9756f8	-0.07389635
44	0xbc1f517c	-0.009724017
45	0x3cb7468d	0.022372508
46	0x3dcd7359	0.100317664
47	0xbd14c5fd	-0.03632163
48	0x3d5ab01c	0.053390607
49	0xbd6bcfab	-0.057571094
50	0xbc439f32	-0.011939811
51	0x3d07a1dd	0.03311335
52	0x3cf55af3	0.029950595
53	0x3d893ba0	0.06700826
54	0xbd9e24b5	-0.07721845
55	0xbba9e7de	-0.0051851114
56	0xbcc65e69	-0.02421494
57	0xbcb33c98	-0.02187948
58	0xbc8a33f0	-0.016870469
59	0x3dbc1fe3	0.091857694
60	0x3d6c5190	0.05769497
61	0x3d76feb1	0.060301486
62	0x3d831147	0.0639978
63	0x3ce54ff5	0.027992228
64	0x3a9bf5bf	0.00118988
65	0xbd6f0393	-0.058353018
66	0x3ca503bd	0.020143384
67	0x3da25912	0.07927145
68	0x3d767983	0.060174476
69	0x3a8b7e35	0.0010642471
70	0x3db2f38d	0.0873786
71	0x3c9080a9	0.017639475
72	0xbd9276f3	-0.07151594
73	0xbd864143	-0.065554164
74	0x3ddea6c7	0.10871654
75	0x3cac0c9b	0.021002105
76	0xbcb5c5da	-0.02218907
77	0xbdb6824b	-0.0891157
78	0x3d2f0712	0.042731352
79	0x3d518681	0.051153664
80	0x3dad7b3e	0.08470772
81	0x3b7b5cad	0.00383548
82	0x3d55297f	0.052041527
83	0x3ca99b0a	0.020703811
84	0x3d1e86aa	0.038702644
85	0x3d94dae6	0.07268314
86	0xbd4fd3e1	-0.050739173
87	0x3cbb2717	0.022845788
88	0x3d315899	0.043297384
89	0x3d8028d6	0.06257789
90	0xbdaef920	-0.085436106
91	0xbda0f312	-0.07858862
92	0xbc9484f1	-0.018129798
93	0x3dbd9ac8	0.09258038
94	0x3cb61800	0.022228241
95	0xba336cdf	-0.0006844531
96	0x3dabc05f	0.08386301
97	0xbda76ab7	-0.08174651
98	0x3cecdc54	0.028913654
99	0xbdcae3ff	-0.09906768
100	0xbd1e8f9c	-0.038711175
101	0x3dc30bb1	0.09523714
102	0xbd7410ac	-0.059586212
103	0xbdcb896c	-0.099383205
104	0x3d95dd48	0.07317597
105	0x3d3fed19	0.046856973
106	0x3d51814f	0.05114871
107	0xbd9b2976	-0.075762674
108	0x3cf89a7b	0.0303471
109	0xbc60602b	-0.013694803
110	0xbda9e0e3	-0.08294847
111	0x3d637007	0.05552676
112	0xbbd8838e	-0.0066074794
113	0x3d8cf62a	0.068828896
114	0x3cf36c14	0.029714622
115	0xbd192e00	-0.037397385
116	0x3d841159	0.06448621
117	0x3d8f7aed	0.07005868
118	0xbda86f9d	-0.082244135
119	0x3c6c3da9	0.014418998
120	0x3cab3b8a	0.020902414
121	0x3da395a5	0.07987527
122	0x3c2bcccc	0.010485839
123	0xbcef68b7	-0.029224737
124	0x3cb7eac8	0.02245082
125	0x3cf55c49	0.029951232
126	0xbb6c9a41	-0.0036102685
127	0x3db54916	0.08851831
128	0x3d25aa3a	0.040445544
129	0x3d7a9d08	0.061184913
130	0xbcf86bbc	-0.03032481
131	0xbd2b5b3d	-0.04183506
132	0x3da481a1	0.08032537
133	0x3dbc4af6	0.09193985
134	0x3dbf8744	0.09351972
135	0xbd9bbcac	-0.07604346
136	0xbd5a2bb3	-0.05326433
137	0x3d368f02	0.044569977
138	0xb91116f7	-0.00013836833
139	0x3cdbe5f9	0.026843058
140	0xbdaf8c19	-0.085716434
141	0xbc0489d4	-0.008089501
142	0x3d8df985	0.06932358
143	0x3c799a75	0.015234579
144	0xbd86c6ca	-0.06580885
145	0x3d50fb5c	0.051020965
146	0x3d026b36	0.031840526
147	0x3d4a14b1	0.04933614
148	0x3d4a3336	0.049365245
149	0xbd78f24d	-0.06077795
150	0xbc617ea6	-0.0137631055
151	0xbdcdb679	-0.100445695
152	0x3c857514	0.016291179
153	0xbcc17aeb	-0.023618182
154	0xbc5f48e8	-0.013628222
155	0xbd85513a	-0.06509633
156	0x3d9738e6	0.073838994
157	0x3d660b76	0.056163274
158	0x3dd072c9	0.101781435
159	0xbd68eb28	-0.056864887
160	0x3dbee12f	0.09320294
161	0x3d7b9096	0.061417185
162	0xbd70afce	-0.05876141
163	0xbdb5ee06	-0.0888329
164	0x3d7e61b4	0.062104896
165	0x3ce20d7e	0.027594324
166	0x3cd0ca91	0.025487216
167	0x3db225f6	0.08698647
168	0xbdca10d9	-0.09866495
169	0xbdd2d378	-0.10294241
170	0xbd290538	-0.041264743
171	0x3d9b019c	0.07568666
172	0x3d983b94	0.074332386
173	0x3cf05ba6	0.029340576
174	0x3d98031f	0.0742247
175	0xbbfdf364	-0.0077499617
176	0x3dab35dc	0.08359882
177	0xbd36f7bb	-0.044669848
178	0xbdd65871	-0.104660876
179	0x3d3b3566	0.04570522
180	0x3c83179e	0.016002472
181	0xbd169f98	-0.036773294
182	0xbd9363d5	-0.07196776
183	0x3c18e135	0.009331037
184	0xbcfa4bd9	-0.030553745
185	0xbc8f8db8	-0.017523631
186	0xbbfd546e	-0.007731012
187	0xbcbeb840	-0.023281217
188	0x3a04a5c3	0.0005060101
189	0xbd459e7f	-0.048246857
190	0x3ca2706e	0.019829001
191	0x3d754de4	0.059888735
192	0xb982fe3d	-0.00024984955
193	0x3d842f47	0.0645433
194	0x3ceaa400	0.028642654
195	0xbd629dec	-0.055326387
196	0xbd924a90	-0.07143128
197	0x3bc131ca	0.005895828
198	0xbdab74a1	-0.083718546
199	0x3dbb6186	0.091494605
200	0xbb003d47	-0.0019567774
201	0xbdaa6d74	-0.08321658
202	0xbb7094b9	-0.003670974
203	0x3d83da8c	0.06438169
204	0x3db5db97	0.08879774
205	0xbd94c1e7	-0.072635464
206	0xbced98ab	-0.029003462
207	0xbb3da968	-0.0028940085
208	0x3d98e7c8	0.07466084
209	0xbd813447	-0.06308799
210	0xbdc4cdae	-0.09609543
211	0xbdc4805b	-0.09594794
212	0xbdbfc7e8	-0.09364301
213	0x39a9e87b	0.00032407403
214	0xbc2d1fe9	-0.01056669
215	0xbc8abdbf	-0.016936181
216	0xbc246177	-0.010033003
217	0x3d2b75f2	0.04186053
218	0x3d4c4b21	0.049876336
219	0x3dab419c	0.08362123
220	0xbb919b4c	-0.0044435617
221	0x3d064bb7	0.03278705
222	0xbdc65670	-0.096844554
223	0x3d85ebf1	0.06539143
224	0xbd323f49	-0.043517385
225	0xbcebd15a	-0.02878635
226	0xbcf697c4	-0.030101664
227	0x3c9a32ee	0.018823113
228	0x3c432e24	0.011912856
229	0x3db49875	0.08818141
230	0xbd51f000	-0.051254272
231	0xbd98c286	-0.074589774
232	0xbc8b0075	-0.016967991
233	0x3dc1656e	0.09443174
234	0xbd8625b1	-0.06550158
235	0x3d908eaa	0.07058461
236	0xbdab1813	-0.08354201
237	0x3d832e70	0.064053416
238	0xbc9bf022	-0.019035403
239	0x3daab2bb	0.083348714
240	0xbdd9be9c	-0.10632059
241	0x3c3992ec	0.011326533
242	0xbcab21d5	-0.020890156
243	0x3dcd7a52	0.100330964
244	0x3c5b16e5	0.013372158
245	0xbd067bd6	-0.032832943
246	0x3da6f21d	0.08151648
247	0x3d641024	0.055679455
248	0x3b9a18a1	0.004702643
249	0xbd0f4dd1	-0.03498632
250	0xbd23b7aa	-0.039970078
251	0x3c55b257	0.013043008
252	0x3dbf0235	0.09326593
253	0xbda9b86f	-0.08287131
254	0x3cd97240	0.026543736
255	0x3d8c444a	0.068489626

model.input_raw.bias f4 [512]
0	0xbd2d4189	-0.042298827
1	0x3daf189b	0.08549615
2	0x3c765a58	0.015036188
3	0x3e05ae58	0.13054788
4	0x3c9c40ef	0.019073932
5	0x3ca62947	0.020283354
6	0x3d499af5	0.049220044
7	0xbd044071	-0.03228802
8	0x3d39d086	0.04536488
9	0xbbad6c8d	-0.0052924813
10	0x3d708247	0.058717992
11	0xbd3aa8ca	-0.045571126
12	0x3dc74764	0.097304136
13	0xbda4fecb	-0.080564104
14	0xbd11772f	-0.035514053
15	0x3ceb7bbe	0.028745528
16	0x3d876709	0.06611449
17	0xbdd243d9	-0.10266847
18	0xbccb33b8	-0.024804935
19	0x3cf223c3	0.029558068
20	0xbdb63fc8	-0.08898884
21	0x3e158dd6	0.14604887
22	0x3bc6135d	0.0060447888
23	0x3b29d8fe	0.002591669
24	0x3b943b01	0.0045236354
25	0x3b4b5d7d	0.0031031065
26	0x3dabea84	0.0839434
27	0xbd90c07c	-0.070679635
28	0x3dd0cf65	0.10195807
29	0xbcc42d27	-0.023947312
30	0xbd9592c3	-0.07303383
31	0xbdc86973	-0.09785738
32	0xbe062d71	-0.13103272
33	0xbdad7628	-0.08469802
34	0xbdcca0da	-0.099916175
35	0x3d3b1c52	0.045681305
36	0xbcf470ad	-0.029838884
37	0x3c0dd863	0.008657548
38	0xbd7988f0	-0.06092161
39	0xbdd69586	-0.10477738
40	0xbdb82f3c	-0.08993384
41	0x3d85f082	0.06540014
42	0x3d81f424	0.06345394
43	0x3d5eabd2	0.05436308
44	0xbcff1a63	-0.031140512
45	0xbcdb1c61	-0.02674693
46	0x3b5dd765	0.003385031
47	0x3d562a05	0.052286167
48	0xbd8e85b4	-0.069590956
49	0xbd94b7eb	-0.07261642
50	0x3d3c635b	0.04599319
51	0x3cc9cca5	0.024633715
52	0x3d838c42	0.064232364
53	0xbd2e2ce3	-0.042523276
54	0xbd847139	-0.06466908
55	0xbd9e856e	-0.077402934
56	0xbd6cd635	-0.05782147
57	0xbd38bb58	-0.04510054
58	0xbd781f12	-0.060576506
59	0x3d7bc80d	0.06147008
60	0xbd104f24	-0.035231724
61	0x3c9683d9	0.018373417
62	0x3d28c0ca	0.041199483
63	0xbd9e1969	-0.0771969
64	0x3da046a4	0.07825974
65	0xbd12bf77	-0.035827126
66	0xbdc8a9e9	-0.09798033
67	0x3d425e7b	0.047453385
68	0xbc45783b	-0.012052591
69	0x3d3fbc21	0.046810273
70	0xbd1f7f69	-0.038939867
71	0x3d8aa94a	0.067705706
72	0x3db4bd5a	0.088251784
73	0x3c2c79bf	0.010527073
74	0xbdcd9101	-0.10037423
75	0x3bf89139	0.0075856713
76	0x3cec2b47	0.02882923
77	0x3da9cf0e	0.08291446
78	0x3ce320f5	0.027725676
79	0x3dc2b77c	0.09507653
80	0xbb9051df	-0.004404291
81	0x3dc3aea4	0.095547944
82	0x3c68da3e	0.014212189
83	0x3cea8e8a	0.028632421
84	0xbb220164	-0.0024720067
85	0x3da3644f	0.07978117
86	0xbbb52b22	-0.0055288235
87	0x3d7904b4	0.0607955
88	0xbcd67ab6	-0.02618156
89	0x3c7cfe95	0.015441556
90	0x3e207824	0.1567083
91	0xbda6e951	-0.0814997
92	0x3d9d7e49	0.076901026
93	0xbc44384f	-0.011976316
94	0x3da0a345	0.07843641
95	0xbca5afd1	-0.020225437
96	0xbd9bbaec	-0.07604012
97	0x3dc04b36	0.09389345
98	0x3da1da82	0.07903005
99	0x3da4bcbf	0.08043813
100	0x3d705d41	0.058682684
101	0xbd0b8535	-0.034062583
102	0xbc344a62	-0.011004062
103	0x3e074c92	0.13212803
104	0xbcb47be0	-0.022031724
105	0xbd77447f	-0.060368057
106	0x3b3f2ff4	0.002917287
107	0xbd88780f	-0.06663524
108	0xbdb5980d	-0.08866892
109	0xbd9a801d	-0.07543967
110	0xbc54eafe	-0.01299548
111	0x3cb2ce74	0.02182696
112	0x3dc43848	0.09581047
113	0x3d360f1c	0.044448003
114	0xbce3bfd7	-0.027801437
115	0x3d837f70	0.06420791
116	0xbdbe101a	-0.09280415
117	0xbd2b17ad	-0.041770626
118	0x3db6ae0f	0.08919918
119	0x39453c26	0.00018809791
120	0xbb79611c	-0.0038052266
121	0x3da95754	0.0826861
122	0x3dcd6a58	0.10030049
123	0x3b4a3378	0.0030853432
124	0xbd8de670	-0.06928718
125	0xbdb6ec68	-0.0893181
126	0xbdbae873	-0.091263674
127	0x3da2c036	0.079468176
128	0xbd9d1b2b	-0.076711975
129	0x3d8e6560	0.069529295
130	0x3cd86ad4	0.026418127
131	0x3d9cadab	0.07650312
132	0x3d89984e	0.06718503
133	0x3d50672c	0.050879642
134	0xbd80de83	-0.06292441
135	0xbcfa05f2	-0.030520413
136	0x3d1ebdcc	0.038755223
137	0x3d6f1e0e	0.05837827
138	0x3cf0a3d1	0.029374989
139	0xbdb6f698	-0.08933753
140	0x3d3e4a9e	0.04645788
141	0x3dab29dd	0.08357594
142	0xbd2864d6	-0.04111179
143	0x3c14ec5d	0.0090895565
144	0xbd172f65	-0.036910433
145	0xbc973211	-0.01845649
146	0xbd8ff0b5	-0.07028333
147	0xbd9b3c0f	-0.07579815
148	0x3d44f1b5	0.048082072
149	0x3d35f9fb	0.044427853
150	0x3d09aa43	0.03360964
151	0xbd5d5c81	-0.054043297
152	0x3dd0e78d	0.10200415
153	0xbd262dbc	-0.04057096
154	0xbdad111a	-0.084505275
155	0x3c6a1a5b	0.01428851
156	0x3d7fe43a	0.062473513
157	0xbd83d47e	-0.06437014
158	0xbd003ee7	-0.03130999
159	0x3dbcc13d	0.09216545
160	0x3d4e5fab	0.050384205
161	0xbd12fcd1	-0.035885636
162	0x3d2c96fe	0.042136185
163	0x3d8b9fce	0.0681759
164	0x3c4281fd	0.011871812
165	0x3da8aec0	0.08236456
166	0xbda80ef7	-0.08205979
167	0xbd94a946	-0.07258849
168	0xbdad3b6e	-0.08458601
169	0x3c670e94	0.014102597
170	0x3d88e30c	0.06683931
171	0xbd683028	-0.05668655
172	0xbc9e53b0	-0.019327015
173	0x3d857727	0.06516867
174	0x3dbf53ba	0.093421414
175	0x3c35515f	0.011066764
176	0xbdcc5666	-0.09977417
177	0x3d361e02	0.04446221
178	0xbd541391	-0.051776472
179	0xbda28192	-0.0793487
180	0xbdbb8305	-0.09155849
181	0xbc5275d8	-0.012845479
182	0xbdad9f39	-0.08477635
183	0x3e15610f	0.14587806
184	0x3d70fa3a	0.058832385
185	0x3d8a5d1b	0.0675604
186	0xbdec97f6	-0.11552422
187	0x3ce87cfc	0.02837991
188	0x3d4db714	0.050223425
189	0xbd97ed39	-0.074182935
190	0xbd994a40	-0.07484865
191	0x3d330eab	0.04371516
192	0xbd8f6dae	-0.070033416
193	0xbd7804cd	-0.060551453
194	0x3d532ae7	0.051554587
195	0x3d70fc4f	0.05883437
196	0xbd9fb000	-0.07797241
197	0x3d8e4dcf	0.069484346
198	0x3d06107b	0.03273056
199	0x3c960de9	0.01831718
200	0xbc4741a8	-0.01216165
201	0x3cf47e9f	0.029845534
202	0xbd2b1455	-0.041767437
203	0xbd6d6920	-0.057961583
204	0xbe094d17	-0.13408314
205	0xbd4348bb	-0.047676783
206	0x3c747609	0.01492072
207	0x3bdfb6a2	0.0068271914
208	0x3d51b9f4	0.05120273
209	0xbb46d55c	-0.0030339574
210	0xbd9014a8	-0.0703519
211	0x3df5ba78	0.11998457
212	0x3d84a6d1	0.0647713
213	0x3e0a4a30	0.13504863
214	0xbd199e87	-0.0375047
215	0xbd407b5e	-0.046992652
216	0xbdbd6e82	-0.09249593
217	0xbd831620	-0.064007044
218	0xbc20a567	-0.00980506
219	0x3bfab6b7	0.007651176
220	0xbbd82c55	-0.0065970817
221	0x3d94a581	0.0725813
222	0x3de10d71	0.10988892
223	0x3d739c57	0.05947527
224	0xba86ad75	-0.0010275083
225	0x3d50b632	0.050955005
226	0xbdbffd39	-0.0937447
227	0xbd811b50	-0.063040376
228	0x3c02370f	0.007947697
229	0xbd7fdf91	-0.06246907
230	0xbd35b4a6	-0.044361733
231	0x3ccf1945	0.025280604
232	0xbd93d68c	-0.07218656
233	0xbc9ad343	-0.018899566
234	0xbd950f60	-0.07278323
235	0x3c1c20f6	0.009529343
236	0x3bdd5a91	0.006755181
237	0x3d8677d3	0.065658234
238	0xbdca9b55	-0.098929085
239	0xbc8c6f2e	-0.017142858
240	0xbc8f356b	-0.017481526
241	0x3d9d4239	0.076786466
242	0xbd88fe90	-0.06689179
243	0x3da2ded6	0.07952659
244	0x3c9aac74	0.01888106
245	0xba9d0325	-0.0011979087
246	0xbd3675fd	-0.044546116
247	0xbc7d3fb8	-0.015457086
248	0x3d05a260	0.032625556
249	0x3d69ad79	0.057050202
250	0xbd7653f5	-0.06013866
251	0xbd5b2249	-0.053499494
252	0x3d31b210	0.043382704
253	0xbd085796	-0.033286653
254	0x3dc52965	0.09627036
255	0x3d934c98	0.071923435

model.output.weight f4 [16, 1024]
0	0xbc1bbfb6	-0.009506157
1	0x3c8f376b	0.01748248
2	0xbba8b525	-0.0051485472
3	0x3c109007	0.008823401
4	0x3c9b93e3	0.018991416
5	0xbc6a3d41	-0.014296831
6	0x3cc74fa5	0.02432997
7	0x3c380a68	0.01123295
8	0x3c590580	0.01324594
9	0xbc8c4a50	-0.017125279
10	0xbce024a1	-0.027361216
11	0xbc4a019e	-0.012329487
12	0xbce77c53	-0.028257525
13	0x3c8d13c7	0.017221345
14	0xbcb0716e	-0.021538462
15	0xbb7a171c	-0.0038160747
16	0x398c6c67	0.00026783647
17	0xbcb4556d	-0.02201339
18	0x3c122c72	0.008921729
19	0xbc814fa6	-0.01578505
20	0x3ccc4eec	0.024939977
21	0x3c5ee1bd	0.013603625
22	0xbcb5dde8	-0.02220054
23	0xbcff6ef6	-0.03118084
24	0x3b822ab9	0.003972378
25	0x3cd2826b	0.025696954
26	0xbcca3d6f	-0.024687497
27	0xbc9cfa48	-0.019162312
28	0x3c5fca4e	0.013659073
29	0x3c72368a	0.014783511
30	0x3cb84c32	0.02249727
31	0xbaa937a9	-0.0012910265
32	0x3b9432f7	0.004522677
33	0x3cba1f82	0.022720102
34	0x3d1ce6bc	0.038305983
35	0xbbe0b253	-0.0068571954
36	0xbc81f831	-0.015865417
37	0xbb80940e	-0.0039238995
38	0xbcf54c53	-0.02994362
39	0xbc216874	-0.009851564
40	0x3d00ee26	0.031477116
41	0xbbd96d48	-0.006635342
42	0x3c3580d1	0.0110780755
43	0x3c023066	0.007946109
44	0xbcf5a296	-0.029984754
45	0x3ca0973c	0.019603364
46	0x3c35bf7e	0.011093019
47	0xbc90cb56	-0.017675083
48	0x3cb75eda	0.022384096
49	0x3ca8a23b	0.02058517
50	0x3b435ad3	0.0029808774
51	0xbbefd2c0	-0.0073188245
52	0x39d2595d	0.00040120902
53	0x38a1ea9b	7.720777e-05
54	0x3c31c36e	0.010849817
55	0xbc34326d	-0.010998351
56	0xb9548258	-0.00020266452
57	0x3ca4b6d5	0.020106712
58	0xbcc01d1a	-0.023451377
59	0x3c83777a	0.016048182
60	0xbca7bae2	-0.020474855
61	0x3cd696db	0.02619498
62	0xbc42253f	-0.0118497005
63	0x3bfeefc5	0.0077800476
64	0xbbbfe4fc	-0.0058561545
65	0x3aa46798	0.001254308
66	0xbc929841	-0.017894866
67	0x3ce6408d	0.028106952
68	0xbc7a609f	-0.015281825
69	0xbcbb6f63	-0.022880262
70	0xbcd7c6d3	-0.026339924
71	0x3cd9cc26	0.026586603
72	0x3cc4868b	0.023989936
73	0x3c9c52a7	0.01908238
74	0x3c5dc8e9	0.01353667
75	0x3c4f33b6	0.012646606
76	0x3bc47f52	0.005996623
77	0x3d06213f	0.03274655
78	0x3cbe6ec7	0.023246182
79	0xbc90497e	-0.017613169
80	0xbd004528	-0.031315953
81	0x3c6bff11	0.014404074
82	0xbc301727	-0.010747707
83	0xbcd0defd	-0.025496954
84	0xbbf4b9dd	-0.0074684457
85	0x3c0d630e	0.0086295735
86	0x3d19e87f	0.03757524
87	0xbc73e548	-0.014886208
88	0xbc192551	-0.009347276
89	0xbbc97684	-0.0061481614
90	0xbcaa00a4	-0.020752259
91	0xbcce2f5c	-0.025169067
92	0xbcd28a99	-0.025700854
93	0xbb98ec02	-0.004666806
94	0x3c3e700d	0.011623395
95	0xbc3a42ab	-0.011368434
96	0xbcb3cb58	-0.021947548
97	0x3b9f076a	0.0048531787
98	0x3d014e92	0.03156907
99	0x3cde4c6e	0.027136054
100	0x3c28ea21	0.010309727
101	0xbcf154e5	-0.029459426
102	0xbc41c2a4	-0.011826191
103	0xbc88155b	-0.016611746
104	0xbccbd14b	-0.024880072
105	0xbc76e427	-0.015069044
106	0xbcad4f4e	-0.02115598
107	0xbca42ee9	-0.0200419
108	0x3b3f6d77	0.0029209533
109	0x3cc88149	0.02447571
110	0xbcd92496	-0.026506703
111	0x39c53803	0.000376165
112	0x3b9ea343	0.0048412397
113	0xbba487fa	-0.0050210925
114	0xbc9a3288	-0.018822923
115	0x3b86b7d1	0.004111268
116	0xbcc700e0	-0.02429241
117	0xbc92c7a7	-0.017917467
118	0xbcd5ed3f	-0.026114104
119	0x3c200d35	0.009768774
120	0x3c6a2e84	0.014293317
121	0xbc8f4e81	-0.017493488
122	0xbc607870	-0.01370059
123	0x3d0659d4	0.03280051
124	0xbc59337c	-0.013256904
125	0xbca7a469	-0.020464139
126	0x3cccb9fc	0.024991028
127	0x3c648282	0.013947131
128	0xbcaf4b66	-0.021398257
129	0xbca38a18	-0.01996331
130	0x3c59499b	0.013262178
131	0xbca5429d	-0.020173365
132	0x3cd92cd6	0.026510637
133	0x3cd6e465	0.026231954
134	0x3c65b0ef	0.014019235
135	0xbced5de7	-0.02897544
136	0x3ca48146	0.020081174
137	0xbc8635fd	-0.016383165
138	0xbceb9a85	-0.028760204
139	0x3cb59ad6	0.022168558
140	0xbc09abfe	-0.008402823
141	0xbc943d18	-0.018095538
142	0xbc6fa50e	-0.014626754
143	0x3bdc9174	0.0067312066
144	0xbc712a16	-0.014719507
145	0xb9aa3623	-0.00032465262
146	0x3b77fd05	0.003784002
147	0x3c5e9e2d	0.013587517
148	0x3c1ef4ba	0.009701902
149	0x3d00c044	0.03143336
150	0x3b5b4ac3	0.003346131
151	0x3cf6c966	0.030125331
152	0xbcc08a51	-0.023503454
153	0xbc9c73ce	-0.019098189
154	0x3cc6be91	0.024260791
155	0xbc1bec05	-0.009516721
156	0x3c9b94a5	0.018991778
157	0xbc01e9e0	-0.007929295
158	0x3c76e068	0.015068151
159	0x3c42ffbf	0.011901795
160	0x3d028d1b	0.03187285
161	0x3bc94a90	0.0061429217
162	0xbb74d283	-0.003735692
163	0xba8263d9	-0.000994797
164	0x3cd5fd16	0.026121657
165	0x3b09492e	0.002094816
166	0x3c017410	0.007901207
167	0xbc9068b0	-0.017628044
168	0xba0e8d0c	-0.0005437888
169	0x3cafa994	0.021443166
170	0x3cbeefeb	0.023307761
171	0xbcaa0569	-0.020754533
172	0x3bf02408	0.007328514
173	0xbc41b338	-0.011822514
174	0x3ca50095	0.02014188
175	0xb9ed50ca	-0.00045264355
176	0x3c36366c	0.011121374
177	0xbc9fe23a	-0.019517053
178	0x3c83e31b	0.016099503
179	0xbc77c426	-0.015122449
180	0x3c987d93	0.018614566
181	0x3cef681a	0.029224444
182	0x3ccb9643	0.024851924
183	0xbc86b237	-0.016442401
184	0xbb86cc79	-0.0041137305
185	0xbcbcaada	-0.023030687
186	0xbc3f248b	-0.011666427
187	0xbc1df9f4	-0.009642113
188	0xbc1e5782	-0.009664418
189	0xbc952bc4	-0.018209346
190	0x398eec2e	0.00027260318
191	0xbc8e257a	-0.017351855
192	0xbca67fe1	-0.02032465
193	0x3cf57c08	0.02996637
194	0xbd0e80ee	-0.034790926
195	0x3cca61d4	0.024704851
196	0x3ca25b8a	0.01981904
197	0xbb47f7d9	-0.003051272
198	0x3c145e47	0.009055681
199	0xbb316e92	-0.0027073962
200	0xbc7903ae	-0.015198631
201	0x3c1bf21e	0.009518174
202	0x3c9d1c20	0.01917845
203	0xba3cd105	-0.0007202777
204	0x3c136846	0.008997029
205	0x3cc704c5	0.024294266
206	0xbc2dfc35	-0.010619213
207	0x3d00787a	0.031364895
208	0xbac07012	-0.0014681837
209	0x3cda6151	0.026657732
210	0x3c6ecc57	0.014575086
211	0x3c785d83	0.015159014
212	0xbc462ac4	-0.012095157
213	0xbcfb2387	-0.03065659
214	0x3cfd59dd	0.03092664
215	0xbc8c74ba	-0.017145503
216	0xbbb4e70a	-0.005520706
217	0x3cd80bab	0.026372751
218	0xbd0326e6	-0.03201952
219	0x3ab5f1bd	0.0013881248
220	0x3c455e97	0.012046478
221	0xbc450b88	-0.012026675
222	0x3c9d8ea0	0.019233048
223	0xbac7d46a	-0.00152458
224	0xbd041cb2	-0.03225393
225	0xbbf7d827	-0.007563609
226	0xbbd6a874	-0.006550843
227	0x3c215357	0.00984653
228	0x3bd280cf	0.0064240466
229	0x3bb8d5d2	0.0056407237
230	0xbd13cb9c	-0.03608285
231	0xbc900b74	-0.017583586
232	0x3c00ac6a	0.007853607
233	0xbb6363f0	-0.0034697019
234	0xbd086cae	-0.03330677
235	0x3b600b0c	0.0034186272
236	0x3c442ef2	0.011974083
237	0xbca9b570	-0.020716399
238	0xbcd478b4	-0.025936462
239	0xbcf2479c	-0.029575162
240	0xbcae728d	-0.021294856
241	0xbbc251e5	-0.0059301727
242	0xbcdce514	-0.026964702
243	0x3bae451c	0.005318297
244	0xbc10e67c	-0.008844014
245	0xbb8c5cf2	-0.004283541
246	0x3cf40224	0.029786177
247	0xbcb1ff07	-0.021728052
248	0x3c7a356c	0.015271526
249	0xbbf221c7	-0.0073892805
250	0x3ca60dbf	0.020270227
251	0xbc9013e4	-0.01758761
252	0xbb98295a	-0.0046436014
253	0xbc6bf8f2	-0.014402615
254	0x3bda2a5d	0.006657882
255	0x3c859318	0.016305491

model.output.bias f4 [16]
0	0x39c85bba	0.00038215314
1	0x3bd95059	0.0066318926
2	0xbc740700	-0.014894247
3	0x3baa2181	0.0051919823
4	0x3c62b971	0.013838158
5	0x3c93303e	0.01796734
6	0xbd08f8e3	-0.033440482
7	0x3c63640d	0.013878834
8	0x3c4f3519	0.012646937
9	0xbc2b9284	-0.010471944
10	0x3cc3a2ba	0.023881305
11	0xbd134fcb	-0.03596477
12	0xbb8b06b3	-0.004242742
13	0x3caa0531	0.020754429
14	0xbc898b8b	-0.016790172
15	0x3bbd8401	0.0057835584

model_std.input.weight f4 [512, 16]
0	0xbe808bf4	-0.25106776
1	0xbe7ac5a3	-0.24489455
2	0xbdce02b7	-0.100591116
3	0x3e1ece26	0.15508327
4	0xbd2eb015	-0.042648394
5	0xbc8ae9ed	-0.016957248
6	0xbe2d07d3	-0.16897516
7	0x3e58eb1e	0.2118344
8	0xbe3167fa	-0.1732482
9	0x3e43a8ed	0.19107409
10	0xbd68bff2	-0.05682368
11	0xbe00346a	-0.12519994
12	0xbd9586ff	-0.07301139
13	0x3d3ada8e	0.045618586
14	0xbe243734	-0.16036683
15	0xbe2bfaf6	-0.16794953
16	0xbe515cee	-0.20445606
17	0xbe2c12e9	-0.16804089
18	0x3d9ef41a	0.077614024
19	0xbdc02b41	-0.0938325
20	0xbdb07cdc	-0.08617565
21	0xbd3be80d	-0.045875598
22	0x3e1b5ef0	0.15172935
23	0x3e12e49b	0.14345019
24	0x3d77f34c	0.06053476
25	0x3d9bf9d3	0.076160096
26	0xbdfb9541	-0.12284327
27	0x3e3ee136	0.18640599
28	0xbe5680b3	-0.20947532
29	0xbe60cccc	-0.21953124
30	0xbd985510	-0.074380994
31	0x3dfba878	0.12287992
32	0xbdd4af11	-0.10384954
33	0xbd2bb3a9	-0.041919384
34	0xbe1498d5	-0.14511426
35	0x3e45420c	0.19263476
36	0x3e3282c4	0.17432696
37	0xbe59e73e	-0.21279618
38	0xbd40b2d1	-0.047045533
39	0x3d3a730a	0.045519866
40	0x3c7df21e	0.01549962
41	0xbdbaaa03	-0.091144584
42	0x3e4138e4	0.18869358
43	0x3e4a3f09	0.19750609
44	0x3df67842	0.12034656
45	0x3dba322a	0.09091599
46	0xbe16d93d	-0.14731307
47	0x3e460d5d	0.19341035
48	0xbde38328	-0.111090004
49	0x3e217086	0.1576558
50	0x3c9d4f3d	0.019202823
51	0xbcf01ca2	-0.029310528
52	0x3e558f65	0.20855482
53	0x3db1cb68	0.08681375
54	0xbd12c377	-0.03583094
55	0xbe0e0f1f	-0.13872956
56	0xbd02973d	-0.031882513
57	0x3e2bd7b5	0.16781504
58	0x3e63a8a5	0.22232302
59	0x3d9cd61d	0.07658026
60	0xbe618511	-0.22023417
61	0x3dcf04ee	0.10108362
62	0x3d5e98df	0.054345008
63	0x3e1a1e29	0.15050568
64	0x3dfbe359	0.122992225
65	0x3c755111	0.014972941
66	0x3dbbff61	0.09179569
67	0x3ddb43de	0.10706304
68	0xbe5a1b8b	-0.2129957
69	0x3c08d5ac	0.008351725
70	0xbdaf01da	-0.08545275
71	0x3e640a24	0.22269493
72	0xbe2b5954	-0.16733295
73	0xbe5a4912	-0.21316937
74	0x3e6abf8a	0.22924629
75	0x3e17eb46	0.14835843
76	0x3e53d9c9	0.20688547
77	0xbe0a3f8e	-0.13500807
78	0xbde01f42	-0.10943462
79	0x3dd81a99	0.10551948
80	0x3e0cce8f	0.13750671
81	0xbd86ab3f	-0.06575631
82	0xbe5fb5a4	-0.21846634
83	0x3cab22df	0.020890651
84	0xbc4e2632	-0.012582349
85	0xbe231e7a	-0.15929595
86	0xbc768405	-0.015046124
87	0xbd81c8f9	-0.063371606
88	0x3dcf7364	0.10129431
89	0xbc4ec1c0	-0.012619436
90	0xba7ab907	-0.00095643144
91	0xbe459f06	-0.19298944
92	0xbddaf9ca	-0.10692175
93	0xbe0cb5bc	-0.13741201
94	0x3e77e3a8	0.24207938
95	0xbd11fe0d	-0.035642672
96	0xbe62f5de	-0.22164103
97	0xbe1d8630	-0.1538322
98	0x3e6ba852	0.23013428
99	0xbdf2ca4e	-0.11854993
100	0x3cc18c2b	0.023626408
101	0x3d875fe2	0.06610085
102	0xbdbaa568	-0.0911358
103	0xbde0ca9a	-0.10976143
104	0x3e6685d9	0.22511996
105	0xbde8c67e	-0.113659844
106	0x3e4a3959	0.19748439
107	0xbd6f79b3	-0.05846567
108	0x3dab5087	0.08364969
109	0xbd70aa01	-0.05875588
110	0xbcea7f17	-0.028625054
111	0xbe57d164	-0.2107597
112	0x3d8a766b	0.06760868
113	0xbdac1b83	-0.08403685
114	0xbe3b5e6c	-0.18297738
115	0x3e26624c	0.16248435
116	0xbd10ea2e	-0.03537958
117	0xbd945bc4	-0.072440654
118	0xbd9f7aaa	-0.07787068
119	0x3df4822f	0.11938893
120	0xbdb12a6a	-0.08650668
121	0xbe8a9380	-0.2706566
122	0x396ea886	0.00022760229
123	0xbdfba81c	-0.12287924
124	0xbd3db9c3	-0.046319734
125	0xbe9b3fde	-0.30322164
126	0x3e23d589	0.15999426
127	0xbe4de08b	-0.20105188
128	0x3c8c50a3	0.017128294
129	0x3e0432cf	0.12910007
130	0xbe4dc1e0	-0.20093489
131	0xbcafcd04	-0.021460064
132	0x3e01bb01	0.12668993
133	0xbc08282e	-0.008310361
134	0x3be58d1a	0.007005346
135	0x3c956a4f	0.018239168
136	0xbd2d9298	-0.04237613
137	0x3e6e06fc	0.23244852
138	0xbe7adadb	-0.24497549
139	0x3cf96754	0.030444779
140	0x3de8652c	0.11347422
141	0x3dc3019d	0.09521792
142	0xbd73c1d2	-0.059511013
143	0xbc7c2519	-0.015389704
144	0x3dfee287	0.124455504
145	0xbd46fa14	-0.048578337
146	0x3df4a2ad	0.119450904
147	0x3e151eae	0.14562485
148	0x3e3bd168	0.18341601
149	0xbd576b23	-0.052592408
150	0x3e1378a9	0.14401497
151	0xbc57eeb3	-0.013179469
152	0xbd639530	-0.0555622
153	0x3e67bd72	0.22630861
154	0x3e1b0d58	0.15141809
155	0x3c36eb9a	0.01116457
156	0xbe5f83d3	-0.2182763
157	0xbe75effe	-0.24017331
158	0x3dd3e3d4	0.10346189
159	0x3d8a4955	0.06752268
160	0x3d4c7ff5	0.049926717
161	0xbe15d122	-0.14630559
162	0xbe248254	-0.16065341
163	0xbe378ade	-0.17924067
164	0x3e33b560	0.17549658
165	0x3b97e9c0	0.0046360195
166	0x3d8ce577	0.068797044
167	0xbdc6d9ac	-0.09709486
168	0xbd3343bd	-0.043765772
169	0xbd3774f8	-0.044789284
170	0xbe54719b	-0.20746462
171	0xbe11e1b8	-0.14246261
172	0xbca86672	-0.020556662
173	0xbe57250f	-0.2101023
174	0x3e313400	0.17304993
175	0xbe2963ee	-0.16542026
176	0xbe3dd7c6	-0.18539342
177	0xbdb8a820	-0.09016442
178	0xbe70e424	-0.23524529
179	0x3dced0e5	0.10098437
180	0xbe6782d3	-0.22608499
181	0x3dff6d47	0.12472015
182	0x3d916e45	0.0710111
183	0x3d3eb968	0.046563536
184	0x3e65eea4	0.22454315
185	0xbe7a308e	-0.24432585
186	0x3ce18d4d	0.027533198
187	0x3da8595d	0.0822017
188	0x3d62e3ab	0.055392902
189	0x3d60284a	0.054725923
190	0x3def83b4	0.11695042
191	0x3d14113f	0.03614926
192	0x3e79e397	0.24403225
193	0xbdaff56b	-0.08591732
194	0x3d28970c	0.041159675
195	0x3d2beefd	0.041975964
196	0xbddc787a	-0.107651666
197	0x3d7036d3	0.058646034
198	0x3e40779e	0.1879563
199	0xbe1511d9	-0.1455759
200	0x3e041da8	0.12901938
201	0xbdd2c459	-0.102913566
202	0x3ced20cc	0.028946303
203	0x3d8b7849	0.06810052
204	0xbc44033b	-0.011963661
205	0x3e70eb84	0.23527342
206	0xbde8d289	-0.113682814
207	0x3e5ad900	0.21371841
208	0xbdce1cee	-0.10064112
209	0xbe172424	-0.1475988
210	0x3e0e0824	0.13870293
211	0xbe67e009	-0.22644056
212	0x3e298655	0.1655515
213	0x3e3aa432	0.18226698
214	0x3e55a780	0.20864677
215	0x3b4077f5	0.0029368375
216	0xbe1954fe	-0.14973828
217	0x3cfd533f	0.030923484
218	0x3e434f76	0.1907328
219	0x3d7011a2	0.058610566
220	0x3c66306c	0.014049631
221	0xbc2134e1	-0.0098392675
222	0x3dec13c8	0.115272105
223	0x3e0d4025	0.13794
224	0xbe058040	-0.13037205
225	0xbe520ec4	-0.20513445
226	0xbe595ac7	-0.21226035
227	0x3e047e5f	0.12938832
228	0xbd3d9c49	-0.046291623
229	0x3e0154c6	0.12629995
230	0xbe389d36	-0.18028721
231	0x3ccd5645	0.02506555
232	0xbd0b69ba	-0.034036376
233	0xbe01b503	-0.12666707
234	0xbe379f40	-0.17931843
235	0x3dcdf320	0.10056138
236	0x3d3f9d02	0.046780594
237	0x3e780a4b	0.24222676
238	0x3c953da0	0.018217862
239	0xbe692e41	-0.2277155
240	0x3da352c9	0.079747744
241	0xbdbb1e83	-0.09136679
242	0xbe5306d4	-0.20608073
243	0x3e25ecd4	0.16203624
244	0xbdc3234a	-0.09528215
245	0x3dd28db1	0.10280932
246	0x3e49b819	0.19699134
247	0xbd4463cc	-0.047946736
248	0x3de74267	0.11291962
249	0x3d886bbe	0.06661175
250	0xbe062ba7	-0.1310259
251	0xbdf6fb3c	-0.12059638
252	0x3d22df55	0.039763767
253	0x3defefa7	0.11715632
254	0x3d8c5098	0.068513095
255	0xbe527172	-0.20551088

model_std.input.bias f4 [512]
0	0x3e852cdc	0.26010787
1	0xbe7f8ffb	-0.24957268
2	0x3df49557	0.11942547
3	0xbe4e675d	-0.20156617
4	0xbe16c2c7	-0.14722739
5	0xbde473d8	-0.11154908
6	0xbda29cae	-0.079400405
7	0x3e5b4bcc	0.21415633
8	0x3dd618ff	0.104539864
9	0x3cb45ff4	0.02201841
10	0xbe05b64a	-0.13057819
11	0xbdcff4d8	-0.10154122
12	0xbe3f65fa	-0.18691245
13	0xbe07a34c	-0.13245887
14	0xbd07d082	-0.033157833
15	0xbe25f25b	-0.16205733
16	0x3d35c870	0.044380605
17	0x3e56ff4e	0.20995829
18	0x3dba8ccd	0.09108887
19	0x3d9b4cd0	0.0758301
20	0x3e4b0a90	0.19828248
21	0x3daf100f	0.08547985
22	0x3e21d9a1	0.15805675
23	0xbe243cda	-0.16038838
24	0x3dec02ee	0.11523996
25	0x3cb1eb31	0.021718593
26	0xbe3c65bf	-0.18398188
27	0xbe246cbd	-0.16057105
28	0xbe289210	-0.16461968
29	0xbe362c6e	-0.17790386
30	0xbde8eec0	-0.11373663
31	0x3cf407cc	0.029788874
32	0x3d294540	0.041325808
33	0x3d73aff0	0.05949396
34	0xbe08a56c	-0.13344353
35	0x3c9800c4	0.018555053
36	0x3d8c4527	0.06849127
37	0xbd8eeb14	-0.06978431
38	0x3e03046b	0.12794654
39	0x3e4cf463	0.20015101
40	0x3e055b68	0.1302315
41	0x3e0b8db3	0.13628273
42	0x3e7f6221	0.24939777
43	0x3daf4ae8	0.08559209
44	0xbdd0bbfc	-0.10192105
45	0x3d0f978a	0.03505663
46	0x3e15d8db	0.14633505
47	0x3c0c568f	0.008565559
48	0xbdec4f4b	-0.115385614
49	0x3e2d0d3f	0.16899584
50	0xbddee8b4	-0.10884228
51	0xbe70f315	-0.23530228
52	0xbc3e3846	-0.011610096
53	0xbc246659	-0.010034167
54	0x3e2d7394	0.16938621
55	0x3e08cfe8	0.1336056
56	0x3e34a580	0.17641258
57	0x3e1e59d5	0.15463956
58	0x3e0b4fc5	0.13604648
59	0xbe665b98	-0.22495878
60	0xbe6abace	-0.22922823
61	0xbc918b09	-0.017766492
62	0xbe3b0922	-0.18265203
63	0xbdf9c7ec	-0.12196335
64	0x3e5dc732	0.21658018
65	0x3adba691	0.0016758015
66	0xbdc55820	-0.09635949
67	0xbe118154	-0.14209491
68	0x3c0d9ab6	0.008642843
69	0xbe22dbea	-0.15904203
70	0x3e2e6ea9	0.17034401
71	0x3dbdbc2c	0.092644066
72	0x3e2bae8c	0.16765803
73	0xbd049ef6	-0.03237816
74	0xbd9d4c0b	-0.0768052
75	0xbe6685c4	-0.22511965
76	0x3e1d6556	0.15370688
77	0x3e4f97ee	0.202728
78	0x3e764cf3	0.24052791
79	0xbe374729	-0.17898239
80	0xbe369d27	-0.17833386
81	0x3e416f3c	0.18890089
82	0x3e45a4f7	0.1930121
83	0xbd64e29d	-0.055880178
84	0xbdb10f08	-0.08645445
85	0xbdc2b7bb	-0.095077
86	0xbe6ee9aa	-0.23331323
87	0x3df8ced9	0.12148828
88	0xbda6c78f	-0.081435315
89	0x3e4f1e35	0.20226367
90	0xbdbd877e	-0.09254359
91	0x3d6074d3	0.054798912
92	0x3e53d431	0.20686413
93	0x3c3f0b5d	0.011660424
94	0x3d704102	0.058655746
95	0xbe7f35e2	-0.24922898
96	0x3d3009b3	0.042978
97	0xbde4cf77	-0.11172383
98	0xbcb62f1f	-0.022239266
99	0xbe1e7521	-0.15474369
100	0xbdc543cf	-0.09632074
101	0xbd4be724	-0.04978098
102	0x3e36af16	0.17840227
103	0x3de7e171	0.113222964
104	0x3e2272c1	0.15864088
105	0xbd3ecb6a	-0.04658071
106	0x3e63caa5	0.22245272
107	0x3e2cf340	0.16889668
108	0xbe0fcba1	-0.14042522
109	0x3d5c61cb	0.0538042
110	0x3da4c058	0.08044499
111	0x3dd88f79	0.1057424
112	0xbe6ed0c3	-0.23321824
113	0x3e6ef10c	0.2333414
114	0xbdf4b9a5	-0.119494714
115	0x3e49e937	0.1971787
116	0xbe13fd50	-0.144521
117	0x3c8ba732	0.017047498
118	0x3d39dc33	0.045376014
119	0xbcc7e7f1	-0.02440259
120	0x3cab21c5	0.020890126
121	0xbe4358a6	-0.19076785
122	0xbb9bd535	-0.004755641
123	0xbe3e3820	-0.18576097
124	0x3dfcd607	0.1234551
125	0x3dd0af46	0.10189681
126	0xbd89f13b	-0.06735464
127	0x3d84b106	0.06479077
128	0xbe5d3c8c	-0.21605128
129	0xbdfa1c46	-0.12212424
130	0x3aedf9fa	0.0018156164
131	0xbd806a73	-0.062703036
132	0x3ddab17f	0.10678386
133	0x3e60c70f	0.21950935
134	0xbe27316d	-0.16327448
135	0x3e53a627	0.20668851
136	0xbd2a656e	-0.041600637
137	0xbe112fa4	-0.1417833
138	0x3e5524f5	0.20814879
139	0xbe3502c2	-0.17676833
140	0x3c4bcae3	0.012438509
141	0xbe1f68ab	-0.15567271
142	0xbe3303de	-0.17481944
143	0x3e593234	0.21210557
144	0xbd2e766e	-0.042593412
145	0x3cd96826	0.02653892
146	0xbbd894b8	-0.0066095255
147	0x3d9bb154	0.07602182
148	0xbd355304	-0.044268623
149	0xbe345202	-0.17609408
150	0xbd3fa3e8	-0.046787173
151	0xbd3a2781	-0.04544783
152	0xbdffa606	-0.12482838
153	0x3e40325a	0.18769208
154	0xbe5d05f6	-0.21584305
155	0x3cded107	0.027199281
156	0x3e7e0d6d	0.24809809
157	0xbe18fbee	-0.14939854
158	0xbda4567b	-0.08024307
159	0xbe45b3d1	-0.19306876
160	0x3e47f867	0.19528352
161	0xbe6e30a6	-0.23260745
162	0xbe732e68	-0.23748171
163	0x3c3263ba	0.0108880345
164	0x3d3ab60a	0.045583762
165	0xbe64970d	-0.22323246
166	0xbe44307b	-0.19159119
167	0x3e17c669	0.14821781
168	0xbdd727db	-0.10505649
169	0xbd2ce4bd	-0.04221033
170	0x3e5ee9a9	0.21768822
171	0xbe4139f0	-0.18869758
172	0xbe0babc1	-0.13639738
173	0x3d8f4982	0.069964424
174	0x3e301be9	0.17198147
175	0x3e1814c4	0.14851671
176	0xbdaf5c5b	-0.08562537
177	0x3d09c1cb	0.03363208
178	0xbe1a717a	-0.1508235
179	0x3e47e8cb	0.19522397
180	0x3e6735fe	0.2257919
181	0xbdccda23	-0.10002544
182	0x3d62f413	0.05540855
183	0xbe1e77d8	-0.15475404
184	0xbddd9a89	-0.10820491
185	0xbda73b0d	-0.0816556
186	0xbe01ca16	-0.12674746
187	0xbd62a7e3	-0.05533589
188	0xbe69c17b	-0.22827713
189	0x3e430c62	0.19047692
190	0xbe238eaa	-0.15972391
191	0x3def364f	0.116802804
192	0x3e2b783b	0.16745083
193	0x3e3051c7	0.17218696
194	0xbcae094f	-0.021244673
195	0xbe297381	-0.16547967
196	0xbdc95a4d	-0.09831677
197	0xbd804ac4	-0.062642604
198	0x3de3b650	0.11118758
199	0x3e7d84d5	0.24757703
200	0xbe064335	-0.13111575
201	0xbcd72f4a	-0.026267666
202	0x3e53b143	0.20673089
203	0xbc8b2a04	-0.016987808
204	0x3e2814a6	0.16414127
205	0x3dd41a80	0.10356617
206	0x3d8b7d04	0.06810954
207	0xbcdf268d	-0.027240062
208	0x3d7f453d	0.06232189
209	0x3e67def2	0.2264364
210	0xbe4a07a8	-0.19729483
211	0xbe15ca00	-0.14627838
212	0x3de34cc2	0.11098625
213	0x3e5679dc	0.20944923
214	0x3e487ad1	0.195781
215	0xbe261841	-0.1622019
216	0x3dd194ff	0.10233497
217	0x3e197529	0.149861
218	0x3d9000b1	0.07031382
219	0xbd794c24	-0.06086363
220	0x3df7a82d	0.12092624
221	0xbd4b1be0	-0.04958713
222	0xbd9aaf6e	-0.07552992
223	0x3c8634d1	0.016382607
224	0x3cb4be3e	0.02206337
225	0xbe412310	-0.18861032
226	0x3e21b50a	0.15791717
227	0x3dfda3a0	0.123847246
228	0xbe46107d	-0.19342227
229	0xbb108de2	-0.0022057225
230	0x3dd8cd39	0.10586018
231	0xbe12eb79	-0.14347638
232	0xbd142688	-0.03616956
233	0xbdb3dddf	-0.08782553
234	0xbdc564ea	-0.096383885
235	0xbc19fffb	-0.009399409
236	0x3e15d1ad	0.14630766
237	0x3cc35c6c	0.023847781
238	0xbd7e1dbd	-0.06204008
239	0x3dcbed88	0.09957415
240	0xbe352155	-0.17688496
241	0x3e416191	0.18884875
242	0x3dc12d3a	0.094324544
243	0xbcbc982e	-0.023021784
244	0xbdfea130	-0.12433088
245	0x3d083956	0.033257805
246	0x3e22dc0d	0.15904255
247	0x3e442dd3	0.19158106
248	0xbe121416	-0.14265475
249	0x3e01a038	0.12658775
250	0x3e5a9574	0.21346074
251	0xbd253885	-0.040337104
252	0xbdf43067	-0.119232945
253	0x3e4ff7a0	0.20309305
254	0x3e1e5ca2	0.15465024
255	0x3dfc6ba3	0.123252176
