checkpoints/solar_data_CycleNet_solar_data_ftMS_sl96_ll48_pl1/checkpoint.pth (torch, 204327 bytes, 4 tensors)

cycleQueue.data f4 [24, 12]
00000000: 0000 0000 0000 0000 0000 0000 0000 0000
00000010: 0000 0000 0000 0000 0000 0000 0000 0000
00000020: 0000 0000 0000 0000 0000 0000 cd0c 933b
00000030: 0000 0000 0000 0000 0000 0000 0000 0000
00000040: 0000 0000 0000 0000 0000 0000 0000 0000
00000050: 0000 0000 0000 0000 0000 0000 28f0 b53b
00000060: 0000 0000 0000 0000 0000 0000 0000 0000
00000070: 0000 0000 0000 0000 0000 0000 0000 0000
00000080: 0000 0000 0000 0000 0000 0000 0808 653b
00000090: 0000 0000 0000 0000 0000 0000 0000 0000
000000a0: 0000 0000 0000 0000 0000 0000 0000 0000
000000b0: 0000 0000 0000 0000 0000 0000 89b7 123c
000000c0: 0000 0000 0000 0000 0000 0000 0000 0000
000000d0: 0000 0000 0000 0000 0000 0000 0000 0000
000000e0: 0000 0000 0000 0000 0000 0000 fea4 313c
000000f0: 0000 0000 0000 0000 0000 0000 0000 0000
00000100: 0000 0000 0000 0000 0000 0000 0000 0000
00000110: 0000 0000 0000 0000 0000 0000 2e13 69bc
00000120: 0000 0000 0000 0000 0000 0000 0000 0000
00000130: 0000 0000 0000 0000 0000 0000 0000 0000
00000140: 0000 0000 0000 0000 0000 0000 2fb8 9ebc
00000150: 0000 0000 0000 0000 0000 0000 0000 0000
00000160: 0000 0000 0000 0000 0000 0000 0000 0000
00000170: 0000 0000 0000 0000 0000 0000 1cad b2bb
00000180: 0000 0000 0000 0000 0000 0000 0000 0000
00000190: 0000 0000 0000 0000 0000 0000 0000 0000
000001a0: 0000 0000 0000 0000 0000 0000 3c51 153c
000001b0: 0000 0000 0000 0000 0000 0000 0000 0000
000001c0: 0000 0000 0000 0000 0000 0000 0000 0000
000001d0: 0000 0000 0000 0000 0000 0000 60f8 023c
000001e0: 0000 0000 0000 0000 0000 0000 0000 0000
000001f0: 0000 0000 0000 0000 0000 0000 0000 0000
00000200: 0000 0000 0000 0000 0000 0000 8928 a8ba
00000210: 0000 0000 0000 0000 0000 0000 0000 0000
00000220: 0000 0000 0000 0000 0000 0000 0000 0000
00000230: 0000 0000 0000 0000 0000 0000 87b4 373b
00000240: 0000 0000 0000 0000 0000 0000 0000 0000
00000250: 0000 0000 0000 0000 0000 0000 0000 0000
00000260: 0000 0000 0000 0000 0000 0000 14bc d5b8
00000270: 0000 0000 0000 0000 0000 0000 0000 0000
00000280: 0000 0000 0000 0000 0000 0000 0000 0000
00000290: 0000 0000 0000 0000 0000 0000 a44f c9ba
000002a0: 0000 0000 0000 0000 0000 0000 0000 0000
000002b0: 0000 0000 0000 0000 0000 0000 0000 0000
000002c0: 0000 0000 0000 0000 0000 0000 a25a b33b
000002d0: 0000 0000 0000 0000 0000 0000 0000 0000
000002e0: 0000 0000 0000 0000 0000 0000 0000 0000
000002f0: 0000 0000 0000 0000 0000 0000 63bb 5b3c
00000300: 0000 0000 0000 0000 0000 0000 0000 0000
00000310: 0000 0000 0000 0000 0000 0000 0000 0000
00000320: 0000 0000 0000 0000 0000 0000 8a6b f3ba
00000330: 0000 0000 0000 0000 0000 0000 0000 0000
00000340: 0000 0000 0000 0000 0000 0000 0000 0000
00000350: 0000 0000 0000 0000 0000 0000 50f3 65bc
00000360: 0000 0000 0000 0000 0000 0000 0000 0000
00000370: 0000 0000 0000 0000 0000 0000 0000 0000
00000380: 0000 0000 0000 0000 0000 0000 2da8 cbba
00000390: 0000 0000 0000 0000 0000 0000 0000 0000
000003a0: 0000 0000 0000 0000 0000 0000 0000 0000
000003b0: 0000 0000 0000 0000 0000 0000 2065 563c
000003c0: 0000 0000 0000 0000 0000 0000 0000 0000
000003d0: 0000 0000 0000 0000 0000 0000 0000 0000
000003e0: 0000 0000 0000 0000 0000 0000 fc03 433c
000003f0: 0000 0000 0000 0000 0000 0000 0000 0000
0.0 0.0 0.0 0.0 0.0 0.0 0.0 0.0
0.0 0.0 0.0 0.00448761 0.0 0.0 0.0 0.0
0.0 0.0 0.0 0.0 0.0 0.0 0.0 0.0055523105
0.0 0.0 0.0 0.0 0.0 0.0 0.0 0.0
0.0 0.0 0.0 0.0034947414 0.0 0.0 0.0 0.0
0.0 0.0 0.0 0.0 0.0 0.0 0.0 0.008954891
0.0 0.0 0.0 0.0 0.0 0.0 0.0 0.0
0.0 0.0 0.0 0.01084256 0.0 0.0 0.0 0.0
0.0 0.0 0.0 0.0 0.0 0.0 0.0 -0.014225764
0.0 0.0 0.0 0.0 0.0 0.0 0.0 0.0
0.0 0.0 0.0 -0.019374935 0.0 0.0 0.0 0.0
0.0 0.0 0.0 0.0 0.0 0.0 0.0 -0.005452765
0.0 0.0 0.0 0.0 0.0 0.0 0.0 0.0
0.0 0.0 0.0 0.009113606 0.0 0.0 0.0 0.0
0.0 0.0 0.0 0.0 0.0 0.0 0.0 0.0079937875
0.0 0.0 0.0 0.0 0.0 0.0 0.0 0.0
0.0 0.0 0.0 -0.0012829463 0.0 0.0 0.0 0.0
0.0 0.0 0.0 0.0 0.0 0.0 0.0 0.0028031187
0.0 0.0 0.0 0.0 0.0 0.0 0.0 0.0
0.0 0.0 0.0 -0.00010191664 0.0 0.0 0.0 0.0
0.0 0.0 0.0 0.0 0.0 0.0 0.0 -0.0015358818
0.0 0.0 0.0 0.0 0.0 0.0 0.0 0.0
0.0 0.0 0.0 0.0054734508 0.0 0.0 0.0 0.0
0.0 0.0 0.0 0.0 0.0 0.0 0.0 0.013411376
0.0 0.0 0.0 0.0 0.0 0.0 0.0 0.0
0.0 0.0 0.0 -0.0018571478 0.0 0.0 0.0 0.0
0.0 0.0 0.0 0.0 0.0 0.0 0.0 -0.014035061
0.0 0.0 0.0 0.0 0.0 0.0 0.0 0.0
0.0 0.0 0.0 -0.0015537791 0.0 0.0 0.0 0.0
0.0 0.0 0.0 0.0 0.0 0.0 0.0 0.0130856335
0.0 0.0 0.0 0.0 0.0 0.0 0.0 0.0
0.0 0.0 0.0 0.011902805 0.0 0.0 0.0 0.0

model.0.weight f4 [512, 96]
00000000: 3f30 ac3c 5046 67ba 3f4e 013d 4031 7839
00000010: 678a 29bd c69f 543d 50bc 9b3d e829 0cbd
00000020: c682 013d 8c8b b2bc c2c1 92bb bf15 8b3d
00000030: 7d7c 9a3d e1d5 5c3d fe51 003d 6ea8 71bd
00000040: 92b0 77bd 1d33 163d 1dbe b73d 49b6 a4bd
00000050: ded3 3ebd 35c4 573d c8f3 cb3d 1e9a f7bc
00000060: ebea fc3c 8ff8 b43d 0ce2 9fb9 abec e0bc
00000070: d223 c8bc 819d 83bd 4f87 2a3d bbd3 cb3d
00000080: 83c6 a2b9 d439 acbd c8c1 b93b 2a79 a4bd
00000090: 8aed 77bc af7c e8bc 52a9 593d 3a1e 9b3c
000000a0: 5299 b23d b3a4 a83d 1d1b a9bd d731 943d
000000b0: 4918 a63d 16b3 923d 5d07 883d e0bf f3bb
000000c0: 5ce2 aabd 91cf 7a3d b9a2 cfbc 7097 c43c
000000d0: 8066 763d c99a 1f3d 3c8c 0f3c d10d 903c
000000e0: 6424 a5bd 2ecd 883d 180c 39bd 0f5a 78bc
000000f0: 6e7e 8b3c a75c 263d 2acf 0e3b f12a a63d
00000100: 608a 403d 2e4e 9bbd 2c29 913d 07bd a5bc
00000110: bb96 af3d 910b babd 709f 7ebd b279 83bc
00000120: 81d1 a73d 6f8f 7dbd 54c4 8abc a7f5 cf3c
00000130: 4ea1 6cbc fc15 c93d a53e 753c a2b1 19bc
00000140: 07ba 983d ad37 923d 93bf 5d3d 6369 733c
00000150: f5cc 7fbd 08a2 4abd 2fda a6bd 04b9 d8bc
00000160: 6269 53bc 0304 54bd 7000 abbd 7ea0 a5bd
00000170: 8849 0d3d 84b0 b23d 2e32 a83c 4982 953d
00000180: 27a2 e9bb d9d8 b7bd 03f5 963d 70f8 c63d
00000190: 13bc 10bd afd6 25bd 3cc2 053d 9e37 753d
000001a0: 1b74 a63c 430a b3bd aa00 233d 389a 02bd
000001b0: d207 08bc 3889 5b3d bd74 83bc 1878 5ebd
000001c0: 04b0 0fbd c409 b1bd e82b 873d 0551 acbd
000001d0: 42c8 4c3d fed4 b03a 4b74 9b3d 4300 6c3d
000001e0: fdb0 a1bd 5142 99bd d6b0 523c 494a 333c
000001f0: 46c0 96bd 0f7f 833c 136c 13bd 9b7a 38bd
00000200: ef82 c7bd 87e4 bcbd 9572 7dbd d583 8f3d
00000210: fa23 6c3d a0f9 03bc d1d2 b0bd 39d5 0ebd
00000220: b936 bfbd 2711 53bd 6752 c8bd 863f ad3d
00000230: 973f 2b3c 4cc5 96bd 44bd 48bd feae 713c
00000240: 2415 bebd f1db 2d3c d621 a4bd 5f8d 92bd
00000250: 0bce c9bd 2e35 97bd 3b08 d5bd 40c7 ef3c
00000260: 19e9 4bbd 0a8e 033c 0bb2 5bbb daf8 25bc
00000270: d891 af3c 8964 02bd 7fd4 29bc 0aa7 3abd
00000280: 716a 963d e7b5 6b3c 0aa4 3a3d b36f 3abd
00000290: bc43 b13d 99e8 eabc 5a76 a33d ad52 8ebd
000002a0: c75f 5a3d 9197 51bd d9c0 1fbd 4f66 cabd
000002b0: bf33 c4bd b6f9 9a3d a4d1 253d 75fe 80bc
000002c0: 5db0 b4bc e630 a7bd 80ab a33b 94a0 90bd
000002d0: 68e0 233d acf2 d03d 81f5 3839 c251 7e3d
000002e0: 926e 41bd 8be9 eebc 700b 843d 8ccf 753d
000002f0: c096 4e3d 27ef 87bc 83a5 f13c 91cf 7fbd
00000300: 590a 88bd 9b0c b5bd af62 86bd 6cd5 cb3b
00000310: 294d 93bc 65b9 9a3b 17fd 463d ec8c 6a3d
00000320: ae5e 4dbd 687a ccbd 1955 51bd 5943 a4bd
00000330: 3f85 793d 8366 08bd 8f9e d8bc a965 793d
00000340: cc71 a03d a5cc 453c dede 02bd 58c6 f4bc
00000350: 44f1 813b 36d8 95bc 2e33 93bd 1b4d 8d3d
00000360: 4bbb b63d 4e88 4cbd 6b83 8cbd 0827 4bbd
00000370: 0048 adbd b633 adbc ba99 4dbd 316b c3bd
00000380: 6b11 59bd 33f3 c1bd 1b97 88bd 255d 613d
00000390: 2a36 bc3c ee41 1c3d 977b 8a3d 4482 263d
000003a0: 5ab2 f53c 36e8 c6bd edcf a2bd cf11 d73c
000003b0: 3076 963d 012d 47bd b0ed 843c 9c40 cd3d
000003c0: 6089 233d b64f 10bb 643e d03b b50f 74bc
000003d0: d9b2 c6bd 83c0 d5bc a320 c93b 4997 88bd
000003e0: 7a32 1f3d 2ee6 bcbc 8589 aebd dd57 dd3c
000003f0: 1db6 95bd a9be aabd 8249 113d 1df4 c7bd
0.0210191 -0.0008822428 0.031568762 0.0002366947 -0.041391756 0.051910184 0.07604277 -0.034219652
0.031618856 -0.021795057 -0.004478664 0.06791257 0.075432755 0.05391491 0.031328194 -0.058998518
-0.060471125 0.03666984 0.08971808 -0.08042581 -0.04658877 0.052677352 0.09958607 -0.030224856
0.030873736 0.08836471 -0.0003049526 -0.027456602 -0.024431143 -0.06426526 0.041632947 0.09952494
-0.0003104695 -0.08409467 0.0056688525 -0.08030923 -0.015132317 -0.028379766 0.053139992 0.018935312
0.0872065 0.08234539 -0.082571246 0.07236069 0.08110101 0.07163064 0.066420294 -0.0074386448
-0.08343956 0.061233107 -0.025346147 0.023997992 0.060156345 0.038965974 0.008761462 0.017584713
-0.080635816 0.0667976 -0.04517755 -0.01515819 0.01702806 0.040615704 0.002179096 0.08113659
0.047006965 -0.07583271 0.07087931 -0.020231737 0.085736714 -0.09084237 -0.06216377 -0.01604924
0.081942566 -0.061904367 -0.01693932 0.02538569 -0.014442755 0.09818646 0.014968549 -0.00938073
0.07457357 0.071395256 0.054137778 0.014856669 -0.06245132 -0.04947093 -0.08147084 -0.02645541
-0.012903543 -0.05176164 -0.08349693 -0.08087252 0.034493953 0.08725074 0.02053174 0.073002405
-0.007129926 -0.08976907 0.07370951 0.097153544 -0.03533561 -0.04048794 0.03265594 0.059867494
0.020319035 -0.08742192 0.039795555 -0.031885356 -0.008302646 0.05359766 -0.016046876 -0.05431375
-0.03507997 -0.08644441 0.06600171 -0.08413891 0.04999567 0.0013491211 0.075905405 0.057617437
-0.07895086 -0.07483352 0.012859544 0.010943004 -0.07360892 0.016051797 -0.03599174 -0.0450388
-0.097417705 -0.09223276 -0.061876852 0.07007567 0.057651497 -0.008055121 -0.0863396 -0.034871314
-0.093366094 -0.05153003 -0.09781342 0.08459382 0.010452173 -0.0736185 -0.049008623 0.014751194
-0.09281376 0.01061152 -0.08014266 -0.07155871 -0.09853753 -0.0738319 -0.104019605 0.029269814
-0.049782846 0.00802947 -0.003352287 -0.010130132 0.021431848 -0.03183416 -0.010365604 -0.045569457
0.07344521 0.014386631 0.045566596 -0.04551668 0.086554974 -0.028675364 0.07981558 -0.06949363
0.053313997 -0.051169936 -0.039002273 -0.09882795 -0.09580182 0.0756716 0.040483132 -0.015746335
-0.022056753 -0.081636235 0.0049948096 -0.07061878 0.040008932 0.10202536 0.00017639065 0.06208969
-0.04722459 -0.029164096 0.06447494 0.060012385 0.050436735 -0.016593529 0.029497867 -0.06245381
-0.06642599 -0.08840295 -0.06561791 0.00622051 -0.017981129 0.004721808 0.04858121 0.0572633
-0.05013912 -0.09984285 -0.051106546 -0.08020658 0.06091809 -0.033300888 -0.026442794 0.060887966
0.07834205 0.012072717 -0.031950824 -0.029879734 0.0039655287 -0.018291574 -0.07187496 0.06899472
0.08922442 -0.049934678 -0.068610035 -0.04959777 -0.084609985 -0.021142822 -0.050195433 -0.095419295
-0.052995127 -0.09470215 -0.06669446 0.05502047 0.022975046 0.038148813 0.06761854 0.040651575
0.029992271 -0.097122595 -0.07949815 0.026253609 0.07346761 -0.048626903 0.01622662 0.10022089
0.039925933 -0.0022020168 0.006355094 -0.014896323 -0.09702081 -0.026092773 0.006137924 -0.0666948
0.038866498 -0.023058977 -0.085223235 0.027019436 -0.07310126 -0.08337147 0.035470493 -0.09763358

model.0.bias f4 [512]
00000000: 5e00 c33d 3452 92bd ef98 aebc c264 a83d
00000010: 46e8 d43c 04db 95bc bb90 2c3d 6f50 9abd
00000020: 7015 99bd b288 a03c 3dca fdbc 1d88 80bc
00000030: dce2 75bd b769 453c fb1f 3b3d 441d 4abd
00000040: b582 4e3d cb1d ef3c c744 ce3c e5b0 a93d
00000050: 8c81 2f3d 0141 bd3d a154 1f3c aaee 83bb
00000060: eb04 9f3c 09c3 773d 1245 d2bc 37f9 cc3c
00000070: 73cb 1dbd 1638 cdbc f572 28bc b8a4 953d
00000080: 9a2c b23c 0705 023d 64f7 c73c 849e 5abd
00000090: b21d bf3d 041c 04bd 5dd7 1c3d ec6b 48bd
000000a0: bd51 193d 0cfa 713d ac77 0c3c 08a3 9b3d
000000b0: 9388 f93c f1f5 c73d ba38 823d ae31 c73c
000000c0: dc4e 423d 4743 723d 9257 ab3d 9c4e bcbd
000000d0: fe86 cb3c 770c ef3b 891e 823c 2a7c ddbc
000000e0: 4bc6 59bc ce50 cd3d fed5 f4bc a9a7 1ebd
000000f0: e774 a6bd aa6a d43d c5e6 943c 38ce ae3d
00000100: 4531 ad3d 3e1e adbd 8703 0ebd cd3d 87bc
00000110: a2e7 51bc a544 693d 3e24 253d 63b3 3e3c
00000120: 6090 833d 341f 573d ac9d 773a fd01 a03d
00000130: 1429 ba3d f0e1 bb3d 9129 67bd 37f6 87bd
00000140: fcc5 6dbd 3900 5f3d eb44 9abd fb11 073d
00000150: baf4 5fbb 48ab 13bc 0bed 573d de91 9dbd
00000160: 5a7c a73b ad8e 86bd 9707 503d 22ce 103d
00000170: dad0 46bd 45fb af3d 5a55 083c d5c9 f13c
00000180: 00f2 41bd b3ea 5b3c 3f9c 5f3d b507 af3d
00000190: 949a 47bd f509 963d b6ee 9dbd d9bd 713d
000001a0: c380 d53c caa9 803d 4a0d 953d b020 18bd
000001b0: 6df7 d2bd 96f4 cbbc 3fcb 933d 0c87 473d
000001c0: d564 6f3d 6660 96bd 1109 6e3d e345 88bd
000001d0: 19c0 9a3d d2c6 793d 27fa eabc 9ac3 863d
000001e0: bf60 42bd a5bc 84bd f020 203c 59a7 a2bc
000001f0: addc 55bd d433 8dbd 7be8 eb3c 8161 0bbc
00000200: 5f18 72bd 66e9 b43c 2702 52bd c397 d8bc
00000210: bae7 96bc f9a4 a6bc 87e1 d4bc e5ee d1bc
00000220: fa68 d23d 617f 883c 7ee5 393d 0044 09bd
00000230: 8a5a a93d df3c cd3d 9b19 01bc 5834 3dbd
00000240: b4da aa3d ce01 bebc dce7 113c 9ebb eabc
00000250: 0062 c83d 37ca 623d ea71 46bd aca6 343d
00000260: 4a3c 99bd 916c a3bd 0a2a 0f3d f761 9fbd
00000270: 2b09 dc3b eb91 8ebd e2d9 803d f1fb 0ebc
00000280: 8119 1ebb 00cc 66bd d1ec b5bd b211 1dbc
00000290: 0647 b03d 18da dfbc 8b13 6d3d 2060 643d
000002a0: 2e18 afbd f80a 50bd bf0c 61bd 6199 4fbb
000002b0: b542 1a3d ff41 e93c 9a90 b6bd 986e 87bd
000002c0: 3314 a03d 2494 443c 5b9d c1bd e3ef 9cbd
000002d0: 9f10 0cbb 1157 d5bc cb58 39bd 0366 0bbd
000002e0: 50a2 85bd fa8b 3ebd 61b0 d23c 9159 aebd
000002f0: d81b 9bbd e5ef c3bd 0c81 a7bd 869d a33d
00000300: 7bb3 ddbb f4fd db3b 51c3 093d 8edf 173b
00000310: 3fc6 dbbc a8de 1c3d 2cbf 1c3c 72af 2cbc
00000320: eca2 57bd 40c9 ba3d 7cee a7bd feab acbb
00000330: 086e 75bd 553b 473c a67d bf3d 8dc3 8e3d
00000340: 7110 93bd 32dc 30bd 8a20 b1bd ae35 133d
00000350: 7a13 d9bc f88b a4bd 5fad 443d 3c75 853d
00000360: 83c8 993d 59ac 4bbb 324f 75bd 8e36 aabd
00000370: 6c31 823d 1413 39bc b93d b03d 7c91 a3bd
00000380: b147 f43b f632 31bc 2efa 6ebd d4f7 a4bd
00000390: 716b abbd c479 ffbc 1151 ac3d 5126 8b3d
000003a0: 0e41 ca3d 3aee 3dbc 7463 ac3d 40ef 84bc
000003b0: 6235 383d bcca b13d 9359 89bd 965a d33d
000003c0: 62e0 ea3c 82a5 bbbd 28b2 b33d 105f 6cbc
000003d0: fdba 3b3d 312e e9bc 0f43 cebc c80e 5dbd
000003e0: cd72 c13d 92fb 9e3b e520 c3bd 2eab 033d
000003f0: 3b34 453d 75a6 3b3c a5bb 5abb d579 7dbd
0.095215544 -0.07144585 -0.021313159 0.08222343 0.025989663 -0.018292911 0.042130213 -0.07534873
-0.07474792 0.019596431 -0.030980224 -0.015689904 -0.060030803 0.01204913 0.045684796 -0.049344316
0.05041762 0.029189011 0.02517928 0.08285693 0.042848155 0.09240914 0.009724767 -0.0040262537
0.019411525 0.060488734 -0.0256677 0.025021179 -0.038524102 -0.025051158 -0.010281314 0.07306808
0.021749783 0.031743076 0.024409957 -0.05337383 0.09331836 -0.03225328 0.038291324 -0.048931047
0.037431467 0.059076354 0.008573454 0.07599455 0.030460631 0.097637065 0.06358476 0.024315681
0.047438487 0.059146192 0.08366312 -0.09194681 0.024844643 0.007295187 0.0158837 -0.027036745
-0.013291906 0.10025178 -0.029887196 -0.038734112 -0.08127766 0.10371907 0.018176446 0.08535427
0.08456663 -0.08453034 -0.034671333 -0.016508961 -0.012811573 0.05695023 0.040317766 0.011639449
0.06424022 0.052519992 0.0009445797 0.07812879 0.09089866 0.091739535 -0.056436125 -0.06638759
-0.05805014 0.05444357 -0.07532676 0.032976132 -0.0034172968 -0.009013005 0.052716296 -0.076938376
0.0051112594 -0.06570182 0.05078849 0.035352834 -0.04853902 0.08592848 0.008321131 0.029515186
-0.04734993 0.013422656 0.054592367 0.08546392 -0.0487314 0.07326118 -0.07711546 0.059018943
0.026062375 0.06282385 0.07277925 -0.03714055 -0.10301099 -0.024896901 0.072165005 0.048712775
0.05844577 -0.07342605 0.058114115 -0.06653955 0.07556171 0.060980625 -0.028683735 0.06580277
-0.047455546 -0.064812936 0.009773478 -0.019855188 -0.052212406 -0.06894651 0.028797379 -0.008507133
-0.059105273 0.02208395 -0.051271584 -0.026439553 -0.018421043 -0.020342337 -0.025986446 -0.02562661
0.10273929 0.016662301 0.045384876 -0.033512115 0.08269222 0.10021376 -0.00787964 -0.046192497
0.083424956 -0.02319422 0.008905377 -0.028653916 0.09784317 0.05536863 -0.04844848 0.044104263
-0.07482202 -0.07979692 0.0349522 -0.07782357 0.00671496 -0.069614254 0.06291558 -0.00872706
-0.0024124088 -0.056346893 -0.0888306 -0.009586738 0.08607297 -0.027325675 0.057879966 0.055755734
-0.08549534 -0.05079171 -0.054943796 -0.0031677114 0.037661273 0.028473852 -0.08914299 -0.06612891
0.07816353 0.01199821 -0.09453841 -0.07662942 -0.0021372212 -0.026042493 -0.045250695 -0.034032833
-0.06525099 -0.04652021 0.02571887 -0.08513177 -0.0757367 -0.095672406 -0.081789106 0.079890296
-0.0067657805 0.006713623 0.033633534 0.002317402 -0.02682793 0.03829828 0.009567063 -0.010539876
-0.05264561 0.09120417 -0.08199784 -0.0052695265 -0.059919387 0.012160142 0.093501374 0.06970892
-0.0718087 -0.043178745 -0.086487845 0.035939865 -0.026498545 -0.080345094 0.048016902 0.06516501
0.07508948 -0.003107807 -0.05988998 -0.08311187 0.06357083 -0.0112960525 0.08605523 -0.07986733
0.0074548353 -0.010815373 -0.05834406 -0.08055082 -0.08370102 -0.031185992 0.084139 0.06794418
0.098756894 -0.011592442 0.08417407 -0.016227365 0.044972785 0.08681247 -0.06706538 0.10320012
0.028671447 -0.091624275 0.08774215 -0.014426962 0.045832623 -0.028464409 -0.02517846 -0.053969175
0.09445725 0.004851767 -0.095277585 0.03214567 0.048145514 0.011453261 -0.0033376005 -0.061883766

model.2.weight f4 [1, 512]
00000000: 2870 043d 2ce0 91bc 3815 133d 120a 3c3c
00000010: 61f5 583d ff27 bfbc d685 23bc 61c6 5ebc
00000020: 2bff 12bd c8b9 383b c85a 0d3d 911e b83c
00000030: 00cb fe3b e9a5 bb3c 0a50 4e3d 505e e7bb
00000040: 0810 b13b 056f 93bd 98e5 28bd 141f db3c
00000050: 8265 db3c 639d 2d3d 7008 82bc 1687 713c
00000060: 2c2f 4abd 722a b4bc 3d2a 16bc 6fe7 c8bc
00000070: 9b19 213d bc76 43bc bf56 14bd 2c2a babc
00000080: dd05 d7bc 49a2 e0bc 5cc7 523d 3419 f73c
00000090: 1692 08bd e976 7a3c 33a8 b7bc 1817 4e3d
000000a0: d867 4ebc 64c2 91bc d738 b9bc 43f9 f13c
000000b0: aa31 0fbc 193a 2c3c 1740 123d 9d91 ba3c
000000c0: 8b1d fabc e942 183d 8172 753c 1dd1 5abd
000000d0: 671f 8dbc 8a9f 34bc 066e b6bc 75cd 9fbc
000000e0: e10c 59bd 4e10 863c 4a71 993c 94e6 b43c
000000f0: b77f f43c c3b1 323d abeb 57bc 0b73 043d
00000100: 1e4e 65bc 9599 203d d233 babc 4998 0d3d
00000110: 6423 993c 8859 f93c c7ac 13bd cec1 573c
00000120: f854 14bd 4fb7 203d a1ac 31bd 9114 a23c
00000130: 267e ea3c 41a1 a93b 3392 3c3d 9c07 df3c
00000140: 8af3 cd3c fef2 c63c daf3 aebc 104e db3c
00000150: 2701 6cbd eb79 ef3c 2dce efbb 8efc 8038
00000160: d3be 58bd 66ad 26bd b894 f93c 502f c8bc
00000170: f120 7a3d 9b69 f5bc 9c98 913c 688f 2b3d
00000180: a090 b1bc 859f f73c 1e73 f03b 49f1 353d
00000190: 9104 353d fbbf fdbc 24ff babc b57c 693c
000001a0: e1f7 c3bb 1844 0d3d 7ffc 94bc 6ad6 133c
000001b0: 6934 86bc cdcd 583c 4e50 9abc c5c6 f5bb
000001c0: a1b6 d73c 0fc2 ccbb 6d4d 023d cd8b c83c
000001d0: 74c2 4a3d 0355 d33c 7da8 f63c 7f57 623c
000001e0: db75 16bd 1548 fabc 6035 70bb 55a0 24bc
000001f0: e613 88bc f9e2 823c 8953 a7bc e39f 86bd
00000200: c9b7 493d 5248 dfbc 77de ef3c 78c7 d73c
00000210: a537 3ebc e2ac ca3c 678b 223c 0a2e 783c
00000220: 07bc 5d3d 0a13 93bc abf2 8ebc 8ac0 71bd
00000230: 96ea 543d 72f7 06bc 8190 2dbd 2bca 3ebd
00000240: a75b 183d f5eb 1cbb 2347 9dbc b3a3 2c3d
00000250: 2ab6 293d 706c 103d 176a 33bd 15d0 0ebd
00000260: 6342 b83c 72b8 01bd 0bdd 11bd a6d4 8c3c
00000270: 6333 383d 1cfd e3bc e75c 32bd cfc3 d63c
00000280: a800 e5bc 6f51 113d 5f54 2e3d 7dd9 3e3d
00000290: 055a c13b 00d5 edbc 4d36 3b3d 4526 26bd
000002a0: fa8e bc3c c678 9fbc dfa4 243d 8e54 3cbd
000002b0: 1c86 37bd 3da5 cbbc 3929 ac3b 9206 913c
000002c0: c969 fdbb 6c0c fb3a 5cb4 e5bc ec16 fcbb
000002d0: e9e5 3f3c 7b50 dcbc ad8a 363b 31f8 043d
000002e0: 407d d9bc 3bba 603d f7b5 84bc 1500 23bd
000002f0: 4633 85bc f0a0 18bd 876e 8dbc 0310 60bc
00000300: 12b7 bebc aa82 393c 3158 243d 758b b9bc
00000310: 29eb ebbc 4ed0 16bd 34f3 93bb 6f6a b3bc
00000320: 9e9b 14bd 5cff 4f3c 4800 82bc 0820 ecbc
00000330: c0b7 b83c 8bf8 09bd 890b 3f3d e71a 87bc
00000340: 3f5a 24bd a628 433c 4008 90bc d8e1 163c
00000350: d6e6 a03c 3f09 b3bc bcc1 d23c 07b4 f23c
00000360: 7dfd 493b faae 343d 2929 40bd c9b3 04bd
00000370: 2d46 04bd 3c7c d8bc 3368 043d be43 133d
00000380: 13a3 e63c 07fc 2e3d 279a 0abd 549f 2e3d
00000390: 54bc 313c ce75 92bc 965a f3bb b8a2 c2bc
000003a0: f186 113d f9a6 a93b e5ab 11bd 9df6 b3bc
000003b0: 1cc4 94ba e3c4 523c dc60 c4bc 74f3 1f3d
000003c0: c6a0 12bb 8727 4b3d c003 163d 58af 40bd
000003d0: 26eb e1bc 3ea0 123d f1d6 3c3d e0e5 303c
000003e0: 906b bbbc 116b 6dbc 5a00 053d 72c0 f4bc
000003f0: 1a91 c4bc 0ad0 aa3c 683b 1c3b 13d0 00bd
0.032333523 -0.017807089 0.035908908 0.01147701 0.052968387 -0.023334501 -0.009980639 -0.013597102
-0.03588788 0.0028186906 0.034510404 0.022475513 0.0077756643 0.02290626 0.0503693 -0.0070608035
0.0054035224 -0.0719891 -0.041234583 0.026748218 0.026781801 0.042386424 -0.015873164 0.01474168
-0.049361393 -0.021992896 -0.009165344 -0.024524419 0.03933106 -0.011930164 -0.03621554 -0.022725187
-0.026247913 -0.027421134 0.051459655 0.030163385 -0.033342443 0.015287139 -0.02241907 0.050314993
-0.0125980005 -0.017792888 -0.022610111 0.029537803 -0.008739868 0.010511898 0.035705652 0.022774512
-0.030531665 0.037173185 0.014980913 -0.053422082 -0.017226888 -0.011024365 -0.02226926 -0.01950715
-0.052990798 0.016365197 0.018730778 0.022082604 0.029846055 0.043626558 -0.013178746 0.032336276
-0.013995675 0.039208967 -0.022729788 0.03456906 0.018693633 0.0304382 -0.036053445 0.013168765
-0.036213845 0.039237317 -0.043377522 0.019785197 0.028624605 0.0051766937 0.046037864 0.027225308
0.025140543 0.02428579 -0.021356512 0.026770622 -0.057618286 0.02923294 -0.0073182792 6.1505576e-05
-0.05291636 -0.04069271 0.030466422 -0.024436623 0.06106657 -0.029957583 0.017772965 0.04188481
-0.021675408 0.030227432 0.007337942 0.04441956 0.044193808 -0.030975332 -0.022826739 0.014250924
-0.005980477 0.034488767 -0.018186806 0.009023288 -0.016382413 0.0132326605 -0.01883712 -0.007500502
0.026332201 -0.0062487195 0.03181212 0.024480725 0.04950185 0.025797373 0.030109638 0.013814806
-0.03673349 -0.03055195 -0.0036652908 -0.010047992 -0.01661105 0.01597737 -0.020425575 -0.06573465
0.049247537 -0.027256165 0.029280884 0.026340231 -0.011609946 0.02474064 0.009920931 0.015147695
0.054134395 -0.017953414 -0.017449697 -0.05902151 0.05198153 -0.0082377065 -0.042374138 -0.04657952
0.03719678 -0.0023944352 -0.01919896 0.042148303 0.04143349 0.035259664 -0.043802347 -0.03486641
0.022492593 -0.03167004 -0.035611194 0.017191242 0.04497088 -0.027830653 -0.04354563 0.026216416
-0.027954414 0.03547805 0.04256093 0.04659413 0.0059006237 -0.02903223 0.045706082 -0.04056384
0.023017395 -0.019466769 0.040196296 -0.045979075 -0.04480563 -0.024859065 0.0052539376 0.017703328
-0.007733558 0.0019153482 -0.028040104 -0.007693162 0.01171253 -0.026893845 0.0027853653 0.032463256
-0.026548982 0.054865103 -0.016200049 -0.039795 -0.0162598 -0.037262857 -0.017264618 -0.0136756925
-0.023280654 0.011322657 0.04012317 -0.022649506 -0.028798657 -0.03681975 -0.004515076 -0.021901337
-0.03628122 0.01269516 -0.015869275 -0.028823867 0.022548556 -0.033684295 0.04664186 -0.01649232
-0.040125128 0.011911547 -0.017582059 0.009209119 0.019641321 -0.021854995 0.025727145 0.02962686
0.0030821257 0.044112183 -0.046914253 -0.03239802 -0.032293487 -0.026426427 0.032325935 0.035953276
0.028153932 0.04272082 -0.033838417 0.042632416 0.010848124 -0.01787844 -0.00742657 -0.023759231
0.03552908 0.0051773754 -0.035564322 -0.02196818 -0.0011349949 0.012864324 -0.023971967 0.039050534
-0.002237366 0.049598243 0.03662467 -0.04704222 -0.027577948 0.03579735 0.04610342 0.010796994
-0.022878438 -0.014490859 0.03247104 -0.029876921 -0.023994971 0.020851154 0.002383912 -0.031448435
