checkpoints/test1_CycleNet_solar_data_bs16_ftMS_sl336_ll48_pl120/checkpoint.pth (torch, 940007 bytes, 5 tensors)

cycleQueue.data f4 [24, 12]
000000 00 00 00 00 00 00 00 00 00 00 00 00 00 00 00 00
       0.0 0.0 0.0 0.0
000010 00 00 00 00 00 00 00 00 00 00 00 00 00 00 00 00
       0.0 0.0 0.0 0.0
000020 00 00 00 00 00 00 00 00 00 00 00 00 02 0a 8a bc
       0.0 0.0 0.0 -0.016850475
000030 00 00 00 00 00 00 00 00 00 00 00 00 00 00 00 00
       0.0 0.0 0.0 0.0
000040 00 00 00 00 00 00 00 00 00 00 00 00 00 00 00 00
       0.0 0.0 0.0 0.0
000050 00 00 00 00 00 00 00 00 00 00 00 00 ab fe 34 bb
       0.0 0.0 0.0 -0.0027617614
000060 00 00 00 00 00 00 00 00 00 00 00 00 00 00 00 00
       0.0 0.0 0.0 0.0
000070 00 00 00 00 00 00 00 00 00 00 00 00 00 00 00 00
       0.0 0.0 0.0 0.0
000080 00 00 00 00 00 00 00 00 00 00 00 00 00 bf 87 3c
       0.0 0.0 0.0 0.016570568
000090 00 00 00 00 00 00 00 00 00 00 00 00 00 00 00 00
       0.0 0.0 0.0 0.0
0000a0 00 00 00 00 00 00 00 00 00 00 00 00 00 00 00 00
       0.0 0.0 0.0 0.0
0000b0 00 00 00 00 00 00 00 00 00 00 00 00 4a 9a 1b 3d
       0.0 0.0 0.0 0.03798894
0000c0 00 00 00 00 00 00 00 00 00 00 00 00 00 00 00 00
       0.0 0.0 0.0 0.0
0000d0 00 00 00 00 00 00 00 00 00 00 00 00 00 00 00 00
       0.0 0.0 0.0 0.0
0000e0 00 00 00 00 00 00 00 00 00 00 00 00 7b 47 01 3d
       0.0 0.0 0.0 0.03156231
0000f0 00 00 00 00 00 00 00 00 00 00 00 00 00 00 00 00
       0.0 0.0 0.0 0.0
000100 00 00 00 00 00 00 00 00 00 00 00 00 00 00 00 00
       0.0 0.0 0.0 0.0
000110 00 00 00 00 00 00 00 00 00 00 00 00 01 74 1d bd
       0.0 0.0 0.0 -0.038440708
000120 00 00 00 00 00 00 00 00 00 00 00 00 00 00 00 00
       0.0 0.0 0.0 0.0
000130 00 00 00 00 00 00 00 00 00 00 00 00 00 00 00 00
       0.0 0.0 0.0 0.0
000140 00 00 00 00 00 00 00 00 00 00 00 00 ba 3b 95 bd
       0.0 0.0 0.0 -0.072867826
000150 00 00 00 00 00 00 00 00 00 00 00 00 00 00 00 00
       0.0 0.0 0.0 0.0
000160 00 00 00 00 00 00 00 00 00 00 00 00 00 00 00 00
       0.0 0.0 0.0 0.0
000170 00 00 00 00 00 00 00 00 00 00 00 00 84 7b 79 bc
       0.0 0.0 0.0 -0.015227202
000180 00 00 00 00 00 00 00 00 00 00 00 00 00 00 00 00
       0.0 0.0 0.0 0.0
000190 00 00 00 00 00 00 00 00 00 00 00 00 00 00 00 00
       0.0 0.0 0.0 0.0
0001a0 00 00 00 00 00 00 00 00 00 00 00 00 44 1d 79 3d
       0.0 0.0 0.0 0.060818925
0001b0 00 00 00 00 00 00 00 00 00 00 00 00 00 00 00 00
       0.0 0.0 0.0 0.0
0001c0 00 00 00 00 00 00 00 00 00 00 00 00 00 00 00 00
       0.0 0.0 0.0 0.0
0001d0 00 00 00 00 00 00 00 00 00 00 00 00 88 63 38 3d
       0.0 0.0 0.0 0.045016795
0001e0 00 00 00 00 00 00 00 00 00 00 00 00 00 00 00 00
       0.0 0.0 0.0 0.0
0001f0 00 00 00 00 00 00 00 00 00 00 00 00 00 00 00 00
       0.0 0.0 0.0 0.0
000200 00 00 00 00 00 00 00 00 00 00 00 00 8f b8 e2 3b
       0.0 0.0 0.0 0.0069189738
000210 00 00 00 00 00 00 00 00 00 00 00 00 00 00 00 00
       0.0 0.0 0.0 0.0
000220 00 00 00 00 00 00 00 00 00 00 00 00 00 00 00 00
       0.0 0.0 0.0 0.0
000230 00 00 00 00 00 00 00 00 00 00 00 00 93 dd 4a 3d
       0.0 0.0 0.0 0.049527716
000240 00 00 00 00 00 00 00 00 00 00 00 00 00 00 00 00
       0.0 0.0 0.0 0.0
000250 00 00 00 00 00 00 00 00 00 00 00 00 00 00 00 00
       0.0 0.0 0.0 0.0
000260 00 00 00 00 00 00 00 00 00 00 00 00 09 b8 cf 3c
       0.0 0.0 0.0 0.02535631
000270 00 00 00 00 00 00 00 00 00 00 00 00 00 00 00 00
       0.0 0.0 0.0 0.0
000280 00 00 00 00 00 00 00 00 00 00 00 00 00 00 00 00
       0.0 0.0 0.0 0.0
000290 00 00 00 00 00 00 00 00 00 00 00 00 fc 36 16 bb
       0.0 0.0 0.0 -0.0022920957
0002a0 00 00 00 00 00 00 00 00 00 00 00 00 00 00 00 00
       0.0 0.0 0.0 0.0
0002b0 00 00 00 00 00 00 00 00 00 00 00 00 00 00 00 00
       0.0 0.0 0.0 0.0
0002c0 00 00 00 00 00 00 00 00 00 00 00 00 df 9a 28 3d
       0.0 0.0 0.0 0.04116332
0002d0 00 00 00 00 00 00 00 00 00 00 00 00 00 00 00 00
       0.0 0.0 0.0 0.0
0002e0 00 00 00 00 00 00 00 00 00 00 00 00 00 00 00 00
       0.0 0.0 0.0 0.0
0002f0 00 00 00 00 00 00 00 00 00 00 00 00 e8 0a 51 3d
       0.0 0.0 0.0 0.05103579
000300 00 00 00 00 00 00 00 00 00 00 00 00 00 00 00 00
       0.0 0.0 0.0 0.0
000310 00 00 00 00 00 00 00 00 00 00 00 00 00 00 00 00
       0.0 0.0 0.0 0.0
000320 00 00 00 00 00 00 00 00 00 00 00 00 e7 8f 98 bb
       0.0 0.0 0.0 -0.0046558264
000330 00 00 00 00 00 00 00 00 00 00 00 00 00 00 00 00
       0.0 0.0 0.0 0.0
000340 00 00 00 00 00 00 00 00 00 00 00 00 00 00 00 00
       0.0 0.0 0.0 0.0
000350 00 00 00 00 00 00 00 00 00 00 00 00 0b b0 43 bd
       0.0 0.0 0.0 -0.04777531
000360 00 00 00 00 00 00 00 00 00 00 00 00 00 00 00 00
       0.0 0.0 0.0 0.0
000370 00 00 00 00 00 00 00 00 00 00 00 00 00 00 00 00
       0.0 0.0 0.0 0.0
000380 00 00 00 00 00 00 00 00 00 00 00 00 e7 58 15 bd
       0.0 0.0 0.0 -0.036461737
000390 00 00 00 00 00 00 00 00 00 00 00 00 00 00 00 00
       0.0 0.0 0.0 0.0
0003a0 00 00 00 00 00 00 00 00 00 00 00 00 00 00 00 00
       0.0 0.0 0.0 0.0
0003b0 00 00 00 00 00 00 00 00 00 00 00 00 66 a7 9c 3c
       0.0 0.0 0.0 0.01912279
0003c0 00 00 00 00 00 00 00 00 00 00 00 00 00 00 00 00
       0.0 0.0 0.0 0.0
0003d0 00 00 00 00 00 00 00 00 00 00 00 00 00 00 00 00
       0.0 0.0 0.0 0.0
0003e0 00 00 00 00 00 00 00 00 00 00 00 00 10 35 0f 3d
       0.0 0.0 0.0 0.034962714
0003f0 00 00 00 00 00 00 00 00 00 00 00 00 00 00 00 00
       0.0 0.0 0.0 0.0

model.0.weight f4 [512, 336]
000000 fa ff 20 3d 2a 91 9e 3c 37 a6 64 3c 78 6b 26 3d
       0.03930662 0.019356329 0.013955644 0.040629834
000010 6a 85 05 bd 9e e3 3d 3d bd a4 31 bd 9c fc 5f bd
       -0.032597937 0.04635965 -0.043369997 -0.054684266
000020 29 e7 36 3c 5f a1 67 bd ab 45 8e bc 80 01 39 bd
       0.011163511 -0.05655038 -0.017367205 -0.045167446
000030 ee a4 0d 3d 8e f7 02 3c 4c 71 a6 3c 8c 60 2e bc
       0.034581117 0.007993592 0.020317696 -0.010643136
000040 bb e8 d7 bc f0 36 11 bb d8 a2 fd bc 19 9d db bc
       -0.026356092 -0.002215799 -0.030961439 -0.026808308
000050 fa a4 5a 3c 88 12 a8 bc 6e f5 8c bb 7e 97 e5 3c
       0.013344998 -0.020516649 -0.0043017184 0.028026339
000060 7d 91 26 bd 75 41 71 bd 1d 66 bc bc d9 cd 1e bd
       -0.040666092 -0.058900315 -0.02299791 -0.03877053
000070 0d df 1e bd 19 b9 97 3a 9d 94 54 3c ea 75 e0 bc
       -0.038786937 0.0011575549 0.012974885 -0.027399976
000080 dc d4 04 bd 0f 61 42 bd 67 0a 97 ba c9 c1 c5 ba
       -0.03242956 -0.047455844 -0.0011523486 -0.001508766
000090 8e 43 2b 3c ab cd 22 bd c6 18 b1 3c 62 19 d9 bc
       0.010453118 -0.03974692 0.021618258 -0.026501361
0000a0 88 be 24 3d 70 6d 68 3c 22 52 94 3d 2f 15 00 bc
       0.040220767 0.014186248 0.07242228 -0.007817551
0000b0 46 4d 32 3d 2e dc 04 3d 78 77 4a bd dc 88 29 3d
       0.043530725 0.032436542 -0.04943034 0.041390285
0000c0 06 2e 10 3c b1 40 f8 3c c3 4d d5 bb e2 60 c0 3c
       0.008800035 0.030304285 -0.006509514 0.023483697
0000d0 46 8b 20 bd 6f 44 cf 3c 65 87 ff b9 65 43 5e bd
       -0.03919532 0.025301186 -0.00048738267 -0.05426349
0000e0 39 1b 82 3b 52 c0 34 bd ea f1 21 bc 89 35 67 bd
       0.0039705303 -0.044128723 -0.009884337 -0.05644754
0000f0 fc 7b 7e bd 2e a0 1c bc bc 97 0e bd e6 f8 5a bd
       -0.06212996 -0.009559674 -0.034812674 -0.053460024
000100 a1 a7 da 3c 4e 56 2c bd bd c2 12 bd ab 7f 77 3d
       0.02669126 -0.042074494 -0.03583025 0.060424488
000110 ce 50 69 3d 9b c0 55 3d ec 7e 13 3d 04 3d 80 bc
       0.056961827 0.052185636 0.036009714 -0.015654095
000120 83 b4 6a bd f2 d6 02 bb 26 b5 2b 3c 5e 38 f8 bc
       -0.057301056 -0.0019964543 0.010480201 -0.030300315
000130 8f 5b 36 bc c3 b7 45 3d 5a 76 86 bc 4b 0c 56 3c
       -0.011130228 0.048270952 -0.016413856 0.013064454
000140 82 c8 20 bd d7 dc 75 bb fe 16 24 3d e8 e5 72 bd
       -0.03925372 -0.0037515664 0.04006099 -0.059301287
000150 7e 8f 0a bd aa 6d 0e bd 46 f6 33 bd aa bb 1c bd
       -0.03382825 -0.034772553 -0.043936037 -0.038264908
000160 86 32 57 bd b3 07 5b 3d 4a 61 8c bb de f5 8d bc
       -0.052538417 0.05347414 -0.0042840587 -0.017329153
000170 a5 06 ca bc c7 3b cd 3a e2 1c 92 3c 77 1e ea ba
       -0.024661371 0.0015658074 0.017836038 -0.0017861862
000180 b8 b2 21 3d 00 10 cf 3c 14 e3 01 bb 0b 7f 23 3d
       0.03947708 0.025276184 -0.0019819187 0.03991608
000190 a0 75 e8 3c 37 c0 93 bc 20 b9 b4 3c b4 7d 88 3c
       0.0283764 -0.018035991 0.02206093 0.016661502
0001a0 ef 59 73 bd f2 4a f8 bc f6 28 2c bd 8f 46 3b bd
       -0.05941194 -0.030309174 -0.04203125 -0.045721587
0001b0 cb 2f 88 3c 37 62 65 3c 26 6a 9e bc b0 ba 68 bb
       0.016624352 0.014000467 -0.019337725 -0.0035511665
0001c0 dc 37 44 3d ec 23 09 bc 14 0e 65 3d 63 4c f8 bc
       0.047904834 -0.008370381 0.05592163 -0.030309862
0001d0 06 64 84 3d f4 a8 57 3d 3d e2 a3 3c f7 ac ec bb
       0.064643905 0.05265136 0.02000534 -0.0072227675
0001e0 8e 67 f0 3a 63 df 18 3d ab 55 69 bc 41 e9 85 bd
       0.0018341409 0.037322413 -0.014241616 -0.0653863
0001f0 aa 8a bc 3c e6 ce be ba 72 ad 57 bb 08 d2 64 bc
       0.023015339 -0.001455751 -0.0032909778 -0.013966091
000200 c0 d8 9b 3c 73 c7 f8 bb 1b 42 b0 3c f5 49 bb bc
       0.019024253 -0.0075921356 0.021515897 -0.022862414
000210 e7 25 0b 3c 19 04 18 bd 2e 8e aa bc d8 05 1f bd
       0.008492923 -0.037113283 -0.02081975 -0.038823932
000220 0d 33 b0 bc 08 7c d1 3b 20 9a 40 bc 7c 17 03 3c
       -0.021508718 0.0063929595 -0.011755496 0.008001205
000230 4a 22 c2 3c 4d e0 8a bc e7 b0 8f bb e2 cf d7 3a
       0.02369799 -0.016952658 -0.004385102 0.0016465152
000240 0a 1a 22 3c 7f a8 0c bc 9c 71 97 3c 79 8f 29 bd
       0.0098939035 -0.0085850945 0.01848679 -0.04139659
000250 1c f7 ef bc d4 11 93 3a 0e 85 1b bd 1b 2d c3 3c
       -0.029292636 0.0011220523 -0.037968688 0.023825219
000260 bf 18 4c bd d3 1e 48 bd b7 c5 70 bd 77 26 2c 3d
       -0.049828287 -0.04885752 -0.058782306 0.04202887
000270 2c 11 5b bd 3e d5 87 bc d0 e5 b9 3c d1 2d 52 bd
       -0.053483173 -0.016581174 0.022692591 -0.051313225
000280 97 91 bb 3c ef 0e 44 3d 56 70 2d 3d ae 87 57 3d
       0.022896571 0.047865804 0.04234346 0.05261963
000290 11 79 a6 3c 61 e2 07 bd 23 d5 65 3d e1 f4 35 bd
       0.0203214 -0.033174876 0.056111466 -0.044422988
0002a0 b9 93 53 3c 72 75 64 bc d5 95 48 bd 8e 95 02 3d
       0.012913638 -0.013944017 -0.048971016 0.031880908
0002b0 87 17 14 bd f6 0d 22 bd ba 83 30 bd 63 f4 bb bc
       -0.03615525 -0.039564095 -0.043094374 -0.022943681
0002c0 38 15 88 3c 09 ee b1 3c 4e df 26 bd cd e2 7c bd
       0.01661168 0.02171995 -0.040740304 -0.06173973
0002d0 a2 2c e8 bc 25 2d 33 bd 5d 70 41 bd 08 47 16 bb
       -0.028341595 -0.043744225 -0.0472263 -0.0022930522
0002e0 58 cf f8 3c 31 ed 92 bc b7 16 d6 bc 1f cc 96 bc
       0.030372307 -0.017935367 -0.026133878 -0.01840788
0002f0 18 7b b8 3c 02 bc 0f 39 a2 a6 71 3d 91 dd 05 bd
       0.022519633 0.00013707581 0.058996804 -0.032682005
000300 08 3b 30 3d 63 a6 0c 3d 4d 6a 9f 3c c4 b7 0a bb
       0.043025047 0.034338366 0.019459868 -0.0021166662
000310 d0 d1 55 bc 4b ee 9e 3c aa 1d cb 3b 61 eb c6 ba
       -0.0130505115 0.019400736 0.0061986046 -0.001517635
000320 e5 3e 2e bd 94 2f 27 3d 99 8e 36 bd 6a b3 bc 3c
       -0.04254045 0.04081686 -0.044569585 0.02303477
000330 3b 63 41 bd 6f 00 40 bd 61 80 5f bc 3f 72 3f bd
       -0.047213774 -0.046875414 -0.013641448 -0.046739813
000340 4c 28 49 bd 06 da 1d bd 82 6b 04 bd 8e 9f 67 3d
       -0.049110696 -0.038538 -0.03232909 0.056548648
000350 be 27 3f bc 38 cd 30 bd 7d 3d 38 3d da 02 0b bc
       -0.01166719 -0.04316446 0.044980515 -0.008484567
000360 56 b6 2a 3c 62 01 04 3b 10 4f b8 ba 10 16 9e bc
       0.010419449 0.0020142426 -0.0014061648 -0.01929763
000370 31 f1 a9 bc d1 f0 39 bd f6 34 67 bd dd 57 5b bd
       -0.020744892 -0.045395676 -0.05644699 -0.05355059
000380 4d 24 64 3c 78 23 cb 3b 66 df 18 bd 7b 2c 9a bc
       0.01392467 0.0061992966 -0.037322424 -0.018820038
000390 c5 96 cb bc 5f b2 3d bc 80 bb 1b bd e6 a7 a4 bb
       -0.024852166 -0.0115781715 -0.03802061 -0.005024898
0003a0 ca b2 b6 bc b4 10 9b 3c 05 11 3b 3d 76 a7 42 3d
       -0.02230205 0.018928863 0.045670528 0.047522984
0003b0 18 5f 3e bd ae 4a 97 3b 72 c8 1e 3b 73 a8 4e 3d
       -0.046477407 0.004617057 0.0024228361 0.050453614
0003c0 6f 98 4d bd a4 6c 35 3d 3b 00 aa bc d8 e5 03 bc
       -0.0501942 0.04429306 -0.020752063 -0.0080504045
0003d0 7f 99 01 bd 08 f5 52 3c 3c 29 15 bd 07 b3 25 bd
       -0.031640526 0.012875803 -0.036416277 -0.040453937
0003e0 82 be ae 3c 2e ef 6a bb 5b d3 3c bd cd 18 9b b9
       0.021331076 -0.0035848129 -0.0461 -0.00029582382
0003f0 2c 99 5d bc 2a 69 27 3d a0 71 44 b9 90 af 12 3d
       -0.013525289 0.040871777 -0.00018734345 0.03581196

model.0.bias f4 [512]
000000 fa 50 c3 3c 42 20 05 3b 4b b3 2d 3d 20 b1 f4 3c
       0.023842324 0.0020313417 0.042407315 0.029869616
000010 43 ca 1b 3d 54 3c 1d bd 12 fc 25 bd ad 2e 0e bd
       0.03803469 -0.03838761 -0.040523596 -0.034712482
000020 25 2b 36 bd f2 0a b5 3c 0e e0 fd 3c 51 2a a7 3b
       -0.04447474 0.022099946 0.030990627 0.00510148
000030 d2 9d 03 bc a1 51 0a bd 63 05 d7 3c 99 02 29 3d
       -0.008033233 -0.033769254 0.026247686 0.041262243
000040 d2 07 bd 3c a1 d4 69 3c e0 91 85 3a 71 d3 41 3d
       0.023075018 0.014271886 0.0010190569 0.047320787
000050 78 30 be 3a 08 0e 36 bd 99 ef 19 bc 94 16 65 bd
       0.0014510294 -0.044446975 -0.009395503 -0.055929735
000060 d8 d4 2d bd b9 48 3d 3c 96 9c ca 3b 3e ec 21 bd
       -0.04243931 0.011552983 0.0061832173 -0.03953194
000070 38 f4 be 3c 81 fd b0 3c ba 62 25 bd b1 11 01 3d
       0.023309812 0.021605255 -0.040377356 0.031511012
000080 a3 6c 0e 3d a8 39 70 3c 59 73 ad 3c 5f 1c 55 bd
       0.034771573 0.014662184 0.021173166 -0.05202901
000090 41 31 26 3d 2e df 0e bd 0b ed ac 3c ec 75 4d bd
       0.040574316 -0.03488081 0.021109125 -0.050161287
0000a0 3c db 84 3c 53 e3 6d 3d ef 5f 1c bd 74 25 33 bb
       0.01621782 0.05807812 -0.038177427 -0.0027335556
0000b0 c9 70 5c 3d 02 d5 0f bd 39 dd 4b bd d4 fe 36 bd
       0.053818498 -0.03511525 -0.04977152 -0.044676617
0000c0 7a a0 0c 3d d8 19 1f bd 12 51 91 3b bd f3 1b bd
       0.03433273 -0.038843006 0.004434713 -0.038074244
0000d0 a1 e6 e6 bc b5 95 b7 bb 0c ef 4d 3d b2 8d 9e bc
       -0.028186144 -0.0056025633 0.0502768 -0.019354675
0000e0 64 66 b0 bc c2 3f 50 bd 53 be 82 3c 23 9c b8 3c
       -0.021533199 -0.050842054 0.015959894 0.02253539
0000f0 98 40 2f 3d ef 0a 1b 3d 1d c7 0f 3d 56 29 fa 3c
       0.04278621 0.037852224 0.035102 0.030537289
000100 8b 1a 30 bd a0 67 47 bc 9b 7f 3f bd af bb 4a 3c
       -0.042994063 -0.012170702 -0.046752553 0.012373849
000110 1d 5c db 3a 95 8c 25 3d 07 82 d7 3b aa 68 48 3d
       0.0016735826 0.040417273 0.0065767798 0.04892794
000120 87 34 77 3d 02 dc d5 3b c6 72 ed bc 1b b6 3f 3d
       0.06035283 0.006526471 -0.028985392 0.04680453
000130 90 c3 7f bd c7 f1 1b 3d da 9c c5 3b 27 74 2c bc
       -0.062442362 0.038072374 0.006030661 -0.01052574
000140 8e 75 61 3d 26 d5 8e bd 26 d5 50 3d 1b 1c 40 3d
       0.05504375 -0.069742486 0.050984524 0.046901803
000150 c6 5b 48 3d a6 51 8b 3c a8 56 d5 3c 54 ba 18 3c
       0.048915647 0.017006706 0.026042297 0.009321768
000160 8f 7a 29 bc 4d 1f 2b bd b1 81 c9 bb c7 34 d6 bb
       -0.010344162 -0.041777898 -0.0061494936 -0.0065370533
000170 8f 56 7a 3d 35 3f 9b 3c a8 97 36 3b 48 b1 52 3c
       0.061117705 0.018951038 0.002786139 0.01285965
000180 a2 a2 80 3d 0c 9b 96 bc 8a a1 b0 3c 9a 5e 21 bd
       0.0628102 -0.018384479 0.021561403 -0.03939686
000190 1e 89 67 bb 39 17 ae 3c 08 87 e0 3a f1 e4 27 bc
       -0.003532953 0.021251308 0.0017130086 -0.010247455
0001a0 9e 62 ba bb 3b ac 7f bb 8c 3a 6b bd aa 88 14 bd
       -0.0056880256 -0.003901257 -0.05742888 -0.036263146
0001b0 e1 bf 49 3c b6 1a 9f 3c c2 9b b9 3c a2 f4 09 3d
       0.012313814 0.019421916 0.022657279 0.033680566
0001c0 0e ff 34 bd 18 1e aa 3c 4a 24 37 3d 98 10 d7 3c
       -0.04418855 0.020766303 0.044712342 0.02625303
0001d0 d6 8c 38 3c 18 33 0b bd 02 5a bc bc 2d 11 e5 ba
       0.011264047 -0.033984274 -0.022992138 -0.0017476432
0001e0 0f 96 f8 3c 5c b6 5b 3c 8d 7f 90 3a bd c0 67 bc
       0.030344991 0.013410177 0.0011024341 -0.0141450735
0001f0 18 56 20 bc e0 58 11 bb 04 5e 18 bd 0c 80 82 bc
       -0.009786151 -0.0022178218 -0.037199035 -0.015930198
000200 bb f6 2d bc 7f 48 bd bc 73 b4 55 3c 7d 6e 60 3d
       -0.010617907 -0.023105858 0.013043511 0.05479287
000210 53 6b 5b bc f4 a2 e8 bc d8 25 35 3d 7b 1b cd bb
       -0.013392287 -0.028398015 0.044225544 -0.0062593794
000220 33 20 2d bd 50 de 1e bd 18 98 95 bb d9 9f 62 3d
       -0.042267036 -0.038786232 -0.00456525 0.055328224
000230 05 83 1d bd 69 3f ef bb 31 c5 ed 3c 8e 88 44 3d
       -0.038455028 -0.0073012603 0.029024692 0.04798179
000240 fd b4 11 bd 62 89 82 3d a9 78 84 bc 88 ac 0a bd
       -0.035572995 0.0637386 -0.016170816 -0.033855945
000250 48 9e c9 3b 77 13 76 3d f6 49 4e 3b 61 1a 22 bd
       0.006152902 0.060077157 0.003147719 -0.039575938
000260 87 7a f4 3b 19 f5 fc bc 79 64 c4 bc 72 ec bd bb
       0.0074608955 -0.03087859 -0.02397369 -0.0057960087
000270 10 d5 ac bc 2c 3d ba 3c 8c 42 1e 3d 6a 9a 22 3d
       -0.02109769 0.022734247 0.038637683 0.039698042
000280 65 cf af 3c cd e7 4d bd d8 05 5e 3d 0d 09 00 bd
       0.021461198 -0.05026989 0.05420479 -0.03125863
000290 ba 69 7c 3c bf 67 03 bd 42 ed 37 3d d9 f8 49 3d
       0.015406067 -0.03208136 0.044904 0.049309585
0002a0 47 53 08 bd 5c 82 6b 3d 2b 00 5e 3b 5e ba 06 3d
       -0.033282544 0.057497367 0.0033874612 0.032892577
0002b0 b5 0e 39 3d 1e 71 84 3c 51 89 b9 bc 77 2c de 3c
       0.04518004 0.01616722 -0.022648485 0.027120812
0002c0 21 19 62 3d 11 a4 35 bd 5f 41 0a 3d 3c 98 3d 3d
       0.055199746 -0.04434592 0.03375375 0.04628776
0002d0 ee 76 7f 3c d5 d3 80 3c f9 8c f4 bc 46 0b 28 3d
       0.01559232 0.01572601 -0.029852377 0.041026376
0002e0 65 f6 63 bc 6d 9e 5f 3c 14 d3 e1 bb f5 a4 2d 3c
       -0.0139137255 0.0136486115 -0.0068916176 0.010598411
0002f0 17 cc 17 bd b9 fd 10 bd 09 6e 42 3d 42 12 fd 3b
       -0.03705987 -0.03539822 0.04746822 0.0077231238
000300 24 eb ae 3b fc 0b 2d 3d dc 31 c5 3c 1a e8 15 3c
       0.0053380895 0.042247757 0.024071626 0.009149576
000310 7a 5f 29 bc 81 70 5e 3d 40 55 ad bb 84 19 b5 bc
       -0.010337705 0.05430651 -0.0052897036 -0.022106893
000320 f8 d6 87 3c ff 8c 74 3c f2 ce e2 3c fb de 10 bd
       0.016581997 0.014926194 0.02768657 -0.0353689
000330 f0 68 10 bc a6 b8 f1 3b 56 65 55 bd 22 b8 8f bb
       -0.008814082 0.007376748 -0.052098595 -0.004385964
000340 9c 7e 2a 3d 65 f1 12 3d c8 0e d2 3b 4a 8d 58 3d
       0.04162465 0.035874743 0.0064104535 0.05286912
000350 10 ff 45 3d 2f f9 8f bc 0e 23 0f bd 5c 96 27 bc
       0.04833895 -0.017574875 -0.03494554 -0.01022872
000360 1d d8 45 3b 8a e5 10 3d 61 30 67 3c 94 58 3f bd
       0.0030188628 0.035375156 0.0141106555 -0.046715334
000370 ec 3f ee bc 6e 5e 16 3b c8 cf 1e 3d 24 77 dd bc
       -0.029083215 0.0022944468 0.038772374 -0.02703435
000380 92 08 22 3d e9 b6 91 3c af 0d 60 bd 09 6b 7a bd
       0.039558955 0.017787414 -0.05470055 -0.061137233
000390 e5 2d c1 bc 9d 33 82 3c 5c 3b 9c 3c 64 27 1e 38
       -0.023581455 0.015893752 0.019071274 3.770682e-05
0003a0 96 39 3d bc c1 03 7a 3c 8c 7c 62 bc 2a 8d 28 3d
       -0.011549374 0.015259684 -0.01382364 0.04115025
0003b0 0d 07 0d 3d 8c 0e a2 bc 77 a4 94 3c fb ab fd 3b
       0.034430552 -0.019782327 0.01814483 0.007741449
0003c0 55 50 4f b9 00 e1 44 3d f7 6a 08 bd 7d e9 1f 3d
       -0.00019770984 0.04806614 -0.033305135 0.03904103
0003d0 d4 4f 6a bd 2d d0 9d 3b 32 37 55 3d b0 59 52 bc
       -0.057205036 0.0048160763 0.05205459 -0.012838766
0003e0 6d c1 08 3c 59 06 35 bb 63 44 1e 3d da c9 b4 bc
       0.008346898 -0.0027622192 0.038639437 -0.022068907
0003f0 8e c4 a5 bc 92 a5 90 bc 85 bd ee bc 27 7d 10 3d
       -0.020235326 -0.017657075 -0.029143104 0.035275605

model.2.weight f4 [120, 512]
000000 82 65 a3 3c 9a a1 f8 3a d1 d8 3d 3a 51 4a d2 bc
       0.019945864 0.001896906 0.0007242086 -0.025670202
000010 7a 74 99 bc c0 91 98 3c b1 f3 2e 3d 2d cd 9d 3b
       -0.018732298 0.018624187 0.04271287 0.0048157186
000020 7f 34 21 bd 80 12 24 bd 03 b3 df 3c 6f b2 1d bd
       -0.039356705 -0.040056705 0.02730704 -0.038500246
000030 1f 5a da 3b 33 dd 54 bc 7d 67 16 bd d9 e8 bd 3c
       0.0066635753 -0.012992191 -0.036719788 0.02318232
000040 68 4d 99 3c 31 1e b7 ba e2 9d a3 bc 29 cc 91 bc
       0.018713668 -0.001397079 -0.019972745 -0.017797546
000050 13 cd e8 ba 95 cb f7 bc 65 23 da bc 35 ae 02 bd
       -0.0017761312 -0.030248443 -0.026628206 -0.031904418
000060 ed 26 c0 3c 49 fd e4 bc 0c 7e 7d 3b d3 33 c5 3c
       0.023456061 -0.027952807 0.0038679866 0.024072563
000070 2a 30 b9 3c 7c 60 a1 bc 05 8a ec 3c 90 51 4f bd
       0.022605974 -0.019699328 0.028874407 -0.050614893
000080 ab 74 67 bb fc 07 3d bd 6c 35 60 bc 2c d8 1b bd
       -0.0035317342 -0.046150193 -0.013684612 -0.038047954
000090 2c ac 79 bc 06 c8 26 3c 20 d0 36 3d 08 3f 80 ba
       -0.015238803 0.010179525 0.044632077 -0.000978441
0000a0 24 a4 29 bd 41 55 3f 3d c1 d9 86 bc 20 24 d2 bc
       -0.041416302 0.046712164 -0.016461255 -0.025651991
0000b0 56 77 af 3b de 55 52 3c 23 ca 8f ba 34 47 86 bc
       0.005354802 0.012837855 -0.0010970276 -0.016391374
0000c0 e5 2e 4a 3d 5a 56 ae bc 33 0f a6 bc a7 67 eb 3c
       0.04936113 -0.02128141 -0.02027092 0.028735949
0000d0 e4 fa ef bc 94 83 b0 bb 30 b5 06 3c e7 07 d3 bb
       -0.029294439 -0.005386779 0.008221909 -0.006440151
0000e0 af 4d ad 3a 1b 93 dd bc 22 a7 d0 bc af 11 0a bd
       0.0013222004 -0.027047684 -0.02547032 -0.03370827
0000f0 8b 23 61 3c 83 49 19 bd 2a 04 0c 3c 20 a1 21 bd
       0.013741384 -0.037423622 0.008545915 -0.0394603
000100 b9 52 19 3d eb b1 0b bc e0 0e cb bc 30 d9 9c 3c
       0.037432406 -0.008526306 -0.024787366 0.019146532
000110 7e 5b dc bc 74 a0 82 3c 93 e6 43 ba 66 f3 1a bd
       -0.026899096 0.01594565 -0.0007473018 -0.03782978
000120 27 7a d8 3c 56 f5 17 3d 6f 98 23 bc 13 32 4b 3b
       0.026425434 0.037099205 -0.0099850735 0.0031005188
000130 81 aa b5 bc ab 99 23 3d 49 84 4d bd e8 77 da 3a
       -0.02217603 0.03994147 -0.050174985 0.0016667815
000140 af ac 15 bd 91 d8 08 ba d2 55 17 3d e3 dd e0 ba
       -0.036541637 -0.0005220259 0.03694708 -0.0017155971
000150 84 8f 85 bb 5a 0a e0 bc 6d a2 e9 3c 2e e3 64 ba
       -0.0040759463 -0.027348686 0.028519833 -0.0008731362
000160 86 34 14 bd d8 b7 25 bb 33 b2 65 3c f9 52 f4 bc
       -0.036182903 -0.0025286581 0.014019537 -0.02982472
000170 40 37 c5 bc ee 8d cb 3c a9 f4 97 3c fd 2f d0 bc
       -0.024074197 0.02484795 0.01854928 -0.025413508
000180 19 f2 ef 3c 90 7f ae 3c f2 24 53 3c fc db 0f 3d
       0.029290246 0.02130106 0.012887226 0.035121903
000190 07 74 fb 3b 50 ca 0c bb 46 43 40 3d ca be d6 3c
       0.0076737436 -0.0021482892 0.046939157 0.026214022
0001a0 4e 48 1d 3d af ec 29 3d c3 27 ad 3c ca b7 f2 3c
       0.038399033 0.041485485 0.021137124 0.029628653
0001b0 5b b9 eb 3c 68 38 a6 3c bc 73 13 3c bb f2 d0 bb
       0.028774908 0.020290568 0.008999761 -0.006376592
0001c0 a0 6f ec 3c cd 7c be bc f9 a9 9a 3c 46 fb 22 3d
       0.02886182 -0.023252869 0.018879877 0.039790414
0001d0 9f e3 ce bc 46 7a 2f 3d 3e 3a f7 3c 7b bb 03 3d
       -0.025255023 0.04284122 0.03017914 0.032161217
0001e0 31 86 5d bd 5d 03 04 bd 4e 4a e0 bc c4 07 d1 3c
       -0.054083053 -0.03222977 -0.027379181 0.025516398
0001f0 1e 76 54 bd 32 fe 91 3c f8 6d 24 3d e2 d3 e9 3b
       -0.051870458 0.017821405 0.040143937 0.007135854
000200 40 c8 a3 bc 2f 8a c8 ba d3 37 1d 3d 77 04 da 3b
       -0.019992948 -0.0015299971 0.038383316 0.0066533643
000210 6e ce ed bc 04 c5 34 3c 54 e0 d2 bb 9b 89 00 bd
       -0.029029097 0.0110333 -0.0064354334 -0.03138123
000220 2e ea 91 bc 56 9e c5 bb 40 41 b2 3b cd 53 17 3d
       -0.01781186 -0.006030838 0.0054399073 0.036945153
000230 a8 f6 ee 3c 8e e3 03 bd 26 69 b7 bc 8d 78 f2 3c
       0.02917035 -0.032199435 -0.022389006 0.029598499
000240 4b 6f d5 3c bc ae 67 bb f6 76 41 bc a2 80 1c 3c
       0.026054045 -0.0035351953 -0.011808148 0.009552153
000250 3f e0 af bc c0 53 bd 3c ab e1 e1 bc d8 a8 53 ba
       -0.021469234 0.023111224 -0.027573427 -0.0008074171
000260 d3 23 57 bb 32 bb f1 bc f8 3a 92 3c 52 54 7f 3c
       -0.003282775 -0.029508207 0.017850384 0.015584068
000270 1e 99 15 bd 16 c0 65 3c 3c 0f 1b 3d c5 72 85 bb
       -0.036522977 0.014022848 0.037856326 -0.0040725195
000280 c6 79 c6 bc 1c 8a 09 3d e9 11 1e 3d 8e cf c9 3c
       -0.024227988 0.033578977 0.0385913 0.024635103
000290 73 4d 09 bc 1d 7a 19 bd 3e 1c 0f bd 9b 03 ed 3c
       -0.008380282 -0.037469972 -0.034939043 0.028932383
0002a0 9b cd 0e 3d 41 a6 39 bc 50 a2 31 3d 97 ed 12 bb
       0.03486405 -0.011331142 0.043367684 -0.0022419447
0002b0 dd ae 6d bc 26 aa 07 3d a4 aa fd 3c 8d 75 eb 3c
       -0.014507023 0.03312125 0.030965157 0.028742576
0002c0 e0 5b 58 3c 63 08 01 3c ea 3f 9f 3c e3 d7 e6 bc
       0.013205498 0.007875535 0.019439656 -0.028179115
0002d0 8e 05 b6 bc 75 e1 d7 3c c1 32 8d bb d5 62 f4 3c
       -0.022219446 0.026352623 -0.004309029 0.029832283
0002e0 9f a9 0a 3d ac 68 b4 3c 49 0c cf bc 69 5d 9b 3c
       0.03385317 0.022022568 -0.025274413 0.01896544
0002f0 64 1c a4 bc 7e 59 30 bd d5 d5 24 bc 18 2c 11 3d
       -0.020033069 -0.043054096 -0.010060747 0.03544244
000300 d4 1e 19 bd b7 1c 1e bd 9a ef ea 3b 66 8e 5e 3b
       -0.037382916 -0.038601603 0.007169676 0.0033959388
000310 27 db 76 3b c9 46 0b 3d b7 42 03 bd d7 98 27 bc
       0.0037667246 0.034003053 -0.032046046 -0.010229311
000320 df c4 b3 bc 59 e1 df 3c da 48 3f bc e8 f9 c9 bb
       -0.021944461 0.027329134 -0.011675084 -0.0061638243
000330 b2 86 57 3d e0 d7 14 bc bb aa 3c 3d 8a 95 e6 3c
       0.05261869 -0.009084672 0.04606126 0.028147478
000340 24 cb 8c 3c e7 5f 14 bd 6e 26 64 bd 7f a7 02 3d
       0.017186709 -0.036224272 -0.055700712 0.031898018
000350 6d d9 02 bc 39 eb 40 bc 75 af df bc ef 32 0a 3b
       -0.007986409 -0.011774831 -0.027305344 0.0021087488
000360 ea 5f b3 bc 35 0b d8 ba 13 5b 1e 3d 8c 17 0d bc
       -0.021896321 -0.0016482832 0.038661074 -0.008611571
000370 db 5f 57 bc 41 27 14 bd 37 43 8b bc 52 6e a2 bc
       -0.013145412 -0.036170248 -0.016999824 -0.019827995
000380 66 f7 3f 3d fb 90 20 3c f9 aa db 3c 11 e2 1a bd
       0.046866797 0.009800191 0.026814925 -0.03781325
000390 b1 db cc 3c 98 61 c7 bc 1c 48 10 3c 78 5b b7 3a
       0.0250071 -0.024338529 0.008806255 0.0013989052
0003a0 f1 4b 38 bd c0 70 44 bb 38 aa f2 bc 49 37 ea 3c
       -0.0449943 -0.002997443 -0.029622182 0.028590815
0003b0 9d 33 c6 3c 23 2b d9 b7 ad ee b7 3c a2 e1 c1 3b
       0.024194533 -2.5888503e-05 0.022452677 0.00591679
0003c0 60 e9 87 3b 43 4b b2 bc 38 93 15 bd 92 ca ef bc
       0.0041476935 -0.021764403 -0.036517352 -0.029271398
0003d0 63 f4 07 bd 4a 85 ba 3c e3 0d 80 3c 3c 69 c9 bc
       -0.03319205 0.022768635 0.015631622 -0.024586312
0003e0 91 c8 eb bc c4 90 1c 3d 98 74 d4 bc ce b6 65 bc
       -0.028782161 0.038223997 -0.025934502 -0.014020635
0003f0 74 0f c3 bb 1e 9b 6e 3c 99 2e ee bc a1 63 0e bd
       -0.00595277 0.01456335 -0.029074954 -0.034762982

model.2.bias f4 [120]
000000 0d f7 48 bc af 91 e8 bb 18 1d b1 3c 1a 98 8c 3c
       -0.012265933 -0.007097445 0.021620318 0.017162371
000010 f6 77 14 bd 7d 8a d6 3c 40 cc e1 3c 40 3a 0c ba
       -0.036247216 0.026189083 0.027563214 -0.0005349256
000020 90 a5 3b 3d e5 c0 87 bc 07 06 27 3d 97 41 b3 bb
       0.04581219 -0.016571471 0.040777232 -0.0054704654
000030 b3 d0 43 bc 20 0a 88 bb e0 04 ab 3a fb c0 79 3c
       -0.011951613 -0.0041515976 0.0013047718 0.015243764
000040 03 9e 7c bb fd 04 4d 3d f5 6b 3b 3d 23 fe 4b bc
       -0.003854633 0.050053585 0.045757253 -0.012450728
000050 85 a8 d8 bc d9 4a b9 3c a2 f5 8f bc 76 fd 12 bc
       -0.026447544 0.022618698 -0.017573182 -0.008971563
000060 d0 1f c6 3a 47 af 82 3c 9d 46 7e bc 2a 18 bd bc
       0.0015115682 0.01595272 -0.015519765 -0.023082811
000070 84 0c c6 3c fa d5 04 3c 3c d5 eb 3c 01 76 72 bb
       0.02417589 0.008107657 0.028788202 -0.0036996605
000080 09 6d 98 bc ce f5 5d bc c4 35 60 ba a1 d0 49 3d
       -0.01860668 -0.013547374 -0.00085529336 0.04927123
000090 13 ca c7 ba 13 4d 5c 3d b0 df 13 3d dc 02 23 bc
       -0.0015242718 0.05378444 0.036101997 -0.009949412
0000a0 a8 22 19 3d 1e fa f9 bc a7 9b 38 bc fa eb 2f 3c
       0.037386566 -0.030514773 -0.011267579 0.010737414
0000b0 f6 cf 8c 3c dd d4 4e 3d 49 d8 2a 3d c7 bd 12 3d
       0.017189007 0.05049597 0.04171017 0.035825517
0000c0 81 bc 4e 3c 0e 63 05 bd 56 ef e0 3c b4 59 88 3c
       0.012618185 -0.03256517 0.027457874 0.016644336
0000d0 08 c0 c6 3c 10 f5 06 3d fd 5e 26 3d eb 08 b5 3c
       0.02426149 0.032948554 0.04061793 0.022098979
0000e0 87 ad 1e 3c f3 83 a3 3c 3a f3 df bc 38 04 8c bc
       0.009684927 0.01996038 -0.02733766 -0.017091855
0000f0 d8 c7 0c 3d fd d4 47 3d 0a bc 3e 3c 21 29 12 3d
       0.034370273 0.048787106 0.011641512 0.035683755
000100 38 84 0f 3c 19 25 1f 3d 7a 1d d1 bc 71 96 9a 3c
       0.008759551 0.03885374 -0.02552675 0.018870564
000110 a7 4f d4 bb 45 89 58 bc a6 34 91 3c b7 19 e8 bc
       -0.006479222 -0.013216321 0.0177253 -0.028332574
000120 96 f3 a1 3b 87 94 bb bc 76 85 03 3b 5f e4 9d 3a
       0.004942368 -0.022897972 0.0020068563 0.0012046209
000130 b5 2e 85 3c d7 7e 4a 3d 68 a5 f6 ba 20 ff 23 3d
       0.016257623 0.04943737 -0.0018817605 0.040038228
000140 82 11 c4 bc fd 92 fd 3c ec 4c d4 bb 7c 07 2a 3d
       -0.02393413 0.030953879 -0.0064788964 0.041511044
000150 d8 b6 b4 bb 9d b5 cf bc 75 64 2d 3d 6b 36 38 3d
       -0.0055149607 -0.025355155 0.04233213 0.044973772
000160 f4 b0 3d 3d 68 59 77 3a a8 f5 27 3d d3 5e 57 3d
       0.046311334 0.0009435625 0.04100576 0.052580666
000170 12 96 e5 3c 79 83 02 bc 11 49 5d 3d 1a 9c 25 3a
       0.02802566 -0.007965916 0.05402476 0.00063175114
000180 15 03 f7 bc 86 9d e4 3a 73 a4 b7 3a a7 8e 8c 3c
       -0.030152837 0.0017441965 0.0014010802 0.017157866
000190 65 42 31 3d 94 bf d8 bc c9 08 99 bc 4b 00 34 3b
       0.04327621 -0.02645854 -0.018680947 0.0027465995
0001a0 db e6 3c 3d b9 16 ff bb f5 52 5c bc db 40 22 3d
       0.0461186 -0.007784691 -0.013447513 0.039612632
0001b0 3d ef 9c 3c ec ae be 3c 49 7c 15 bc 0f 2b 27 3c
       0.019157046 0.023276769 -0.00912387 0.010203137
0001c0 03 22 52 bc b8 a5 05 bd 5e 7a f4 3c 6e 5b 1b 3d
       -0.012825492 -0.032628745 0.029843505 0.03792899
0001d0 43 72 46 bc 84 45 50 3c 33 ed c6 3c 20 51 20 3d
       -0.012112203 0.012711886 0.024283027 0.039139867
