checkpoints/test1_CycleNet_solar_data_bs16_ftMS_sl192_ll48_pl24/checkpoint.pth (torch, 448103 bytes, 5 tensors)

cycleQueue.data f4 [24, 12]
0	0x00000000	0.0
1	0x00000000	0.0
2	0x00000000	0.0
3	0x00000000	0.0
4	0x00000000	0.0
5	0x00000000	0.0
6	0x00000000	0.0
7	0x00000000	0.0
8	0x00000000	0.0
9	0x00000000	0.0
10	0x00000000	0.0
11	0xbb185573	-0.002324429
12	0x00000000	0.0
13	0x00000000	0.0
14	0x00000000	0.0
15	0x00000000	0.0
16	0x00000000	0.0
17	0x00000000	0.0
18	0x00000000	0.0
19	0x00000000	0.0
20	0x00000000	0.0
21	0x00000000	0.0
22	0x00000000	0.0
23	0x3bc5f34b	0.0060409657
24	0x00000000	0.0
25	0x00000000	0.0
26	0x00000000	0.0
27	0x00000000	0.0
28	0x00000000	0.0
29	0x00000000	0.0
30	0x00000000	0.0
31	0x00000000	0.0
32	0x00000000	0.0
33	0x00000000	0.0
34	0x00000000	0.0
35	0x3c84d9e4	0.01621718
36	0x00000000	0.0
37	0x00000000	0.0
38	0x00000000	0.0
39	0x00000000	0.0
40	0x00000000	0.0
41	0x00000000	0.0
42	0x00000000	0.0
43	0x00000000	0.0
44	0x00000000	0.0
45	0x00000000	0.0
46	0x00000000	0.0
47	0x3d020cbe	0.031750433
48	0x00000000	0.0
49	0x00000000	0.0
50	0x00000000	0.0
51	0x00000000	0.0
52	0x00000000	0.0
53	0x00000000	0.0
54	0x00000000	0.0
55	0x00000000	0.0
56	0x00000000	0.0
57	0x00000000	0.0
58	0x00000000	0.0
59	0x3d07ee18	0.03318605
60	0x00000000	0.0
61	0x00000000	0.0
62	0x00000000	0.0
63	0x00000000	0.0
64	0x00000000	0.0
65	0x00000000	0.0
66	0x00000000	0.0
67	0x00000000	0.0
68	0x00000000	0.0
69	0x00000000	0.0
70	0x00000000	0.0
71	0xbcf6d913	-0.030132806
72	0x00000000	0.0
73	0x00000000	0.0
74	0x00000000	0.0
75	0x00000000	0.0
76	0x00000000	0.0
77	0x00000000	0.0
78	0x00000000	0.0
79	0x00000000	0.0
80	0x00000000	0.0
81	0x00000000	0.0
82	0x00000000	0.0
83	0xbd6c1c2e	-0.05764406
84	0x00000000	0.0
85	0x00000000	0.0
86	0x00000000	0.0
87	0x00000000	0.0
88	0x00000000	0.0
89	0x00000000	0.0
90	0x00000000	0.0
91	0x00000000	0.0
92	0x00000000	0.0
93	0x00000000	0.0
94	0x00000000	0.0
95	0xbc32b6f5	-0.010907878
96	0x00000000	0.0
97	0x00000000	0.0
98	0x00000000	0.0
99	0x00000000	0.0
100	0x00000000	0.0
101	0x00000000	0.0
102	0x00000000	0.0
103	0x00000000	0.0
104	0x00000000	0.0
105	0x00000000	0.0
106	0x00000000	0.0
107	0x3d4addf8	0.049528092
108	0x00000000	0.0
109	0x00000000	0.0
110	0x00000000	0.0
111	0x00000000	0.0
112	0x00000000	0.0
113	0x00000000	0.0
114	0x00000000	0.0
115	0x00000000	0.0
116	0x00000000	0.0
117	0x00000000	0.0
118	0x00000000	0.0
119	0x3cff4dd5	0.031165043
120	0x00000000	0.0
121	0x00000000	0.0
122	0x00000000	0.0
123	0x00000000	0.0
124	0x00000000	0.0
125	0x00000000	0.0
126	0x00000000	0.0
127	0x00000000	0.0
128	0x00000000	0.0
129	0x00000000	0.0
130	0x00000000	0.0
131	0xba296995	-0.00064625713
132	0x00000000	0.0
133	0x00000000	0.0
134	0x00000000	0.0
135	0x00000000	0.0
136	0x00000000	0.0
137	0x00000000	0.0
138	0x00000000	0.0
139	0x00000000	0.0
140	0x00000000	0.0
141	0x00000000	0.0
142	0x00000000	0.0
143	0x3d18d234	0.03730984
144	0x00000000	0.0
145	0x00000000	0.0
146	0x00000000	0.0
147	0x00000000	0.0
148	0x00000000	0.0
149	0x00000000	0.0
150	0x00000000	0.0
151	0x00000000	0.0
152	0x00000000	0.0
153	0x00000000	0.0
154	0x00000000	0.0
155	0x3cc77f61	0.024352731
156	0x00000000	0.0
157	0x00000000	0.0
158	0x00000000	0.0
159	0x00000000	0.0
160	0x00000000	0.0
161	0x00000000	0.0
162	0x00000000	0.0
163	0x00000000	0.0
164	0x00000000	0.0
165	0x00000000	0.0
166	0x00000000	0.0
167	0x3ba4fbad	0.005034885
168	0x00000000	0.0
169	0x00000000	0.0
170	0x00000000	0.0
171	0x00000000	0.0
172	0x00000000	0.0
173	0x00000000	0.0
174	0x00000000	0.0
175	0x00000000	0.0
176	0x00000000	0.0
177	0x00000000	0.0
178	0x00000000	0.0
179	0x3d12fe9e	0.035887353
180	0x00000000	0.0
181	0x00000000	0.0
182	0x00000000	0.0
183	0x00000000	0.0
184	0x00000000	0.0
185	0x00000000	0.0
186	0x00000000	0.0
187	0x00000000	0.0
188	0x00000000	0.0
189	0x00000000	0.0
190	0x00000000	0.0
191	0x3d4bff04	0.04980375
192	0x00000000	0.0
193	0x00000000	0.0
194	0x00000000	0.0
195	0x00000000	0.0
196	0x00000000	0.0
197	0x00000000	0.0
198	0x00000000	0.0
199	0x00000000	0.0
200	0x00000000	0.0
201	0x00000000	0.0
202	0x00000000	0.0
203	0xbb725b09	-0.003698053
204	0x00000000	0.0
205	0x00000000	0.0
206	0x00000000	0.0
207	0x00000000	0.0
208	0x00000000	0.0
209	0x00000000	0.0
210	0x00000000	0.0
211	0x00000000	0.0
212	0x00000000	0.0
213	0x00000000	0.0
214	0x00000000	0.0
215	0xbd3399f9	-0.04384801
216	0x00000000	0.0
217	0x00000000	0.0
218	0x00000000	0.0
219	0x00000000	0.0
220	0x00000000	0.0
221	0x00000000	0.0
222	0x00000000	0.0
223	0x00000000	0.0
224	0x00000000	0.0
225	0x00000000	0.0
226	0x00000000	0.0
227	0xbce8fefc	-0.028441899
228	0x00000000	0.0
229	0x00000000	0.0
230	0x00000000	0.0
231	0x00000000	0.0
232	0x00000000	0.0
233	0x00000000	0.0
234	0x00000000	0.0
235	0x00000000	0.0
236	0x00000000	0.0
237	0x00000000	0.0
238	0x00000000	0.0
239	0x3cc888f0	0.02447936
240	0x00000000	0.0
241	0x00000000	0.0
242	0x00000000	0.0
243	0x00000000	0.0
244	0x00000000	0.0
245	0x00000000	0.0
246	0x00000000	0.0
247	0x00000000	0.0
248	0x00000000	0.0
249	0x00000000	0.0
250	0x00000000	0.0
251	0x3d0d629a	0.034517862
252	0x00000000	0.0
253	0x00000000	0.0
254	0x00000000	0.0
255	0x00000000	0.0

model.0.weight f4 [512, 192]
0	0xbd33e1f7	-0.04391667
1	0xbd34c369	-0.04413167
2	0x3cc0dd85	0.023543129
3	0x3cf9a51c	0.030474238
4	0x3d5e1797	0.054221716
5	0x3d29793a	0.041375376
6	0x3c86ad3f	0.016440032
7	0xbcde9f83	-0.02717567
8	0xbd19775e	-0.037467353
9	0x3cd6cb65	0.026220033
10	0xbc8dfe32	-0.017333124
11	0xbc8b115b	-0.01697605
12	0xbd706946	-0.058694147
13	0xbc9e2911	-0.019306691
14	0x39cdaa5e	0.0003922758
15	0x3d0e3657	0.03471979
16	0xbd81a1ef	-0.063297145
17	0xbd4e8d4e	-0.050427727
18	0x3c48a1be	0.012245594
19	0xbd818c89	-0.06325633
20	0x3ce9c8f1	0.0285382
21	0x3ce75b00	0.028241634
22	0x3bc59007	0.0060291323
23	0x3be5c09b	0.0070114858
24	0xbd5a5b7f	-0.053309914
25	0xbd13aea6	-0.03605523
26	0xbd694189	-0.056947265
27	0xbd13d321	-0.03609002
28	0xbd49afae	-0.049239807
29	0x3d2ee997	0.042703237
30	0xbc738f34	-0.014865685
31	0xbc6b6ce1	-0.0143692205
32	0xbd2e0b41	-0.0424912
33	0x3d89c42b	0.06726869
34	0x3d01652b	0.031590622
35	0xbcf039da	-0.02932446
36	0xbd570ed2	-0.052504368
37	0xbd4e45f5	-0.050359685
38	0x3c8a1dde	0.016859945
39	0x3d96dd5a	0.07366438
40	0x3cc65b9c	0.024213605
41	0x3cd598fd	0.026073927
42	0xbd036c4d	-0.032085706
43	0x3c8b0493	0.016969955
44	0x3d0a1adf	0.033717033
45	0x3d635572	0.05550141
46	0x3cb5eb0d	0.022206808
47	0xbd3dfb64	-0.046382323
48	0xbd821ffe	-0.06353758
49	0x3d1ce92b	0.038308304
50	0x3a93cbac	0.0011275909
51	0x3cbaf41c	0.022821479
52	0x3d21f7a7	0.03954282
53	0xbd1904cd	-0.037358094
54	0xbd75a7a5	-0.05997433
55	0x3d62bf21	0.055358056
56	0x3d79c005	0.06097414
57	0x3d21d72c	0.039511845
58	0xbc6b5e81	-0.014365793
59	0x3c614176	0.013748517
60	0xbc7d5ca4	-0.015463982
61	0x3cb35637	0.021891696
62	0x3d267925	0.040642876
63	0xbd768251	-0.060182873
64	0xbc886f9c	-0.016654782
65	0xbcd620d6	-0.026138704
66	0x3d15894c	0.03650789
67	0x3cc272ae	0.023736324
68	0x3c401eab	0.011726062
69	0xbc106dd0	-0.008815244
70	0xbd80050c	-0.062509626
71	0xbd8a3382	-0.067481056
72	0xbd9e1f8a	-0.07720859
73	0xbb3c34b3	-0.0028717935
74	0x3d2bcd72	0.041943975
75	0xb9c56d9e	-0.0003765644
76	0x3cf0e355	0.029405275
77	0x3c97bb62	0.018521968
78	0xbc4f5393	-0.012654203
79	0x3b9bc21e	0.004753365
80	0xbc83d5a7	-0.016093088
81	0xbd52e9ab	-0.051492374
82	0xbcbd1858	-0.023082897
83	0x3cb0dff0	0.021591157
84	0x3d05688f	0.032570418
85	0xbd204457	-0.039127674
86	0xbd1866f5	-0.037207562
87	0xbd2fbeb5	-0.04290648
88	0xbc31160b	-0.010808478
89	0x3d8a16c1	0.06742621
90	0xbd028620	-0.031866193
91	0xbc9ea415	-0.01936535
92	0xbc33afa6	-0.010967171
93	0x3d436656	0.047705017
94	0xbd83d3de	-0.06436895
95	0x3c32a4e2	0.010903569
96	0xbce50031	-0.027954193
97	0xbd0f53a4	-0.034991875
98	0xbd21009e	-0.03930723
99	0xbb070cad	-0.002060692
100	0x3d849011	0.06472791
101	0xbc54339c	-0.012951758
102	0xbd441760	-0.047873855
103	0x3d50c227	0.050966408
104	0xba9f19d0	-0.001213843
105	0x3d8a282c	0.067459434
106	0xbc9ed353	-0.019387877
107	0x3cea54d4	0.028604902
108	0x3d353eed	0.044249464
109	0x3bff1575	0.0077845403
110	0x3c03b2e9	0.008038261
111	0x3ca20f6a	0.01978274
112	0xbc814bfd	-0.015783304
113	0x3cf1e3e7	0.029527618
114	0xbc8dd99d	-0.01731568
115	0xbd93901d	-0.07205222
116	0xbc91e1b6	-0.017807823
117	0xbd141ab2	-0.03615827
118	0x3c3a07e6	0.011354422
119	0x3cddee53	0.02709118
120	0x3bb6ebe6	0.0055823205
121	0xbcdb0012	-0.026733432
122	0x3c94d384	0.018167265
123	0x3d7554f2	0.059895463
124	0x3d91a01a	0.07110615
125	0x3c541379	0.012944096
126	0xbd883d2f	-0.06652295
127	0x3d8169ec	0.06319031
128	0x3d021ca3	0.03176559
129	0xbd876b7b	-0.06612297
130	0x3d561421	0.05226529
131	0xbd1242e5	-0.035708327
132	0x3d661b2f	0.056178268
133	0xbc6ae48c	-0.014336716
134	0x3bcc1f14	0.0062292907
135	0xbca9c93f	-0.020725844
136	0x3cbc0186	0.022949945
137	0xbc055d94	-0.008139987
138	0xbd624ea1	-0.055250768
139	0x3c8cbd0f	0.017179994
140	0xbd64ecb6	-0.055889808
141	0xbc83bdf2	-0.016081784
142	0xbc6aeb87	-0.014338381
143	0x3cff8e58	0.031195804
144	0xbd054a88	-0.03254178
145	0xbd96878a	-0.07350071
146	0xbc7816b4	-0.015142132
147	0xbcf20c04	-0.029546745
148	0x3c90c5ee	0.017672505
149	0xbd5a856b	-0.053349894
150	0x3d97445c	0.073860854
151	0x3d68a12d	0.056794334
152	0x3d19b036	0.037521563
153	0x3c68a337	0.01419907
154	0x3d205e10	0.039152205
155	0xbc80a67c	-0.015704386
156	0x3d2576b3	0.040396404
157	0x3d0f0371	0.03491539
158	0xbbb032ca	-0.0053771483
159	0xbd2e3f52	-0.042540856
160	0xbc29b2ec	-0.0103576
161	0xbae67048	-0.001758107
162	0xbbad0c36	-0.0052809967
163	0xbd80e331	-0.06293333
164	0x3d5490c1	0.05189586
165	0x3c989189	0.018624084
166	0x3d4ee16d	0.05050795
167	0xbd92fce4	-0.07177141
168	0xbd112591	-0.035436217
169	0x3d69c5bb	0.057073336
170	0x3d0ab03a	0.03385947
171	0x3d4c2864	0.049843207
172	0xbc61e6ea	-0.013787964
173	0x3d9a6268	0.07538301
174	0xbd828eac	-0.06374869
175	0x3d1ea924	0.038735524
176	0x3d0cbda3	0.03436054
177	0x3ccc67db	0.024951866
178	0x3d6b3ab0	0.057429016
179	0x3d7af89f	0.06127226
180	0x3d3b6301	0.045748714
181	0xbd173871	-0.03691906
182	0x3c554cbf	0.013018786
183	0xbcd03785	-0.025417099
184	0xbb1e65e5	-0.002416962
185	0x3d80a8f5	0.06282226
186	0xbc9a6593	-0.018847262
187	0xba41375e	-0.0007370616
188	0x3cb4bda9	0.022063093
189	0x3bfbdc49	0.007686172
190	0x3d50357b	0.050832253
191	0xbda1b01d	-0.07894919
192	0x3d87829b	0.06616708
193	0xbc861d27	-0.016371323
194	0x3d83f0f9	0.06442446
195	0x3b0b991c	0.0021300977
196	0xbd5a82ca	-0.053347386
197	0x3ceea847	0.029132975
198	0x3d857814	0.06517044
199	0xbd0d0788	-0.03443101
200	0xbd06b636	-0.032888614
201	0xbcc5505e	-0.024086174
202	0x3ba55791	0.005045839
203	0xbcc8eb2a	-0.024526197
204	0x3d7a9904	0.061181083
205	0xbbf8d41c	-0.007593645
206	0x3c82bb0f	0.015958337
207	0x3d437947	0.04772308
208	0xbcbbafa7	-0.022910906
209	0xbc36d547	-0.011159248
210	0x3d837db0	0.06420457
211	0x3c306a29	0.010767498
212	0x3d94ab1f	0.07259201
213	0xbd802a41	-0.06258059
214	0x3cd183e3	0.025575584
215	0x3d39e020	0.045379758
216	0xbd2a88a1	-0.041634206
217	0xbd104e16	-0.03523072
218	0x3d84276d	0.06452832
219	0xbd0d458f	-0.034490164
220	0xbd6bf399	-0.05760536
221	0xbc6e408e	-0.014541758
222	0x3ca413a0	0.02002889
223	0x3d5e1f60	0.05422914
224	0xbc996cde	-0.01872867
225	0x3cd07630	0.025446981
226	0x3d03a10c	0.03213601
227	0x3d25db18	0.040492147
228	0x3cf07c59	0.029356169
229	0xbd85d8f7	-0.065355234
230	0x3d927adb	0.07152339
231	0x3d11cb85	0.035594482
232	0x3b28420d	0.0025674135
233	0x3cc305da	0.023806501
234	0x3c1039ce	0.008802844
235	0xbbcdccad	-0.006280503
236	0xbd15dfeb	-0.036590498
237	0xbd14e980	-0.036355495
238	0x3d181fb5	0.037139613
239	0x3cb90aea	0.022588212
240	0x3a0d6cdc	0.00053949445
241	0x3a15f261	0.0005720016
242	0x3d119c7b	0.035549622
243	0xbd9c6858	-0.076370895
244	0xbbb37947	-0.005477104
245	0xbd685472	-0.05672116
246	0xbcea9588	-0.028635755
247	0x3ca35a80	0.019940615
248	0x3cfe2bcf	0.031026749
249	0xbd3578a2	-0.044304498
250	0x3d025e21	0.03182805
251	0xbc37d33a	-0.011219794
252	0x3cb5778a	0.022151727
253	0x3d6f1b87	0.05837586
254	0x3d17c881	0.03705645
255	0x3d38f586	0.045156024

model.0.bias f4 [512]
0	0xbc19f2e8	-0.009396292
1	0x3d7a6b20	0.06113732
2	0xbd04e4c5	-0.032444734
3	0xbd189df0	-0.037259996
4	0xbbe8c31d	-0.0071033374
5	0x3d7970b7	0.06089851
6	0xbc04f017	-0.0081138825
7	0x3bc1ea03	0.005917789
8	0xbcceffa6	-0.025268387
9	0xbc883f26	-0.016631674
10	0x3da98102	0.082765594
11	0xbd405142	-0.046952493
12	0xbd55025e	-0.05200421
13	0x3c4d7031	0.012538956
14	0xbd2d8dc2	-0.04237152
15	0xbda72efc	-0.081632584
16	0x3d34d42f	0.044147667
17	0xbc16789d	-0.00918403
18	0x3cd39580	0.025828123
19	0xbd0e4d72	-0.034741826
20	0x3ba66e30	0.0050790533
21	0x3d811085	0.06301979
22	0x3b29eaf9	0.0025927408
23	0x3da64edb	0.08120509
24	0x3b7ccf87	0.0038575844
25	0x3d05b2c5	0.03264119
26	0x3d24bc94	0.040218905
27	0x3d8659a8	0.06560069
28	0x3c5d08a3	0.013490829
29	0xbd8aa92e	-0.0677055
30	0x3d8a2819	0.06745929
31	0xbd5b8dbb	-0.05360196
32	0x3bc2b4ca	0.005941962
33	0xbd45664a	-0.048193254
34	0xbcb388d7	-0.021915836
35	0x3d9fa54d	0.077952005
36	0x3d376461	0.044773463
37	0xbd57cafe	-0.052683823
38	0xbca45d82	-0.02006412
39	0x3d77b9d7	0.060479965
40	0xbd6dc971	-0.058053438
41	0xbc33df0f	-0.010978474
42	0x3c52ae4d	0.012858939
43	0x3d5ab661	0.053396586
44	0x3ca792a7	0.020455671
45	0x3d24ecb9	0.04026482
46	0xbd2b04e5	-0.041752715
47	0x3da73b01	0.08165551
48	0x3d1dfca1	0.038571004
49	0x3d61b5fa	0.055105187
50	0x3d5906b6	0.052984916
51	0xbc558649	-0.013032504
52	0xbd2acc8a	-0.04169897
53	0x3b9884a3	0.0046544834
54	0x3d449445	0.047992963
55	0xbcec6a85	-0.028859386
56	0xbc3d94ad	-0.011571092
57	0xbd84fba6	-0.06493311
58	0x3c60abc2	0.013712825
59	0x3caea7f4	0.02132032
60	0x3b9ff7d6	0.0048818393
61	0xbcbc104e	-0.022956993
62	0xbd86201b	-0.065490924
63	0x3c53742d	0.012906116
64	0x3da17b98	0.07884902
65	0x3d29d5b6	0.041463576
66	0x3cad77f3	0.02117536
67	0x3bbce783	0.005764903
68	0x3cd27e43	0.025694972
69	0xbd36c17d	-0.04461812
70	0x3cea457c	0.028597586
71	0xbd07707b	-0.033066254
72	0xbd3e95c0	-0.04652953
73	0x3c4665dc	0.012109246
74	0x3d6eb8dd	0.058281768
75	0x3d97d49d	0.074136
76	0x3d1836e0	0.037161708
77	0xbc31e8ff	-0.010858773
78	0x3c8bf20d	0.017083192
79	0x3d43b17d	0.047776688
80	0xbd0a4647	-0.033758428
81	0x3ce9db13	0.028546846
82	0xbd72ef6f	-0.059310373
83	0xbd861d61	-0.06548572
84	0x3d6afeb8	0.057371825
85	0x3d068242	0.032839067
86	0x3d1ce9f8	0.038309067
87	0x3d4c8bc9	0.049937997
88	0xbd872f36	-0.06600802
89	0x3d4b7a97	0.049677458
90	0xbb6991ac	-0.0035639806
91	0xbb148a2b	-0.0022665362
92	0xbd5c1043	-0.053726446
93	0xbd8078ce	-0.06273042
94	0xbc056972	-0.008142816
95	0x3d6c47db	0.057685714
96	0x3d53854a	0.051640786
97	0xbd450546	-0.048100732
98	0xbd291df1	-0.04128832
99	0xbc26a959	-0.010172212
100	0xbcd10e6b	-0.02551957
101	0x3d897077	0.06710904
102	0xbd3756b9	-0.04476044
103	0xbcbb93da	-0.02289765
104	0x3d989416	0.0745012
105	0xbca5f4cb	-0.020258328
106	0xbcd6022c	-0.026124083
107	0xbcf657ba	-0.030071128
108	0xbcd7be34	-0.026335813
109	0x3d9a4bf7	0.075340204
110	0xbd237f68	-0.039916426
111	0xbd9a06e6	-0.07520847
112	0xbc001a86	-0.007818824
113	0x3d60d862	0.05489386
114	0xbd682b1a	-0.05668173
115	0x3c3ee791	0.011651889
116	0x3cce2976	0.025166254
117	0xbd0f800e	-0.03503423
118	0x3d5783ba	0.05261586
119	0xbcfbd783	-0.030742412
120	0x3cd3b3f1	0.025842639
121	0x3c73b0af	0.014873668
122	0x3d8342a6	0.064091966
123	0x3d8013fa	0.0625381
124	0xbc775db7	-0.015098027
125	0xbd2c2b58	-0.042033523
126	0x39f7dcb4	0.00047275948
127	0xbca3c3f1	-0.019990893
128	0xbd6688fa	-0.056282975
129	0xbcca499a	-0.0246933
130	0x3d8097ee	0.06278978
131	0x3d33018d	0.04370265
132	0xbc662e5f	-0.014049142
133	0xbd9301a4	-0.07178047
134	0xbd0f561a	-0.034994222
135	0x3d4c582a	0.049888767
136	0x3cc03475	0.023462513
137	0x3c00e6b9	0.007867509
138	0x3ca2d065	0.01987476
139	0xbc1aef53	-0.009456473
140	0x3d6d66d1	0.05795938
141	0xbcba4964	-0.022740074
142	0x3cecf7d3	0.028926766
143	0x3d0d0caa	0.034435906
144	0xbd3e4be1	-0.046459083
145	0xbd8d5278	-0.06900495
146	0x3b2eabe2	0.0026652743
147	0xbc14061f	-0.0090346625
148	0x3c4ffa02	0.012693884
149	0xbd54c67b	-0.0519471
150	0xbd362462	-0.04446829
151	0xbd336c5c	-0.04380451
152	0xbc558047	-0.013031072
153	0xbb327535	-0.0027230505
154	0xbd663a9f	-0.05620825
155	0xbd645a50	-0.05575019
156	0xbd6502df	-0.05591094
157	0xbb26cf7d	-0.0025453262
158	0x3bfa617a	0.0076410146
159	0xbcbec13d	-0.023285503
160	0xbb1deea6	-0.0024098544
161	0x3d400beb	0.046886366
162	0x3caecf16	0.02133898
163	0xbc7241b4	-0.014786173
164	0xbcc3a47f	-0.023882149
165	0x3cbcbf6b	0.023040494
166	0xbd533221	-0.05156148
167	0x3d813880	0.06309605
168	0x3d414d85	0.04719307
169	0xbd32b583	-0.043630134
170	0x3cf8ca2c	0.03036984
171	0xbd870c12	-0.06594099
172	0xbcaa46da	-0.020785738
173	0x3d649a9a	0.055811502
174	0x3c21cdd0	0.00987573
175	0xbd617d1c	-0.055050954
176	0x3d749796	0.059714876
177	0xbd142635	-0.03616925
178	0xbd0026c8	-0.031286985
179	0xbb334d72	-0.0027359393
180	0xbb45d2c0	-0.0030185431
181	0xbd596f70	-0.05308479
182	0x3ccca90e	0.024982955
183	0x3c83632d	0.016038502
184	0x3d67c6ad	0.056585956
185	0xbd7d8083	-0.061890136
186	0x3d9a7645	0.075420894
187	0x3cd6088f	0.026127128
188	0xbd5835e3	-0.052785765
189	0x3ca7d1eb	0.020485839
190	0x3caf4d15	0.02139906
191	0xbd6e5602	-0.058187492
192	0xbc2cf308	-0.01055599
193	0xbd0ff94a	-0.03514985
194	0xbc9bf637	-0.019038303
195	0x3d6a4869	0.057197962
196	0x3cdfcd8d	0.027319694
197	0xbd0be480	-0.03415346
198	0x3cf9e96a	0.030506808
199	0xbd50d374	-0.050982907
200	0xbba45666	-0.0050151823
201	0x3da3da87	0.08000665
202	0xbd465fbe	-0.04843115
203	0xbc9d01dd	-0.019165928
204	0x3d961141	0.0732751
205	0x3d1a7437	0.037708487
206	0x3d805d60	0.0626781
207	0x3c2c995e	0.010534612
208	0xbd5c8289	-0.053835426
209	0xbd2d7bdc	-0.04235445
210	0xbca09590	-0.019602567
211	0x3d658744	0.056037202
212	0x3d6f8fa2	0.05848659
213	0xbd5f9360	-0.054583907
214	0xbc94b7a8	-0.01815398
215	0x3cef3f12	0.029204879
216	0xbcd7d883	-0.026348358
217	0x3d116446	0.03549602
218	0x3a1e6a10	0.0006043026
219	0x3d5c7671	0.053823892
220	0x3b8faf6f	0.004384927
221	0x3d15c60a	0.036565818
222	0xbcaa2c95	-0.020773211
223	0x3d097eba	0.03356812
224	0xbce6f2d4	-0.028191961
225	0xbbd0a0e2	-0.006366835
226	0x3cc88932	0.024479482
227	0x3ca81535	0.020517925
228	0x3d662ba7	0.056193974
229	0xbd3e3d20	-0.046445012
230	0xbcfa1790	-0.030528814
231	0xbd97ae07	-0.0740624
232	0x3b20dd5c	0.0024546003
233	0xbd5ce4e8	-0.05392924
234	0x3d1d6954	0.038430527
235	0xbc604674	-0.013688672
236	0xbd5a5a4b	-0.053308766
237	0xbd401e73	-0.04690404
238	0x3d8a42ad	0.06750999
239	0x3d288a34	0.041147426
240	0xbd8aa3d1	-0.06769527
241	0xbd6dbcc1	-0.058041338
242	0x3c801b02	0.015637878
243	0xbd16813c	-0.03674434
244	0xba0e2f88	-0.0005423953
245	0x3d8fb422	0.070167795
246	0xbd2f6499	-0.042820547
247	0x3d5de9d6	0.05417808
248	0x3ca407b8	0.020023212
249	0xbd36173f	-0.044455763
250	0x3c8ffd73	0.017576909
251	0x3d45b33e	0.04826664
252	0xbd837876	-0.064194605
253	0x3d49412e	0.049134426
254	0xbca74022	-0.020416323
255	0xbd7194ed	-0.058979917

model.2.weight f4 [24, 512]
0	0xbcbb83ef	-0.02289006
1	0x3cdee40d	0.027208352
2	0xbc52b635	-0.012860824
3	0x3c8340de	0.016022142
4	0x3cd1451e	0.025545653
5	0x3b943a4c	0.004523551
6	0x3c64b20c	0.013958465
7	0xbd142e27	-0.036176827
8	0xbcafdb29	-0.021466808
9	0x3cb80a5c	0.022465877
10	0x3c22cf0f	0.009937062
11	0xbd0c6a30	-0.034280956
12	0xbc5fc2ab	-0.013657252
13	0x3cd63c69	0.026151853
14	0x3cc09109	0.023506658
15	0xbcbb6e04	-0.022879608
16	0xbc0fe458	-0.008782469
17	0xbc80e78d	-0.015735412
18	0x3be8ad4e	0.0071007377
19	0xbb97f54a	-0.004637395
20	0xbd0ecac0	-0.034861326
21	0xbcd1d4f0	-0.025614232
22	0xbd04c87f	-0.03241777
23	0x3d1718d2	0.036888905
24	0xbcda5652	-0.026652489
25	0x3cfabfbf	0.03060901
26	0x3cd56c3b	0.026052585
27	0x38ffc5c1	0.00012196182
28	0x3c1386fe	0.009004353
29	0x3bd02628	0.006352205
30	0x3c892c39	0.01674472
31	0x3bf32f46	0.007421407
32	0x3c8b13d5	0.01697723
33	0xbd0d7b4e	-0.03454142
34	0x3d1c2517	0.03812131
35	0xbbba5217	-0.0056860554
36	0xbd08344c	-0.033253
37	0xbd16a3fb	-0.036777478
38	0x3d33ae49	0.043867383
39	0xbd49b82f	-0.049247917
40	0xbd050cf8	-0.03248307
41	0x3c6af540	0.014340699
42	0x3c89f008	0.016838089
43	0x3bda7a59	0.006667417
44	0x3d2834d5	0.04106601
45	0xbc24ecb7	-0.010066203
46	0x3ced3e16	0.028960269
47	0x3c0b721c	0.0085110925
48	0x3d329244	0.04359652
49	0xbb00a6f3	-0.001963076
50	0x3c077624	0.008267913
51	0x3b325dda	0.0027216584
52	0xbb81d617	-0.003962289
53	0x3ca4bc38	0.020109281
54	0xbcddedf5	-0.027091006
55	0x3c9d8849	0.019230025
56	0x3cd0d861	0.025493803
57	0x3a106d85	0.0005509484
58	0x3b8e2358	0.0043377094
59	0x3c5044fa	0.012711758
60	0x3b8c6b73	0.00428527
61	0xbd191124	-0.037369862
62	0x3c36ec0f	0.011164679
63	0x3ca063c1	0.019578816
64	0xbc9e7e38	-0.019347295
65	0xbca609a6	-0.020268273
66	0xbab08328	-0.0013466822
67	0x3d18843f	0.037235495
68	0x3b72e1f1	0.003706094
69	0x3be8c9a7	0.007104117
70	0xbc91342a	-0.01772507
71	0xbd086259	-0.033296917
72	0x3cdc5c02	0.026899341
73	0xbd1b33e1	-0.037891272
74	0x3c9deaf8	0.01927708
75	0x3d40a8fd	0.04703616
76	0xbc73cb3b	-0.014879997
77	0xbcde2081	-0.027115108
78	0x3d089b56	0.033351265
79	0x3ba4a6d4	0.0050247703
80	0xbccaae03	-0.024741178
81	0xbc2bda88	-0.010489114
82	0x3d0e78a8	0.034783036
83	0xbd90ff6c	-0.07079968
84	0x3ca9eb83	0.020742184
85	0xbd30e519	-0.043187235
86	0xbd07d55e	-0.033162467
87	0x3b6062a0	0.0034238473
88	0xbd3b6135	-0.045747
89	0xbd59c601	-0.053167347
90	0xbd04258e	-0.032262377
91	0x3d09683c	0.03354667
92	0xbd6b51b9	-0.057450984
93	0xbd0231a0	-0.031785607
94	0x3d1a774e	0.037711434
95	0x3c27778b	0.010221372
96	0xbca6f7a2	-0.020381752
97	0xbca03d0a	-0.019560356
98	0x3ca7108d	0.020393634
99	0xbbd4a499	-0.006489348
100	0x3d42b67b	0.04753731
101	0x3d21f7f4	0.039543107
102	0xbcd31f93	-0.025771892
103	0x3c9fbfc4	0.01950062
104	0x3b531833	0.0032210469
105	0x3c9ff283	0.019524818
106	0xbbf25035	-0.0073948153
107	0x3ca2db26	0.019879889
108	0xbd38f18d	-0.045152236
109	0xbcd26210	-0.025681525
110	0xbc44a884	-0.012003068
111	0xbd163e6a	-0.036680616
112	0xbc801eed	-0.015639747
113	0x3c9eb279	0.019372212
114	0x3b498c81	0.0030753913
115	0x3c861e86	0.016371977
116	0x3c6ba160	0.0143817365
117	0x3c321aa2	0.010870608
118	0x3cc25317	0.023721261
119	0x3acde777	0.0015709241
120	0xbc76ab1c	-0.015055444
121	0x3d3f52e4	0.04670991
122	0xbd1659e9	-0.03670684
123	0xbcb1bd70	-0.021696776
124	0x3b076800	0.0020661354
125	0xbc787b9e	-0.015166191
126	0x3d2339d3	0.039850067
127	0xbc75e72a	-0.015008727
128	0xbc272be2	-0.010203334
129	0x3c87447b	0.016512146
130	0xbbeb0390	-0.0071720555
131	0x3d3d6e0a	0.04624752
132	0xbb73d7b0	-0.0037207417
133	0xbccc008b	-0.024902603
134	0xbc9197af	-0.017772524
135	0xbb1c2364	-0.0023824805
136	0x3ca4f3fa	0.020135868
137	0x3cc36515	0.02385191
138	0xbd1b0440	-0.03784585
139	0x3bf252ce	0.007395125
140	0xbcee38d2	-0.029079828
141	0x3c696bab	0.014246861
142	0xbcbe41f0	-0.0232248
143	0x3d41efa0	0.047347665
144	0x3d31b3c8	0.043384343
145	0xbc246d7c	-0.010035869
146	0x3cd157b4	0.025554515
147	0x3d4cdd08	0.05001548
148	0xbc870e47	-0.0164863
149	0x3c2a836b	0.010407309
150	0x3c01c24d	0.00791986
151	0xbc0121f9	-0.007881635
152	0x3d017ade	0.031611316
153	0x3cc7c696	0.024386685
154	0xbbb654ce	-0.0055643087
155	0xbc862e2b	-0.016379436
156	0x3c817281	0.01580167
157	0x3c475d0d	0.012168181
158	0x3b5219af	0.0032058766
159	0xbd39c936	-0.045357905
160	0x3d008246	0.03137424
161	0xbcf6a056	-0.030105751
162	0x3d31046f	0.04321712
163	0xbd14359c	-0.03618394
164	0xbd097548	-0.033559114
165	0x3d420aa7	0.04737344
166	0x3c979b10	0.018506557
167	0xbc980be1	-0.018560352
168	0xbcb7e4d6	-0.022447985
169	0xbadaec98	-0.001670259
170	0xbc847a06	-0.016171467
171	0xbc87b944	-0.016567834
172	0x3ca89ace	0.02058163
173	0x3cece932	0.02891979
174	0x3c905ceb	0.017622432
175	0xbc706066	-0.014671421
176	0xbc5738f8	-0.013136141
177	0xbd8c541f	-0.06851982
178	0x3c8e560b	0.017375013
179	0x3d4129de	0.04715907
180	0x3cb6cfba	0.022315849
181	0x3d07d61c	0.033163175
182	0x3d2c9d45	0.04214217
183	0x3d489fda	0.04898057
184	0x3d45b8e4	0.04827203
185	0xbc9ae26d	-0.018906796
186	0x3c5a8c8b	0.013339172
187	0x3d498867	0.04920235
188	0xbc489aad	-0.012243909
189	0xbc63c8f3	-0.0139028905
190	0x3c4998d7	0.012304506
191	0x3d01e7c5	0.031715173
192	0xbbb83554	-0.0056215916
193	0x3d1afde9	0.037839804
194	0x3cbeaa48	0.023274556
195	0xbc987763	-0.018611616
196	0xbb9601dc	-0.0045778584
197	0x3c7b7db0	0.01534979
198	0xbbbbacd0	-0.005727388
199	0x3d139a32	0.036035724
200	0x3d362943	0.044472944
201	0x3b14db02	0.0022713547
202	0x3c1d238b	0.009590994
203	0xbd0b4ee6	-0.03401079
204	0x3cafc2cc	0.021455191
205	0x3a3a7e08	0.0007114117
206	0x3caa1188	0.020760313
207	0x3c3e224f	0.0116048595
208	0x3cb42ddd	0.021994526
209	0x3d467af9	0.04845712
210	0xbc9722d6	-0.018449228
211	0x3c24655d	0.0100339325
212	0xbba2c1fb	-0.004966972
213	0xbd28d823	-0.04122175
214	0xbc1b9c0e	-0.009497656
215	0x3b004cf7	0.0019577125
216	0x3ce6c3cb	0.028169533
217	0x3d22f297	0.039782133
218	0x3d2533d7	0.04033264
219	0x3c67764f	0.014127328
220	0xbce6b71f	-0.02816349
221	0x3c86de65	0.016463468
222	0x3c13d9b7	0.009024075
223	0xbd143dc6	-0.036191724
224	0x3cc704f0	0.024294347
225	0x3bc9037a	0.0061344476
226	0xbbf3aac8	-0.00743613
227	0x3d1293b2	0.035785384
228	0xbcf81b9f	-0.030286608
229	0x3cd48929	0.02594431
230	0x3d4c6c69	0.049908075
231	0x3cd9e404	0.026597984
232	0xbcf287fe	-0.029605862
233	0x3d2d3b94	0.042293146
234	0x3b90a347	0.0044139954
235	0xbcd3e1ae	-0.025864448
236	0x3d0a3cef	0.033749517
237	0x3cc0c74a	0.023532528
238	0x3cdda116	0.02705435
239	0xbbc3a69b	-0.0059707887
240	0x3b79f909	0.0038142821
241	0x3c81bf15	0.015838185
242	0xbcb44e28	-0.022009924
243	0x3ac99837	0.0015380447
244	0x3b08e763	0.002088987
245	0xbce139cc	-0.02749338
246	0xbc0f8ee2	-0.008762093
247	0xbd340765	-0.043952364
248	0xbc95d144	-0.018288262
249	0xbbdd862c	-0.0067603793
250	0x3c841e72	0.016127799
251	0x3d1918a6	0.037377022
252	0xbc175029	-0.00923542
253	0x3c152ee3	0.009105417
254	0x3c74fd1f	0.014952927
255	0x3bc11da4	0.005893426

model.2.bias f4 [24]
0	0x3d504e4b	0.050855916
1	0xbc48b717	-0.012250683
2	0xbd0a8d54	-0.033826187
3	0xbc164458	-0.009171568
4	0x3ce0026b	0.027344903
5	0x3d243240	0.040086985
6	0x3d4d94eb	0.050190847
7	0xbca70d43	-0.020392066
8	0xbc9b1dac	-0.018935047
9	0xbcf7ab64	-0.030233093
10	0xbbc66339	-0.0060543087
11	0xbcf17b8c	-0.029477857
12	0x3d5e4398	0.05426368
13	0x3ab95c7c	0.0014141942
14	0x3bc42dff	0.0059869285
15	0x3d0f8de7	0.035047438
16	0xbcb694a3	-0.022287672
17	0x3c0659ea	0.008200148
18	0x3cd94490	0.026521951
19	0x3d58620c	0.05282788
20	0x3d419127	0.04725757
21	0x3cee75ca	0.0291089
22	0x3d4275d9	0.04747567
23	0xbcf00ba3	-0.029302424
