checkpoints/solar_data_CycleNet_solar_data_ftMS_sl192_ll48_pl1/checkpoint.pth (torch, 400935 bytes, 4 tensors)

cycleQueue.data f4 [24, 12]
0	0x00000000	0.0
1	0x00000000	0.0
2	0x00000000	0.0
3	0x00000000	0.0
4	0x00000000	0.0
5	0x00000000	0.0
6	0x00000000	0.0
7	0x00000000	0.0
8	0x00000000	0.0
9	0x00000000	0.0
10	0x00000000	0.0
11	0x3b2737cf	0.0025515442
12	0x00000000	0.0
13	0x00000000	0.0
14	0x00000000	0.0
15	0x00000000	0.0
16	0x00000000	0.0
17	0x00000000	0.0
18	0x00000000	0.0
19	0x00000000	0.0
20	0x00000000	0.0
21	0x00000000	0.0
22	0x00000000	0.0
23	0x3bc6384c	0.0060491916
24	0x00000000	0.0
25	0x00000000	0.0
26	0x00000000	0.0
27	0x00000000	0.0
28	0x00000000	0.0
29	0x00000000	0.0
30	0x00000000	0.0
31	0x00000000	0.0
32	0x00000000	0.0
33	0x00000000	0.0
34	0x00000000	0.0
35	0x3bfd1494	0.0077234004
36	0x00000000	0.0
37	0x00000000	0.0
38	0x00000000	0.0
39	0x00000000	0.0
40	0x00000000	0.0
41	0x00000000	0.0
42	0x00000000	0.0
43	0x00000000	0.0
44	0x00000000	0.0
45	0x00000000	0.0
46	0x00000000	0.0
47	0x3c0e96c2	0.008702936
48	0x00000000	0.0
49	0x00000000	0.0
50	0x00000000	0.0
51	0x00000000	0.0
52	0x00000000	0.0
53	0x00000000	0.0
54	0x00000000	0.0
55	0x00000000	0.0
56	0x00000000	0.0
57	0x00000000	0.0
58	0x00000000	0.0
59	0x3c56625e	0.013084976
60	0x00000000	0.0
61	0x00000000	0.0
62	0x00000000	0.0
63	0x00000000	0.0
64	0x00000000	0.0
65	0x00000000	0.0
66	0x00000000	0.0
67	0x00000000	0.0
68	0x00000000	0.0
69	0x00000000	0.0
70	0x00000000	0.0
71	0xbc039784	-0.00803173
72	0x00000000	0.0
73	0x00000000	0.0
74	0x00000000	0.0
75	0x00000000	0.0
76	0x00000000	0.0
77	0x00000000	0.0
78	0x00000000	0.0
79	0x00000000	0.0
80	0x00000000	0.0
81	0x00000000	0.0
82	0x00000000	0.0
83	0xbc874f26	-0.016517233
84	0x00000000	0.0
85	0x00000000	0.0
86	0x00000000	0.0
87	0x00000000	0.0
88	0x00000000	0.0
89	0x00000000	0.0
90	0x00000000	0.0
91	0x00000000	0.0
92	0x00000000	0.0
93	0x00000000	0.0
94	0x00000000	0.0
95	0xbb9b732d	-0.0047439546
96	0x00000000	0.0
97	0x00000000	0.0
98	0x00000000	0.0
99	0x00000000	0.0
100	0x00000000	0.0
101	0x00000000	0.0
102	0x00000000	0.0
103	0x00000000	0.0
104	0x00000000	0.0
105	0x00000000	0.0
106	0x00000000	0.0
107	0x3bcbe560	0.006222412
108	0x00000000	0.0
109	0x00000000	0.0
110	0x00000000	0.0
111	0x00000000	0.0
112	0x00000000	0.0
113	0x00000000	0.0
114	0x00000000	0.0
115	0x00000000	0.0
116	0x00000000	0.0
117	0x00000000	0.0
118	0x00000000	0.0
119	0x3b8a7946	0.0042258827
120	0x00000000	0.0
121	0x00000000	0.0
122	0x00000000	0.0
123	0x00000000	0.0
124	0x00000000	0.0
125	0x00000000	0.0
126	0x00000000	0.0
127	0x00000000	0.0
128	0x00000000	0.0
129	0x00000000	0.0
130	0x00000000	0.0
131	0xbae3256c	-0.0017329878
132	0x00000000	0.0
133	0x00000000	0.0
134	0x00000000	0.0
135	0x00000000	0.0
136	0x00000000	0.0
137	0x00000000	0.0
138	0x00000000	0.0
139	0x00000000	0.0
140	0x00000000	0.0
141	0x00000000	0.0
142	0x00000000	0.0
143	0x3b95c313	0.004570374
144	0x00000000	0.0
145	0x00000000	0.0
146	0x00000000	0.0
147	0x00000000	0.0
148	0x00000000	0.0
149	0x00000000	0.0
150	0x00000000	0.0
151	0x00000000	0.0
152	0x00000000	0.0
153	0x00000000	0.0
154	0x00000000	0.0
155	0x3aabe70c	0.0013115122
156	0x00000000	0.0
157	0x00000000	0.0
158	0x00000000	0.0
159	0x00000000	0.0
160	0x00000000	0.0
161	0x00000000	0.0
162	0x00000000	0.0
163	0x00000000	0.0
164	0x00000000	0.0
165	0x00000000	0.0
166	0x00000000	0.0
167	0xb9507d13	-0.0001988302
168	0x00000000	0.0
169	0x00000000	0.0
170	0x00000000	0.0
171	0x00000000	0.0
172	0x00000000	0.0
173	0x00000000	0.0
174	0x00000000	0.0
175	0x00000000	0.0
176	0x00000000	0.0
177	0x00000000	0.0
178	0x00000000	0.0
179	0x3be9a440	0.007130176
180	0x00000000	0.0
181	0x00000000	0.0
182	0x00000000	0.0
183	0x00000000	0.0
184	0x00000000	0.0
185	0x00000000	0.0
186	0x00000000	0.0
187	0x00000000	0.0
188	0x00000000	0.0
189	0x00000000	0.0
190	0x00000000	0.0
191	0x3be6c674	0.0070427004
192	0x00000000	0.0
193	0x00000000	0.0
194	0x00000000	0.0
195	0x00000000	0.0
196	0x00000000	0.0
197	0x00000000	0.0
198	0x00000000	0.0
199	0x00000000	0.0
200	0x00000000	0.0
201	0x00000000	0.0
202	0x00000000	0.0
203	0x3ac96cac	0.001536747
204	0x00000000	0.0
205	0x00000000	0.0
206	0x00000000	0.0
207	0x00000000	0.0
208	0x00000000	0.0
209	0x00000000	0.0
210	0x00000000	0.0
211	0x00000000	0.0
212	0x00000000	0.0
213	0x00000000	0.0
214	0x00000000	0.0
215	0xb9c8fe50	-0.0003833645
216	0x00000000	0.0
217	0x00000000	0.0
218	0x00000000	0.0
219	0x00000000	0.0
220	0x00000000	0.0
221	0x00000000	0.0
222	0x00000000	0.0
223	0x00000000	0.0
224	0x00000000	0.0
225	0x00000000	0.0
226	0x00000000	0.0
227	0xbb605548	-0.003423052
228	0x00000000	0.0
229	0x00000000	0.0
230	0x00000000	0.0
231	0x00000000	0.0
232	0x00000000	0.0
233	0x00000000	0.0
234	0x00000000	0.0
235	0x00000000	0.0
236	0x00000000	0.0
237	0x00000000	0.0
238	0x00000000	0.0
239	0x3bffb530	0.0078035817
240	0x00000000	0.0
241	0x00000000	0.0
242	0x00000000	0.0
243	0x00000000	0.0
244	0x00000000	0.0
245	0x00000000	0.0
246	0x00000000	0.0
247	0x00000000	0.0
248	0x00000000	0.0
249	0x00000000	0.0
250	0x00000000	0.0
251	0x3bc45428	0.0059914775
252	0x00000000	0.0
253	0x00000000	0.0
254	0x00000000	0.0
255	0x00000000	0.0

model.0.weight f4 [512, 192]
0	0x3d8d5833	0.06901588
1	0xbd4fd5e6	-0.0507411
2	0xbc47a93e	-0.012186347
3	0x3d6b776f	0.057486948
4	0x3c88fd48	0.016722336
5	0xbb8c2943	-0.0042773797
6	0x3d1967fb	0.03745268
7	0xbd40fa75	-0.047113854
8	0xbd468460	-0.048466086
9	0x3ca22652	0.019793663
10	0xbc8c1cea	-0.017103631
11	0xbc786588	-0.015160926
12	0xbd161536	-0.036641322
13	0x3c42d980	0.011892676
14	0x3cf07e26	0.029357027
15	0xbd21c95e	-0.03949868
16	0x3d1d4834	0.038398936
17	0x3c02db30	0.007986829
18	0x3c1f851a	0.009736324
19	0x3d7592ad	0.059954334
20	0x3cc9d50d	0.024637723
21	0x3d83ab5e	0.0642917
22	0x3b44e0f5	0.0030041311
23	0xbbbf1c06	-0.005832198
24	0x3b4c374f	0.0031160896
25	0x3d1eb3bd	0.03874563
26	0xbcaea0b6	-0.021316867
27	0x3cd23784	0.025661238
28	0xbca5d4a4	-0.020242997
29	0xbc75a47d	-0.01499283
30	0xbc502ed6	-0.012706479
31	0x3d581784	0.0527568
32	0x3c3b305f	0.011425107
33	0x3cad6126	0.021164488
34	0x3c5918a9	0.013250508
35	0xbd1ea0a7	-0.03872743
36	0x3d77a8a2	0.060463555
37	0xbccc4e4d	-0.02493968
38	0x3cb69fa6	0.022292923
39	0xbd1db4c6	-0.038502477
40	0x3cc29500	0.02375269
41	0x3d0d8a33	0.034555625
42	0x3a4ccd59	0.00078125816
43	0x3d6ad468	0.057331473
44	0x3cc5c418	0.024141356
45	0x3d7ef5f7	0.06224629
46	0x3d2747ce	0.040839963
47	0x3c404075	0.011734118
48	0x3cd857ed	0.026409114
49	0x3d1c0af7	0.038096394
50	0x3d6845d7	0.05670723
51	0xbd8d21ed	-0.068912365
52	0x3cd25d1e	0.025679167
53	0x3c6139b6	0.0137466695
54	0x3c659d89	0.01401461
55	0xbca65865	-0.020305822
56	0xbc708854	-0.014680941
57	0x3d8ee0da	0.06976481
58	0xbc83c8ce	-0.016086962
59	0xbce9f35c	-0.028558426
60	0xbd617253	-0.05504067
61	0x3d92a63f	0.07160615
62	0x3caba42a	0.020952303
63	0x3d827b7e	0.063712105
64	0x3d4604f7	0.04834458
65	0xbd868042	-0.06567432
66	0xbcdeb4b3	-0.027185773
67	0xbc2b7b00	-0.010466337
68	0xbc26bfb9	-0.010177546
69	0x3d47e4f9	0.04880235
70	0x3cae0645	0.021243224
71	0x3c1c9723	0.009557518
72	0x3d0d8172	0.034547277
73	0x3d13e702	0.036108978
74	0xbbdd1cef	-0.006747834
75	0x3d435f34	0.047698215
76	0x3d6703fb	0.05640028
77	0x3d8965b4	0.067088515
78	0xbd2bb584	-0.041921154
79	0xbd1da934	-0.038491443
80	0xbd25324d	-0.040331174
81	0x3d0ab7c8	0.033866674
82	0xbd41501d	-0.047195543
83	0x3cbcaffe	0.023033138
84	0xbc23d484	-0.009999398
85	0xbc222c7c	-0.009898301
86	0x3d27a6bb	0.04093049
87	0xbd59045a	-0.052982666
88	0xbbcdc70f	-0.006279833
89	0xbd435aad	-0.047693897
90	0x3d01fae9	0.031733427
91	0x3cd6d03d	0.026222343
92	0xbd268c7f	-0.04066133
93	0x3d7b3e12	0.06133849
94	0x3ba82a12	0.0051319683
95	0x3ca8cef1	0.02060649
96	0xbcfa3362	-0.03054208
97	0x3b82b3e9	0.003988732
98	0x3d1def56	0.038558327
99	0x3d6e778f	0.05821949
100	0xbd2b36db	-0.04180036
101	0x3d5bc6a2	0.053656228
102	0xbd33cc13	-0.043895792
103	0x3d08a3ef	0.033359464
104	0x3c9e73a4	0.019342251
105	0x3d1b0e26	0.03785529
106	0x3d4599c6	0.048242353
107	0xbcefe72a	-0.029285032
108	0xbd903098	-0.070405185
109	0xbc2d3c77	-0.010573498
110	0x3d6ff81e	0.058586232
111	0x3d082c1f	0.033245202
112	0x3d24993b	0.040185194
113	0xbd50c847	-0.05097225
114	0x3d0d3927	0.034478333
115	0xbd654b2b	-0.05597989
116	0x3d4897c2	0.048972853
117	0x3d250027	0.04028335
118	0xbcb6d510	-0.022318393
119	0x3d4164d7	0.04721531
120	0xbd070af9	-0.03296945
121	0xbd443b31	-0.04790801
122	0x3c83606f	0.016037194
123	0xbc22fa6d	-0.0099474015
124	0xbd24d91d	-0.040246118
125	0xbd4246be	-0.047430746
126	0x3cf5071e	0.02991062
127	0xbc0a2990	-0.008432761
128	0xbd28da1f	-0.04122364
129	0x3c465d4b	0.012107204
130	0xbd12d4b2	-0.035847373
131	0xbc623361	-0.013806195
132	0xbc6f67a9	-0.014612117
133	0xbc9200a0	-0.017822564
134	0xbc8e47e0	-0.017368257
135	0xbca09148	-0.019600525
136	0x3d879ca0	0.06621671
137	0x3c1b2e18	0.009471439
138	0x3d1081d4	0.035280064
139	0xbcf79128	-0.030220583
140	0x3d65fe7b	0.056150895
141	0x3d8d5bf6	0.06902306
142	0xbb13a874	-0.0022530826
143	0xbd0d34cb	-0.034474175
144	0x3d6d16ed	0.05788319
145	0xbbad641b	-0.0052914745
146	0x3c3a5b70	0.011374339
147	0xbc77bed3	-0.01512118
148	0x3d8dcd16	0.06923883
149	0x3d2374fd	0.03990649
150	0xbd095d53	-0.033536267
151	0x3d1a1f75	0.037627656
152	0xbd509057	-0.050918903
153	0xbd67761b	-0.05650912
154	0x3cd3d817	0.025859876
155	0xbd536853	-0.051613163
156	0x3af2feb8	0.0018539047
157	0xbd48e081	-0.04904223
158	0x3d1c06e4	0.03809251
159	0x39d12740	0.0003989283
160	0x38a0006d	7.629474e-05
161	0xbd387dab	-0.04504172
162	0xbd9298cf	-0.07158052
163	0xbc2551f1	-0.010090337
164	0x3d86ca6a	0.06581576
165	0xbc2237b0	-0.009900972
166	0x3d2ac03c	0.041687235
167	0x3d14b579	0.03630588
168	0xbd59696a	-0.053079046
169	0xbcbc192c	-0.022961222
170	0xbd2026a6	-0.039099358
171	0xbac23a6f	-0.001481844
172	0x3cbf2a5a	0.023335624
173	0x3cd8f79f	0.026485262
174	0xbd873c1d	-0.066032626
175	0xbd379495	-0.044819433
176	0x3d57cdee	0.052686624
177	0x3c2b2ee2	0.010448189
178	0xbd91bcf6	-0.071161196
179	0xbd5f1197	-0.054460134
180	0xb933d836	-0.00017151315
181	0xbcb4d6c7	-0.02207507
182	0xbce51767	-0.02796526
183	0xbce24379	-0.027620064
184	0xbd3d7732	-0.04625625
185	0xbd177030	-0.036972225
186	0x3c816265	0.015793988
187	0xbd75f0a2	-0.06004394
188	0xbd7811de	-0.060563914
189	0xbd9970c3	-0.07492211
190	0xbda07d2d	-0.078363754
191	0x3c7ed85e	0.015554516
192	0xbc0f7b98	-0.008757494
193	0x3bf25cc2	0.0073963115
194	0x3cbbee85	0.022940883
195	0xbb5a334c	-0.0033294735
196	0xbcdac6a2	-0.026706044
197	0x3cbe41da	0.02322476
198	0x3c22675c	0.009912338
199	0xbc48542a	-0.0122270975
200	0xbd15d272	-0.03657765
201	0x3d8931ab	0.066989265
202	0xbd703aea	-0.058649935
203	0x39b4f883	0.0003451743
204	0xbd2980d6	-0.041382633
205	0x3b8f5781	0.004374445
206	0x3d8178c7	0.063218646
207	0x3d4cc38f	0.049991187
208	0xbd3f19d4	-0.04665549
209	0xbd1422d3	-0.036166023
210	0xbd8d0c31	-0.06887091
211	0x3cb8f64e	0.022578385
212	0xbca44111	-0.020050557
213	0xbd53c21b	-0.051698785
214	0x3d05408f	0.03253227
215	0x3d217cdf	0.039425727
216	0x3d4d6d10	0.05015284
217	0xbbe2b64d	-0.0069187046
218	0xbd3deb5a	-0.046367027
219	0xbd7d80c5	-0.061890382
220	0x3d39a5d4	0.04532416
221	0xbc052208	-0.008125789
222	0x3d77f0fe	0.060532562
223	0xbd579767	-0.052634623
224	0x3c04584f	0.008077695
225	0xbc12c62e	-0.0089583825
226	0xbd2dc00c	-0.04241948
227	0xbd62f753	-0.055411648
228	0xbd7177d0	-0.058952153
229	0xbcb70d7a	-0.022345293
230	0x3d7ce78d	0.06174426
231	0x3d3421f1	0.04397768
232	0x3d87696f	0.06611907
233	0xbbf826af	-0.007572971
234	0x3d432c97	0.047649946
235	0xbc3ccb8f	-0.0115231415
236	0x3d15e0d1	0.036591355
237	0x3d78acfd	0.06071185
238	0xbd5b26aa	-0.05350367
239	0x3d97e2ed	0.074163295
240	0x3cd2a734	0.025714494
241	0xbd8d9af0	-0.069143176
242	0x3d83d53c	0.064371556
243	0xbc1389d3	-0.009005028
244	0x3ce7d44b	0.028299471
245	0xbcc1f307	-0.023675455
246	0xbcaefb14	-0.021359958
247	0xbd2485bd	-0.040166605
248	0x3d82ab4d	0.06380329
249	0x3c1eabda	0.009684527
250	0xbd89688c	-0.06709394
251	0x3cd07d14	0.025450267
252	0x3d1ab4b1	0.037769977
253	0x39bf7679	0.00036518628
254	0x366b4d30	3.5062658e-06
255	0xbd4553ba	-0.04817555

model.0.bias f4 [512]
0	0xbd8b878e	-0.068129644
1	0x3d3fcf86	0.04682877
2	0xbd590250	-0.05298072
3	0xbd151b75	-0.03640314
4	0xbd630b22	-0.05543054
5	0xbd79400a	-0.060852088
6	0xbd05a54d	-0.032628346
7	0xbd7f5bed	-0.062343527
8	0xbb85e303	-0.0040859
9	0x3d8a1af3	0.067434214
10	0x3d194084	0.037415043
11	0xbd50a891	-0.050942007
12	0xbd342525	-0.043980736
13	0x3d047685	0.03233959
14	0xbcc7d209	-0.024392145
15	0xbce8f53f	-0.028437255
16	0xbcfcd719	-0.030864285
17	0x3cadcdbc	0.021216266
18	0xbd6f5c16	-0.05843743
19	0x3c438fe3	0.011936161
20	0xbb49f4a4	-0.0030815983
21	0x3d84a68b	0.06477078
22	0x3ce434a2	0.027857129
23	0x3d0edad5	0.034876663
24	0xbd4528d6	-0.048134647
25	0x3d14633f	0.03622746
26	0xbd5f3f5e	-0.05450379
27	0xbd4425ce	-0.047887616
28	0xbcfc883e	-0.030826684
29	0xbc1f0629	-0.009706059
30	0x3ba9fc4f	0.005187548
31	0x3d135ba9	0.035976086
32	0x3d3e9da2	0.04653705
33	0xbd17638a	-0.036960162
34	0x3d3ef8a0	0.046623826
35	0xbc8e63d9	-0.017381595
36	0xbcacd59d	-0.021097952
37	0xbd427fa5	-0.047485013
38	0x3d8a0cad	0.06740699
39	0x3c8c3a09	0.017117517
40	0x3d3f1213	0.046648096
41	0xbd900d29	-0.0703376
42	0x3a396c0f	0.0007073292
43	0x3c953d44	0.01821769
44	0x3d8f99df	0.070117705
45	0x3d5530e0	0.052048564
46	0x3d252cb8	0.04032585
47	0x3c7d80ff	0.01547265
48	0x3d3e0fbf	0.046401735
49	0xbc388aa4	-0.011263523
50	0x3bad7b5b	0.005294246
51	0xbb891794	-0.004183719
52	0xbd2ff971	-0.042962495
53	0xbc0e82e9	-0.008698204
54	0xbc0fb5bb	-0.008771355
55	0x3c608cbe	0.013705431
56	0xbd950968	-0.07277185
57	0xbbe1fb21	-0.006896392
58	0x3c2f5678	0.010701768
59	0x3d884d97	0.06655424
60	0x3d551076	0.05201765
61	0xbd054ee0	-0.032545924
62	0x3c9a7462	0.018854324
63	0xbd4dbc07	-0.050228145
64	0xbc5a9462	-0.013341041
65	0xba209b95	-0.0006126699
66	0x3b93cf11	0.004510768
67	0x3d0d9485	0.034565467
68	0xbd4df958	-0.05028662
69	0xbcfac9f5	-0.030613879
70	0xbba8619d	-0.0051385895
71	0x3d8cfb04	0.06883815
72	0xbc9d06ab	-0.019168219
73	0x3cbb0468	0.02282925
74	0x3d60e865	0.05490913
75	0x3d0990ec	0.033585474
76	0xbd8f5fbe	-0.07000683
77	0x3d8aa67d	0.06770036
78	0x3d03545e	0.03206288
79	0x3ce1ede6	0.02757926
80	0x3d016076	0.031586133
81	0x3d116a9a	0.035502054
82	0x3d0d30ac	0.034470245
83	0xbd86272c	-0.0655044
84	0x3d74699b	0.059671026
85	0x3d0f724e	0.03502112
86	0x3d28cde9	0.041211996
87	0xbd15dbae	-0.036586456
88	0xbd4893c3	-0.04896904
89	0xbd815a62	-0.06316067
90	0x3d834601	0.064098366
91	0x3bbd2680	0.005772412
92	0xbc102bf4	-0.008799542
93	0x3d05b539	0.03264353
94	0xbd997409	-0.07492835
95	0xbd16a4cc	-0.036778256
96	0xbd1f32cd	-0.038866807
97	0x3d210a37	0.039316382
98	0xbd161df0	-0.036649644
99	0x39b3273f	0.0003417078
100	0x3d366c26	0.044536732
101	0x3c6186a1	0.013765008
102	0xbd44e87e	-0.048073284
103	0x392abee1	0.00016283571
104	0x3bf4c5b7	0.0074698585
105	0xbcf82c22	-0.030294482
106	0xbd37f701	-0.044913296
107	0xbb00e5f3	-0.001966831
108	0xbd5b0770	-0.05347389
109	0xbc98d223	-0.018654888
110	0x3d2a3c62	0.04156149
111	0xbd24b587	-0.04021218
112	0xbd1da70c	-0.038489386
113	0xbc7aa8bc	-0.0152990185
114	0xbd05f66c	-0.03270571
115	0xbd89bd33	-0.0672554
116	0x3d4a7fc2	0.049438246
117	0xbcdad8bd	-0.026714677
118	0x3d3ddbf2	0.046352334
119	0xbd816397	-0.063178234
120	0xbd980e6b	-0.07424625
121	0x3d5437cd	0.05181103
122	0xbd6c9d6c	-0.057767317
123	0xbd97c152	-0.0740992
124	0xbd5e797f	-0.054315086
125	0x3d042c87	0.032269027
126	0x3d5f3081	0.054489616
127	0x3cd599f5	0.026074389
128	0x3d3b9a0e	0.045801215
129	0xbc531f8c	-0.012885939
130	0x3c892fb8	0.016746387
131	0x3c60bb3c	0.013716515
132	0x3cf2914f	0.029610304
133	0x3d9ba8e3	0.07600572
134	0x3d829445	0.063759364
135	0x3d8403b2	0.06446017
136	0x3c504c75	0.012713541
137	0x3d8157cf	0.06315576
138	0xbd467476	-0.04845091
139	0x3d4b44c5	0.04962613
140	0x3cd1ba51	0.025601538
141	0x3d64353e	0.05571484
142	0xbd195adc	-0.037440166
143	0x3b829fed	0.00398635
144	0xbd286098	-0.041107744
145	0xbbfd76b1	-0.0077350964
146	0xbc177782	-0.0092448015
147	0x3d538518	0.0516406
148	0xbd8f95c4	-0.070109874
149	0xbcbcd63f	-0.02305138
150	0x3d7151ea	0.05891601
151	0x3cae216f	0.021256177
152	0xba12a6ab	-0.00055942935
153	0xbc5572f6	-0.013027897
154	0xbc143ee7	-0.0090482
155	0xbb2439c1	-0.0025058838
156	0xbd787999	-0.06066284
157	0xbd6ea595	-0.05826338
158	0xbd5d78af	-0.05407017
159	0xbd1e00a8	-0.038574845
160	0x3d01b7a6	0.03166928
161	0xbc26f8b1	-0.010191129
162	0x3ac1127e	0.0014730243
163	0x3d526def	0.051374372
164	0xbd0ba701	-0.034094814
165	0xbcd6f145	-0.026238093
166	0x3c71d757	0.014760814
167	0x3d5bf7bb	0.05370305
168	0xbd3ad809	-0.045616183
169	0xbd222110	-0.039582312
170	0x3d2b4597	0.041814413
171	0xbb351008	-0.0027627964
172	0xbd01b960	-0.031670928
173	0xbd81dd61	-0.06341053
174	0xbd48d893	-0.049034666
175	0x3da5468d	0.08070097
176	0x3ca5336c	0.020166121
177	0x3d44d61d	0.048055757
178	0x3d7a6c7f	0.061138626
179	0x3c8be247	0.01707567
180	0xbca4e180	-0.020127058
181	0x3b3d09cf	0.0028844958
182	0xbbb88ea4	-0.0056322385
183	0x3ce68e44	0.02814401
184	0x3d777bea	0.060420908
185	0xbd1b102a	-0.037857212
186	0xbd1a4ab2	-0.03766889
187	0xbd2f5123	-0.042801987
188	0xbce8e063	-0.028427308
189	0x3d9ffc48	0.07811791
190	0x3d082f62	0.033248313
191	0x3d91455d	0.07093308
192	0x3b579fc5	0.0032901627
193	0x3ca13725	0.019679615
194	0x3ba8c373	0.0051502525
195	0x3d0aa593	0.03384931
196	0x3d8766e7	0.06611424
197	0x3d3ae17c	0.045625195
198	0xbcd98db0	-0.02655682
199	0x3cfd641d	0.030931527
200	0xbbf77f4c	-0.0075530168
201	0xbd9397ed	-0.07206712
202	0xbd33b283	-0.043871414
203	0x3ca95040	0.020668149
204	0x3bb1ebb2	0.0054297084
205	0xbd514f2a	-0.051100887
206	0xbd248382	-0.040164478
207	0x3d165efd	0.03671168
208	0x3cc6b951	0.024258288
209	0x3cbd72b5	0.023125986
210	0xbce54825	-0.027988503
211	0x3d97ac37	0.07405894
212	0xbd8acf04	-0.06777766
213	0x3ce8d176	0.028420191
214	0x3d8aeaeb	0.06783088
215	0x3d333631	0.043752853
216	0xbd03f4e3	-0.032215964
217	0xbd39b52e	-0.045338802
218	0x3d3f5b2b	0.046717804
219	0x3cc915e6	0.024546575
220	0x3c932bc7	0.01796521
221	0x3d3358a7	0.043785717
222	0xbd7b6335	-0.061373908
223	0x3b82cfed	0.003992072
224	0xbd2127ee	-0.03934472
225	0x3d36362b	0.044485252
226	0x3c7f2c32	0.015574502
227	0x3c108496	0.008820673
228	0x3ce022cb	0.02736034
229	0xbc44081f	-0.011964827
230	0x3c81cd12	0.015844855
231	0xbcc0f513	-0.02355436
232	0xbd5d67b0	-0.054053962
233	0x3b52b3f2	0.0032150713
234	0x3d5f6c05	0.054546375
235	0xbcabc0c9	-0.02096595
236	0xbd555ae6	-0.05208864
237	0xbd76536b	-0.060138147
238	0xbc3ee2e0	-0.011650771
239	0xbad14ad5	-0.0015967736
240	0x3d1f8f4d	0.03895502
241	0x3d94f880	0.0727396
242	0x3d8aae9b	0.067715846
243	0xbca2b064	-0.0198595
244	0x3d80dfd9	0.062926956
245	0x3d59510d	0.05305581
246	0x3d2722cc	0.04080467
247	0x3c8c54f0	0.017130345
248	0x3cc0c2f2	0.023530457
249	0x3b6a6af8	0.0035769325
250	0xbd3ab1ab	-0.045579594
251	0xbc326664	-0.01088867
252	0x3d76bc4e	0.060238175
253	0xbd6ec5dd	-0.058294166
254	0xbd88472a	-0.066541985
255	0xbc0838a1	-0.008314283

model.2.weight f4 [1, 512]
0	0xbca6557f	-0.02030444
1	0x3b3e8ced	0.0029075698
2	0x3ce37e9e	0.027770337
3	0x3bafca16	0.0053646667
4	0x3c34e593	0.011041063
5	0x3c936a16	0.017994922
6	0x3c153ace	0.009108258
7	0x3c9f9c29	0.019483643
8	0xbca5bb1d	-0.020230824
9	0xbd41ed0a	-0.0473452
10	0x3cae6223	0.02128703
11	0xbd0e63fe	-0.03476333
12	0x3d350766	0.04419651
13	0x3d40c9ba	0.04706738
14	0xbbafc0c4	-0.0053635556
15	0xbbf0c829	-0.0073480797
16	0xbb6a4f69	-0.0035752899
17	0x3d4ede73	0.050505113
18	0x3d07067d	0.032965172
19	0x3d4299a3	0.0475098
20	0xbd1d5dea	-0.03841964
21	0x3c66dc5a	0.014090622
22	0x3d43b33c	0.047778353
23	0x3cdb89b1	0.026799055
24	0xbbe54a36	-0.006997372
25	0xbd0cf18a	-0.034410037
26	0xbd5862ee	-0.05282872
27	0xbc57b517	-0.013165734
28	0xbd1753d4	-0.03694518
29	0xbd5011f8	-0.050798386
30	0x3c372e94	0.011180539
31	0x3d040bd8	0.032237858
32	0x3c325a1f	0.010885744
33	0x3c90fe83	0.017699486
34	0x3ad8f8f8	0.0016553691
35	0x3cedeab3	0.029042577
36	0xbcd00fcc	-0.025398158
37	0xbc96472c	-0.018344484
38	0x3cd7fe40	0.026366353
39	0xbcc0ebaa	-0.023549873
40	0xbd3efec0	-0.046629667
41	0x3b5a8b34	0.0033347132
42	0xbd022eb6	-0.03178283
43	0xbd16fe4e	-0.036863618
44	0xbcf64d84	-0.03006626
45	0xbc7900de	-0.015197961
46	0x3cf6a11e	0.030106124
47	0xbcdc4ac7	-0.026891125
48	0xbd502df5	-0.050825078
49	0xbc99fdc7	-0.018797768
50	0xbca48dd4	-0.02008716
51	0xbb7bec2e	-0.0038440335
52	0x3cc09a12	0.023510966
53	0x3c9f8d9f	0.01947671
54	0x3d1198f6	0.035546266
55	0xbbe444c9	-0.0069662076
56	0xbc28086a	-0.010255912
57	0xbd033553	-0.032033276
58	0xbd3b2938	-0.045693606
59	0x3c2855dc	0.010274377
60	0xbb621bf4	-0.0034501525
61	0x3d1fea91	0.03904206
62	0x3cb3596d	0.021893227
63	0x3cb5e809	0.02220537
64	0xbcdb6f30	-0.026786417
65	0xbd46ba6d	-0.048517633
66	0xbb4971b4	-0.0030737938
67	0xbd168046	-0.036743425
68	0x3d337c4f	0.04381972
69	0x3cbcd75c	0.02305191
70	0x3b4aef85	0.0030965519
71	0x3cdbca69	0.026829915
72	0xbd0992fe	-0.03358745
73	0x3bed0e09	0.007234339
74	0x3d267803	0.040641796
75	0xbc280bb1	-0.010256694
76	0x3bcee692	0.006314107
77	0xbd50b49b	-0.05095349
78	0x3d04a990	0.03238827
79	0x3cf64905	0.030064115
80	0xbd473771	-0.048636857
81	0xbc623c46	-0.013808316
82	0xbc1ac0ff	-0.009445428
83	0x3d327b9b	0.04357491
84	0xbc670f19	-0.014102721
85	0x3ca128b0	0.019672722
86	0x3c9fa1fa	0.019486416
87	0x3cf348ff	0.029697893
88	0x3b9ec0d1	0.004844763
89	0x3bfba154	0.007679144
90	0xbd1cb149	-0.03825501
91	0xbaf4423c	-0.0018635462
92	0xbd0193ce	-0.0316351
93	0x3b93bc0f	0.0045085023
94	0xba4a1c97	-0.00077099487
95	0xbc43d736	-0.011953166
96	0x3d0ce6ee	0.03439992
97	0x3cc32fd3	0.023826515
98	0xbd04e08f	-0.03244072
99	0xbcefd295	-0.029275218
100	0xbc9e9989	-0.01936032
101	0xbce0b929	-0.027432041
102	0xbcb069a6	-0.021534752
103	0x3c9b12a1	0.018929781
104	0xbc08d94d	-0.00835259
105	0x3d46f3da	0.0485724
106	0x3a0c130a	0.0005343413
107	0xbc5b9453	-0.0134020625
108	0xbd25f6f0	-0.0405187
109	0xbd598e06	-0.05311396
110	0x3cf18be1	0.029485645
111	0x3d06af9c	0.032882318
112	0x3d4926e9	0.049109373
113	0xbd14fe40	-0.036375284
114	0xbcbc7c7b	-0.023008576
115	0x3ccde328	0.02513273
116	0xbd009995	-0.031396467
117	0xbc9da891	-0.019245418
118	0xbcbaa7d3	-0.022785103
119	0x3c8ade04	0.016951568
120	0xbbd14236	-0.006386067
121	0x3d443c29	0.047908936
122	0x3d12487e	0.035713665
123	0xbc0a7c15	-0.008452435
124	0xbc1adbfe	-0.009451864
125	0x3d41c67c	0.04730843
126	0xbc4e84c1	-0.012604893
127	0xbcd7549d	-0.026285464
128	0xbbeabccd	-0.00716362
129	0x3cbc210f	0.022964982
130	0xbd04c0f0	-0.032410562
131	0x3ca132dc	0.019677572
132	0x3c0fd5d1	0.008779005
133	0x3c0ff95e	0.008787481
134	0xbc7cc331	-0.015427397
135	0xbcd41db6	-0.025893074
136	0x3cefea0c	0.029286407
137	0x3cc253e0	0.023721635
138	0xbd215e4f	-0.03939658
139	0xbcd8c11b	-0.026459267
140	0xbb85fbd0	-0.0040888563
141	0xbd0cdaba	-0.03438828
142	0x3c8b453f	0.017000793
143	0xbc539931	-0.012914942
144	0xbc9fa3fd	-0.019487375
145	0xbd75c75d	-0.06000458
146	0x3d0941a3	0.03350986
147	0xbcb67814	-0.022274055
148	0xbbd9f006	-0.0066509275
149	0xbcc8743a	-0.024469484
150	0xbd07837f	-0.03308439
151	0xbcf82ee5	-0.030295799
152	0xbc4f1b0b	-0.012640725
153	0x3c8944d9	0.016756462
154	0x3cbcd5e7	0.023051215
155	0xbd05a189	-0.032624755
156	0xbc8ef412	-0.017450366
157	0xbd06e524	-0.03293337
158	0x3b903d71	0.0044018556
159	0x3d00d9ec	0.031457826
160	0x3d689578	0.05678317
161	0x3d40cd25	0.04707064
162	0xbbc17e66	-0.0059049604
163	0x3c233ef4	0.00996374
164	0x3d37df6c	0.044890806
165	0xbd301ef2	-0.04299826
166	0x3d246b7e	0.040141575
167	0xbc5a1fad	-0.013313216
168	0x3c13594d	0.008993459
169	0xbd2cf00c	-0.042221114
170	0xbb8eb211	-0.0043547233
171	0x3d20fa64	0.03930129
172	0x3d251c88	0.040310413
173	0x3c723d90	0.014785185
174	0x3c98c76d	0.018649781
175	0x3d1f10fb	0.038834553
176	0x3b0e0b70	0.0021674298
177	0x3c119d5e	0.008887617
178	0xbd126f7b	-0.035750847
179	0x3c87757e	0.016535517
180	0x3c1abdba	0.009444648
181	0xbb9cb3d1	-0.004782178
182	0xbccf0f74	-0.025275923
183	0x3c73c481	0.014878393
184	0x3bf4a50d	0.0074659646
185	0xbc7b616a	-0.01534305
186	0xbcd86de4	-0.026419587
187	0xbd38b889	-0.04509786
188	0xbc1b6feb	-0.009487133
189	0x3d2d8f56	0.042373024
190	0xbcbf4d3b	-0.023352256
191	0x3d3094ca	0.043110646
192	0x3cab3bca	0.020902533
193	0x3d3ba838	0.045814723
194	0xbcd5749b	-0.026056578
195	0x3d525533	0.051350784
196	0xbd2fd715	-0.042929728
197	0xbce303c7	-0.027711762
198	0xbd1b9dfc	-0.037992463
199	0xbd1ca6d1	-0.038245026
200	0xba5bb76d	-0.00083815196
201	0xbcd67f51	-0.026183756
202	0x3d30d0c7	0.043167856
203	0x3cc8b042	0.024498109
204	0xbc21570b	-0.009847413
205	0x3d2c518d	0.04206996
206	0x3c2d1f8c	0.010566603
207	0xbcdafda9	-0.026732283
208	0xbd0c70ce	-0.034287266
209	0x3d330a26	0.04371085
210	0x3d59e566	0.053197287
211	0xbc9114c4	-0.017710097
212	0xbd125bb0	-0.03573197
213	0xbcf1dc0d	-0.029523874
214	0x3d200c65	0.03907432
215	0x3c57482c	0.013139766
216	0xbbd47252	-0.0064833546
217	0x3d05ceef	0.03266805
218	0xbd0b7c06	-0.034053825
219	0xbc5c2ddb	-0.013438667
220	0x3d2b8257	0.04187235
221	0xbd35d95f	-0.044396754
222	0x3d55e365	0.052218813
223	0x3d1565f6	0.03647419
224	0xbd0ea731	-0.034827415
225	0xbce70915	-0.028202573
226	0xba93257b	-0.001122638
227	0xbd2d1362	-0.042254813
228	0xbd198699	-0.037481878
229	0x3d01b4b8	0.031666487
230	0x3d1139b1	0.03545541
231	0x3d392c45	0.045208234
232	0xbcc593ca	-0.024118323
233	0x3c97c468	0.018526271
234	0xbd4330e7	-0.04765406
235	0xbd132d8a	-0.0359321
236	0xbc975e67	-0.018477632
237	0xbd3a8051	-0.04553253
238	0xbc58b618	-0.013227008
239	0xbcc76039	-0.024337875
240	0x3d3f58a4	0.046715394
241	0xbd49b029	-0.049240265
242	0xbce63b6e	-0.02810451
243	0x3c4c6d0f	0.0124771735
244	0x3c9a0750	0.018802315
245	0x3b5a130c	0.0033275513
246	0xbd42f237	-0.047594275
247	0xbc4f4a80	-0.0126520395
248	0x3ca987a9	0.02069457
249	0x3cca009f	0.0246585
250	0xbcbbade3	-0.022910064
251	0x3c66eff3	0.014095294
252	0x3cfb556f	0.030680386
253	0x3d5a8288	0.05334714
254	0x3cecb126	0.028893065
255	0xbd188baf	-0.037242588
