checkpoints/solar_data_CycleNet_solar_data_ftMS_sl96_ll48_pl96/checkpoint.pth (torch, 399271 bytes, 5 tensors)

cycleQueue.data f4 [24, 12]
0	0x00000000	0.0
1	0x00000000	0.0
2	0x00000000	0.0
3	0x00000000	0.0
4	0x00000000	0.0
5	0x00000000	0.0
6	0x00000000	0.0
7	0x00000000	0.0
8	0x00000000	0.0
9	0x00000000	0.0
10	0x00000000	0.0
11	0xbcd125cf	-0.025530724
12	0x00000000	0.0
13	0x00000000	0.0
14	0x00000000	0.0
15	0x00000000	0.0
16	0x00000000	0.0
17	0x00000000	0.0
18	0x00000000	0.0
19	0x00000000	0.0
20	0x00000000	0.0
21	0x00000000	0.0
22	0x00000000	0.0
23	0xbaa50c9b	-0.0012592258
24	0x00000000	0.0
25	0x00000000	0.0
26	0x00000000	0.0
27	0x00000000	0.0
28	0x00000000	0.0
29	0x00000000	0.0
30	0x00000000	0.0
31	0x00000000	0.0
32	0x00000000	0.0
33	0x00000000	0.0
34	0x00000000	0.0
35	0x3d09ca47	0.033640172
36	0x00000000	0.0
37	0x00000000	0.0
38	0x00000000	0.0
39	0x00000000	0.0
40	0x00000000	0.0
41	0x00000000	0.0
42	0x00000000	0.0
43	0x00000000	0.0
44	0x00000000	0.0
45	0x00000000	0.0
46	0x00000000	0.0
47	0x3d82d69d	0.063885905
48	0x00000000	0.0
49	0x00000000	0.0
50	0x00000000	0.0
51	0x00000000	0.0
52	0x00000000	0.0
53	0x00000000	0.0
54	0x00000000	0.0
55	0x00000000	0.0
56	0x00000000	0.0
57	0x00000000	0.0
58	0x00000000	0.0
59	0x3d742cea	0.059613146
60	0x00000000	0.0
61	0x00000000	0.0
62	0x00000000	0.0
63	0x00000000	0.0
64	0x00000000	0.0
65	0x00000000	0.0
66	0x00000000	0.0
67	0x00000000	0.0
68	0x00000000	0.0
69	0x00000000	0.0
70	0x00000000	0.0
71	0xbcc8ecd6	-0.024526995
72	0x00000000	0.0
73	0x00000000	0.0
74	0x00000000	0.0
75	0x00000000	0.0
76	0x00000000	0.0
77	0x00000000	0.0
78	0x00000000	0.0
79	0x00000000	0.0
80	0x00000000	0.0
81	0x00000000	0.0
82	0x00000000	0.0
83	0xbd9fdaf8	-0.07805437
84	0x00000000	0.0
85	0x00000000	0.0
86	0x00000000	0.0
87	0x00000000	0.0
88	0x00000000	0.0
89	0x00000000	0.0
90	0x00000000	0.0
91	0x00000000	0.0
92	0x00000000	0.0
93	0x00000000	0.0
94	0x00000000	0.0
95	0xbd462172	-0.04837174
96	0x00000000	0.0
97	0x00000000	0.0
98	0x00000000	0.0
99	0x00000000	0.0
100	0x00000000	0.0
101	0x00000000	0.0
102	0x00000000	0.0
103	0x00000000	0.0
104	0x00000000	0.0
105	0x00000000	0.0
106	0x00000000	0.0
107	0x3ce63bb1	0.028104635
108	0x00000000	0.0
109	0x00000000	0.0
110	0x00000000	0.0
111	0x00000000	0.0
112	0x00000000	0.0
113	0x00000000	0.0
114	0x00000000	0.0
115	0x00000000	0.0
116	0x00000000	0.0
117	0x00000000	0.0
118	0x00000000	0.0
119	0x3cecfd19	0.02892928
120	0x00000000	0.0
121	0x00000000	0.0
122	0x00000000	0.0
123	0x00000000	0.0
124	0x00000000	0.0
125	0x00000000	0.0
126	0x00000000	0.0
127	0x00000000	0.0
128	0x00000000	0.0
129	0x00000000	0.0
130	0x00000000	0.0
131	0x3c7280ab	0.014801185
132	0x00000000	0.0
133	0x00000000	0.0
134	0x00000000	0.0
135	0x00000000	0.0
136	0x00000000	0.0
137	0x00000000	0.0
138	0x00000000	0.0
139	0x00000000	0.0
140	0x00000000	0.0
141	0x00000000	0.0
142	0x00000000	0.0
143	0x3d7fe050	0.06246978
144	0x00000000	0.0
145	0x00000000	0.0
146	0x00000000	0.0
147	0x00000000	0.0
148	0x00000000	0.0
149	0x00000000	0.0
150	0x00000000	0.0
151	0x00000000	0.0
152	0x00000000	0.0
153	0x00000000	0.0
154	0x00000000	0.0
155	0x3d0b7359	0.03404555
156	0x00000000	0.0
157	0x00000000	0.0
158	0x00000000	0.0
159	0x00000000	0.0
160	0x00000000	0.0
161	0x00000000	0.0
162	0x00000000	0.0
163	0x00000000	0.0
164	0x00000000	0.0
165	0x00000000	0.0
166	0x00000000	0.0
167	0x3797caa6	1.8094968e-05
168	0x00000000	0.0
169	0x00000000	0.0
170	0x00000000	0.0
171	0x00000000	0.0
172	0x00000000	0.0
173	0x00000000	0.0
174	0x00000000	0.0
175	0x00000000	0.0
176	0x00000000	0.0
177	0x00000000	0.0
178	0x00000000	0.0
179	0x3d2a8b2b	0.041636627
180	0x00000000	0.0
181	0x00000000	0.0
182	0x00000000	0.0
183	0x00000000	0.0
184	0x00000000	0.0
185	0x00000000	0.0
186	0x00000000	0.0
187	0x00000000	0.0
188	0x00000000	0.0
189	0x00000000	0.0
190	0x00000000	0.0
191	0x3d2e7291	0.042589728
192	0x00000000	0.0
193	0x00000000	0.0
194	0x00000000	0.0
195	0x00000000	0.0
196	0x00000000	0.0
197	0x00000000	0.0
198	0x00000000	0.0
199	0x00000000	0.0
200	0x00000000	0.0
201	0x00000000	0.0
202	0x00000000	0.0
203	0xbcd5b1f7	-0.026085837
204	0x00000000	0.0
205	0x00000000	0.0
206	0x00000000	0.0
207	0x00000000	0.0
208	0x00000000	0.0
209	0x00000000	0.0
210	0x00000000	0.0
211	0x00000000	0.0
212	0x00000000	0.0
213	0x00000000	0.0
214	0x00000000	0.0
215	0xbd65c1a3	-0.05609287
216	0x00000000	0.0
217	0x00000000	0.0
218	0x00000000	0.0
219	0x00000000	0.0
220	0x00000000	0.0
221	0x00000000	0.0
222	0x00000000	0.0
223	0x00000000	0.0
224	0x00000000	0.0
225	0x00000000	0.0
226	0x00000000	0.0
227	0xbc95d521	-0.018290104
228	0x00000000	0.0
229	0x00000000	0.0
230	0x00000000	0.0
231	0x00000000	0.0
232	0x00000000	0.0
233	0x00000000	0.0
234	0x00000000	0.0
235	0x00000000	0.0
236	0x00000000	0.0
237	0x00000000	0.0
238	0x00000000	0.0
239	0x3d3e6b4f	0.046489056
240	0x00000000	0.0
241	0x00000000	0.0
242	0x00000000	0.0
243	0x00000000	0.0
244	0x00000000	0.0
245	0x00000000	0.0
246	0x00000000	0.0
247	0x00000000	0.0
248	0x00000000	0.0
249	0x00000000	0.0
250	0x00000000	0.0
251	0x3d7f4658	0.062322944
252	0x00000000	0.0
253	0x00000000	0.0
254	0x00000000	0.0
255	0x00000000	0.0

model.0.weight f4 [512, 96]
0	0xbd8ddf46	-0.06927352
1	0x3d483844	0.048881784
2	0xbb8d5ae1	-0.004313812
3	0x3d004c1e	0.03132259
4	0xbbf45fac	-0.007457694
5	0x3ccfefa0	0.025382817
6	0x3bca783a	0.006178883
7	0x3d588a02	0.05286599
8	0x3dcdd57c	0.100504845
9	0xbce35868	-0.027752116
10	0xbb86bea0	-0.0041120797
11	0x3dbe7c3e	0.09301041
12	0x3d6d8774	0.057990506
13	0xbd5cb8db	-0.05388723
14	0x3d86d93a	0.065844014
15	0xbce62680	-0.02809453
16	0x3d2e92f9	0.042620633
17	0xbdaae49f	-0.08344387
18	0x3d220263	0.039553057
19	0xbd33632d	-0.043795753
20	0xbe01784a	-0.12643543
21	0x3c71023d	0.014710006
22	0x3d89903a	0.06716962
23	0x3d13e849	0.036110196
24	0xbd0d5817	-0.034507837
25	0x3cdb3bf7	0.026761992
26	0xbd976979	-0.07393164
27	0x3d284c81	0.041088585
28	0x3b0cc252	0.0021478129
29	0x3d475524	0.04866518
30	0x3cf0b6f8	0.029384121
31	0x3dd6b557	0.104838066
32	0xbd7324d3	-0.05936129
33	0x3dc02346	0.09381728
34	0x3ddffa58	0.10936421
35	0xbd4cdd7d	-0.050015915
36	0xbd893e32	-0.06701316
37	0x3d5cc8dd	0.053902496
38	0xbda5239d	-0.08063433
39	0xbcf1467c	-0.029452555
40	0x3daf3ab9	0.08556122
41	0x3cfed1c0	0.031105876
42	0xbdb78a91	-0.08961976
43	0xbdb0694f	-0.08613836
44	0xbc0c0854	-0.008546907
45	0xbd4ab3cf	-0.049487885
46	0x3d4e0c15	0.05030449
47	0xbd21b513	-0.039479326
48	0xbd9cebf0	-0.07662189
49	0xbdd2fbce	-0.10301934
50	0x3b7a8b46	0.0038229986
51	0xbc8a3a24	-0.016873427
52	0xbd60bb43	-0.054866087
53	0x3df17d06	0.117914245
54	0x3de125d9	0.10993547
55	0xbc3774d7	-0.01119729
56	0x3d388452	0.045048065
57	0xbc5ee4eb	-0.013604383
58	0xbc97cdd2	-0.01853076
59	0xbd790273	-0.06079335
60	0xbd7d4c15	-0.061840136
61	0xbd1481be	-0.036256544
62	0xbc723ec7	-0.014785475
63	0xbd05031e	-0.032473676
64	0x3c6a0977	0.014284483
65	0x3d83ed68	0.06441766
66	0x3d81eb73	0.063437365
67	0xbc7fa273	-0.015602696
68	0xbc8c4050	-0.01712051
69	0xbc21ebf7	-0.009882919
70	0xbd88b5af	-0.066752784
71	0xbddb7913	-0.107164524
72	0x3cd450e3	0.025917476
73	0x3d9c81d0	0.07641947
74	0x3dad8d5e	0.08474229
75	0xbd8cc150	-0.06872809
76	0x3d62919f	0.055314656
77	0xbd6b23aa	-0.05740706
78	0xbd598e65	-0.053114314
79	0x3d983c2e	0.07433353
80	0xbd802293	-0.062565945
81	0xbc444969	-0.011980393
82	0x3d3e81fd	0.046510685
83	0x3da0137a	0.07816215
84	0x3da0b880	0.078476906
85	0xbdaa9d49	-0.08330781
86	0x3da208fb	0.07911869
87	0xbdad0658	-0.084484756
88	0xbd6e486e	-0.058174543
89	0x3cb3cff9	0.021949755
90	0xbdd72604	-0.10505298
91	0xbd9162b1	-0.07098902
92	0x3c99497b	0.018711796
93	0x3d059097	0.032608595
94	0xbc73bc71	-0.014876471
95	0x3d77e833	0.060524177
96	0xbb576e58	-0.0032872166
97	0x3d0cfad0	0.03441888
98	0x3d1ec21a	0.03875933
99	0xbd672abf	-0.05643725
100	0x3da8b7f9	0.08238215
101	0xbdd6199c	-0.10454103
102	0x3bdc783c	0.0067282002
103	0xbc9159c0	-0.017742991
104	0xbcbd8f64	-0.023139663
105	0xbd1b182b	-0.037864845
106	0x3ca5ae46	0.020224702
107	0xbd94c530	-0.07264173
108	0xbd353fdb	-0.04425035
109	0xbd9db936	-0.07701342
110	0x3d724f05	0.05915739
111	0x3dbbe3b9	0.09174294
112	0x3d023832	0.031791873
113	0xbd957957	-0.07298534
114	0x3d91b8bf	0.07115316
115	0x3c177cbd	0.0092460485
116	0xbcc0b995	-0.023525992
117	0x3d83feb6	0.06445067
118	0x3da5cb13	0.08095374
119	0x3da2b188	0.07944018
120	0xbd41e786	-0.04733994
121	0xbd347b90	-0.04406315
122	0xbd98bda0	-0.07458043
123	0x3d3f5c28	0.046718746
124	0xbda11945	-0.07866148
125	0xbabcace9	-0.0014394793
126	0x3cbafaa4	0.022824593
127	0xbdc4e9c1	-0.096148975
128	0xbda35283	-0.07974722
129	0xbdc74e36	-0.097317144
130	0x3d937688	0.072003424
131	0x3cbe34ce	0.023218539
132	0xbc010bfc	-0.007876392
133	0x3dbb33b1	0.09140719
134	0x39703f7d	0.00022911835
135	0xbdb8f29b	-0.09030648
136	0x3dad3637	0.08457606
137	0x3cc9a2a7	0.024613691
138	0xbb6590af	-0.0035028865
139	0xbcbc2fe5	-0.022972057
140	0xbd8029f5	-0.06258003
141	0x3dc02da4	0.09383705
142	0x3d72d9d3	0.059289765
143	0x3db0a580	0.086253166
144	0x3d95e8ae	0.07319771
145	0xbcb1085f	-0.021610437
146	0xbd1e8bb4	-0.03870745
147	0xbc80ebf4	-0.015737511
148	0x3d5ce5fd	0.05393027
149	0x3cd19663	0.025584405
150	0xbcfdee09	-0.030997293
151	0xbc8c5edb	-0.017135074
152	0xbdb706f4	-0.08936873
153	0xbdeebda0	-0.11657262
154	0xbdd99698	-0.106244266
155	0xbddae029	-0.106872864
156	0xbda486fb	-0.08033558
157	0x3d8dcd65	0.069239415
158	0xbd0af762	-0.03392733
159	0x3d7f0d6d	0.062268663
160	0x3b370f5a	0.0027932734
161	0xbc136f79	-0.008998745
162	0xbd93e828	-0.07222015
163	0xbd49facb	-0.04931144
164	0x3d943383	0.072363876
165	0xba531aea	-0.0008053022
166	0x3b84f513	0.0040575354
167	0xbd630944	-0.05542876
168	0x3c23703f	0.009975492
169	0x3c33bbba	0.0109700505
170	0x3da7f740	0.08201456
171	0xbd8ed565	-0.069742955
172	0x3dbed09a	0.09317131
173	0xbdad6154	-0.084658295
174	0xbd28ddd4	-0.041227177
175	0xbdeb7e7b	-0.114987336
176	0xbd1fef40	-0.039046526
177	0x3cf4a0ef	0.029861895
178	0x3c9508d6	0.01819269
179	0xbc4d9aa7	-0.012549079
180	0xbd87efb3	-0.06637516
181	0x3d875bed	0.0660933
182	0x3c112e9c	0.00886121
183	0xbd0520e6	-0.032502078
184	0xbd1392a1	-0.036028508
185	0x3d906a6d	0.07051549
186	0xbced8ae4	-0.028996892
187	0xbd64eca1	-0.05588973
188	0x3ca483c4	0.020082362
189	0xbd80d99f	-0.06291508
190	0xbd3fa74b	-0.046790402
191	0x3cd9ed3f	0.026602386
192	0x3cb0c5d6	0.02157871
193	0xbce54224	-0.02798564
194	0xbce4bf7e	-0.027923342
195	0x3c4dcbcc	0.012560796
196	0x3d908ceb	0.07058128
197	0xbd75ef9e	-0.06004297
198	0x3d2364fc	0.039891228
199	0x3daced29	0.08443672
200	0xbd2ac0be	-0.04168772
201	0x3db6bddb	0.08922931
202	0x3dd56d7d	0.10421274
203	0xbd12dc37	-0.035854544
204	0xbd65d420	-0.0561105
205	0x3b070e7b	0.0020607996
206	0xbcd98027	-0.026550366
207	0x3d7b60d3	0.061371636
208	0x3d4f3631	0.05058879
209	0xbd7bd568	-0.061482817
210	0x3cf98415	0.03045849
211	0xbdae56aa	-0.085126236
212	0x3db02b81	0.08602048
213	0xbdb08f65	-0.086211
214	0xbdc2c178	-0.095095575
215	0xbd13a423	-0.036045205
216	0x3d57929c	0.052630052
217	0x3d8e5657	0.06950062
218	0x3d916922	0.071001306
219	0x3d3140db	0.04327474
220	0xbdaaf2d5	-0.08347098
221	0x3db811b7	0.08987754
222	0xbbbf1219	-0.005831015
223	0xbd27eee2	-0.0409993
224	0x3dc84f8c	0.09780797
225	0x3dbfca40	0.09364748
226	0x3de2044f	0.11035978
227	0xbcca361d	-0.024684006
228	0x3d79cb8a	0.060985126
229	0x3dc0f449	0.09421594
230	0x3d9b55f1	0.075847514
231	0x3d52f507	0.051503208
232	0x3cf915bd	0.030405873
233	0xbd6a0c96	-0.05714091
234	0xbbf9fe45	-0.0076291882
235	0x3d9cb5d6	0.0765187
236	0xbdb8f67d	-0.09031389
237	0xbcda9e26	-0.02668674
238	0x3d871c18	0.06597155
239	0xbdb333fa	-0.08750148
240	0xbdb95975	-0.09050266
241	0xbb9de3d3	-0.0048184185
242	0x3d25a13a	0.04043696
243	0x3d80e388	0.06293398
244	0xbd773365	-0.060351748
245	0xbd1d19f0	-0.038354814
246	0x3c9fd1a2	0.01950914
247	0x3cd73dd3	0.026274597
248	0x3dbafb0d	0.091299154
249	0x3dada96e	0.08479582
250	0x3be82ee5	0.0070856684
251	0x3d699179	0.0570235
252	0xbd89f8a7	-0.0673688
253	0xbd4d29a0	-0.050088525
254	0x3c61507d	0.0137521
255	0x3d8071bc	0.06271693

model.0.bias f4 [512]
0	0x3d7e61f0	0.06210512
1	0xbcd02edd	-0.025412971
2	0xbc815060	-0.015785396
3	0xbd690c3a	-0.056896426
4	0x3d9d53c4	0.07681993
5	0x3d87c915	0.0663015
6	0xbd055192	-0.032548495
7	0x3d3afce6	0.04565134
8	0x3b31ccc7	0.0027130113
9	0x3cce9d39	0.025221454
10	0xbb9b160f	-0.004732854
11	0xbd7e4d99	-0.06208572
12	0x3b11b817	0.002223497
13	0x3cf60461	0.030031385
14	0x3daec5f9	0.08533854
15	0xbce2277a	-0.027606715
16	0x3dd2ec97	0.10299032
17	0x3cd14583	0.025545841
18	0x3c80795b	0.015682867
19	0xbd2c2e04	-0.04203607
20	0x3d875257	0.06607502
21	0xbcca5477	-0.02469848
22	0xbd053790	-0.03252369
23	0x3d86d3bc	0.06583354
24	0x3d0f4899	0.034981344
25	0x3d25e861	0.040504817
26	0xbded8850	-0.11598265
27	0xbd09769a	-0.033560373
28	0x3d905d0c	0.07048997
29	0x3d0ffdf8	0.035154313
30	0x3b3e6983	0.002905459
31	0xbd308cb7	-0.043102946
32	0xbb81b582	-0.003958405
33	0x3c642ca4	0.013926659
34	0xbd0d7465	-0.03453483
35	0xbdae591d	-0.08513091
36	0x3a8c5e39	0.0010709233
37	0xbd91b6d0	-0.07114947
38	0x3c9dbdd9	0.019255565
39	0x3c90f457	0.017694635
40	0xba3cc642	-0.00072011736
41	0xbd60f4df	-0.054921027
42	0xbca66f7d	-0.020316834
43	0xbd3e2b5f	-0.04642808
44	0x3d93f87d	0.0722513
45	0x3d16730d	0.036730815
46	0x3d8412ad	0.064488746
47	0xbda91136	-0.08255236
48	0x3cf2f455	0.029657522
49	0x3be136ea	0.0068730013
50	0xbcde060f	-0.027102498
51	0xbdd4e479	-0.1039514
52	0xbda9a20d	-0.08282862
53	0xbdd946a7	-0.10609179
54	0x3d9332ff	0.07187461
55	0x3d1ff8ec	0.03905575
56	0x3db83a91	0.08995546
57	0x3c75f837	0.015012792
58	0x3dca1b81	0.09868527
59	0xbccc1494	-0.024912156
60	0xbdb356eb	-0.08756813
61	0xbd660b82	-0.05616332
62	0xbda640ff	-0.08117866
63	0xbc9a0420	-0.018800795
64	0x3dd665c6	0.104686305
65	0x3cbfab3e	0.023397084
66	0xbd9e4295	-0.07727543
67	0x3da41f8f	0.08013832
68	0x3dbd858c	0.09253988
69	0xbd155fb0	-0.036468208
70	0xbc368c00	-0.011141777
71	0x3b57ad6e	0.0032909769
72	0x3c57b2b8	0.013165168
73	0xbd29bdfb	-0.041440945
74	0x3d1e0030	0.038574398
75	0x3d26b5a7	0.04070058
76	0xbc5a0408	-0.013306625
77	0xbd17810f	-0.036988314
78	0xbaaad950	-0.0013034735
79	0x3d8b92c4	0.06815103
80	0x3d8ca15c	0.06866714
81	0x3dadf181	0.08493329
82	0xbda48214	-0.08032623
83	0x3afcb50e	0.0019280033
84	0x3b830367	0.0039982083
85	0x3d2a9798	0.041648477
86	0x3c88b8de	0.016689714
87	0xbd87b42d	-0.06626163
88	0xbda5dba5	-0.080985345
89	0xbda52b04	-0.08064845
90	0xbd98557a	-0.07438178
91	0xbd7d5bf7	-0.061855283
92	0xbdb78c61	-0.08962322
93	0x3dc17edc	0.09448025
94	0xbd1115ed	-0.0354213
95	0xbd66ef2c	-0.056380436
96	0xbc5f5306	-0.013630634
97	0xbc902218	-0.017594382
98	0x3d256436	0.04037877
99	0x3bdefa31	0.0068047275
100	0x3d5e3fae	0.05425995
101	0xbdafc827	-0.08583098
102	0x3d6f4ca2	0.058422692
103	0xbc9779c2	-0.018490676
104	0xbd8a863e	-0.06763886
105	0xbcca1233	-0.024666881
106	0xbd366b2e	-0.04453581
107	0xbdb5d8f4	-0.08879271
108	0x3c3dd67c	0.011586782
109	0xbba4ab0c	-0.005025273
110	0xbdbb9c79	-0.09160704
111	0xbda3343f	-0.079689495
112	0x3be32721	0.0069321548
113	0xb9631b85	-0.00021658659
114	0x3c8a677f	0.016895054
115	0x3d3471b7	0.04405376
116	0x3d827fea	0.06372054
117	0x3c4e8f86	0.012607461
118	0x3dc069e7	0.09395199
119	0xbbbfeeb8	-0.005857315
120	0x3d447eeb	0.0479726
121	0xbda5fbe5	-0.08104686
122	0xbdc0f7ba	-0.0942225
123	0xbd9c3b14	-0.07628456
124	0xbc823b25	-0.015897343
125	0xbd9be164	-0.07611349
126	0x3ddf8f31	0.109159835
127	0xbd250942	-0.040292032
128	0xbd144d0f	-0.0362063
129	0xbd5b1330	-0.053485096
130	0x3d3634a5	0.0444838
131	0xbd4d5010	-0.05012518
132	0xbc5d29e6	-0.013498759
133	0x3d65b5af	0.05608147
134	0xbdb0a932	-0.086260214
135	0x3dd63549	0.10459382
136	0xbd1d84c2	-0.038456686
137	0x3ce643b9	0.028108465
138	0x3d70e4b6	0.058811866
139	0x3daeb31e	0.08530258
140	0x3db48dfb	0.08816143
141	0x3cf19377	0.029489262
142	0xbd5b0949	-0.053475652
143	0x3c6187c4	0.013765279
144	0x3d8541cc	0.065066904
145	0x3d02884e	0.03186827
146	0x3d87c522	0.06629397
147	0x3d83ea6e	0.06441198
148	0xbda56937	-0.08076709
149	0xbb304e79	-0.0026902242
150	0xbd71ca9b	-0.05903111
151	0x3d6502eb	0.055910986
152	0xbda02b1b	-0.07820722
153	0x3d580a1e	0.052744024
154	0x3d8e254f	0.0694071
155	0xbcd6951c	-0.026194148
156	0x3db859c3	0.09001496
157	0xbd51a4f1	-0.05118269
158	0x3db590d9	0.08865518
159	0xbd3ce84a	-0.046119966
160	0x3ca442d0	0.02005139
161	0x3c028104	0.00796533
162	0xbc87c0d5	-0.016571442
163	0x3da47858	0.08030766
164	0xbdbc5c24	-0.09197262
165	0x3dd77efa	0.10522266
166	0x3dc4b95c	0.09605667
167	0x3cb6dc81	0.022321941
168	0x3dd878a5	0.10569886
169	0x3dbb1fcc	0.09136924
170	0xbd88a23c	-0.06671569
171	0x3d006e9a	0.031355478
172	0xb90d2422	-0.00013460268
173	0x3c68747d	0.014187929
174	0xbd664a9c	-0.056223497
175	0x3da46309	0.08026702
176	0x3cfec53d	0.03109991
177	0xbd9bfcba	-0.07616563
178	0xbbd7e34f	-0.0065883766
179	0x3d40b16d	0.047044206
180	0xbd326e7f	-0.04356241
181	0x3c79f34b	0.0152557595
182	0x3af09b2d	0.0018356793
183	0xbd01b85f	-0.03166997
184	0xbd1064ac	-0.03525226
185	0xbd77f217	-0.06053361
186	0xbd91a34c	-0.071112245
187	0x3dcafe84	0.09911826
188	0xbcfe7678	-0.03106235
189	0x3d8213e8	0.06351453
190	0x3b91a06f	0.004444174
191	0x3d984edb	0.074369155
192	0x3dbd54d4	0.09244695
193	0x3ca1ea10	0.01976493
194	0xbd4602d8	-0.048342556
195	0x3bd3a4e8	0.0064588673
196	0xbd183fc1	-0.037170175
197	0xbce189da	-0.027531553
198	0x3d3d47fa	0.04621122
199	0xbd8e10fe	-0.06936835
200	0x3de15459	0.11002416
201	0x3d8a709f	0.06759762
202	0x3ca4e8e2	0.020130578
203	0x3dbe9c8a	0.09307201
204	0xbd6b7bde	-0.057491176
205	0xbd8fd058	-0.0702216
206	0xbb45c692	-0.0030178172
207	0xbc8f5ac1	-0.01749933
208	0xbdc00824	-0.09376553
209	0xbcc0194f	-0.023449568
210	0x3d0d4976	0.034493886
211	0xbda3f6e4	-0.08006075
212	0xbda88cd6	-0.08229987
213	0x3c9695d4	0.01838199
214	0x3bc6681e	0.006054892
215	0x3c2d9ebc	0.010596927
216	0xbd044884	-0.03229572
217	0xbc96623d	-0.01835739
218	0xbd957973	-0.07298555
219	0x3dbe7781	0.09300137
220	0xbb82c5f9	-0.0039908853
221	0xbdb0264a	-0.08601053
222	0x3cb9cc6e	0.022680487
223	0x3d0c4626	0.034246586
224	0x3c4e667a	0.0125976745
225	0xbc510676	-0.012757888
226	0x3d8f0ee5	0.06985263
227	0xbc073e38	-0.00825458
228	0xbd6810c7	-0.056656625
229	0x3c2d7d51	0.01058896
230	0x3d7e6482	0.06210757
231	0x3d3408f5	0.043953855
232	0xbd22ba1e	-0.039728276
233	0xbd81e14a	-0.063417986
234	0x3c9b01ca	0.018921752
235	0x3bc85cde	0.0061145863
236	0x3da77293	0.0817615
237	0x3df90660	0.12159419
238	0xbbfb35ab	-0.00766631
239	0xbcc1edba	-0.023672927
240	0xbdaedcb8	-0.085381925
241	0xbdafc5f5	-0.08582679
242	0xbd7ca480	-0.061680317
243	0xbd6e17ae	-0.05812805
244	0xbd98933b	-0.07449957
245	0x3dcda24c	0.10040721
246	0x3d9edaab	0.07756551
247	0x3cc4f5f4	0.02404306
248	0xbccef484	-0.025263079
249	0x3d8ab277	0.06772321
250	0x3d8ed6ed	0.069745876
251	0xbbc04b4f	-0.0058683525
252	0xbd06831d	-0.032839883
253	0x3dc352b3	0.09537258
254	0x3d6a2ea1	0.057173375
255	0xbcd6a2d7	-0.026200695

model.2.weight f4 [96, 512]
0	0x3c354cd8	0.011065684
1	0x3cdd2777	0.026996357
2	0x3cde2095	0.027115146
3	0x3c7ef332	0.015560912
4	0x3b79af48	0.003809886
5	0x3b863cc6	0.0040966
6	0x3cb2cdce	0.021826651
7	0x3caead54	0.021322884
8	0x3cc77f2c	0.024352632
9	0xbcb1b236	-0.021691423
10	0xbcac4e1b	-0.021033337
11	0xbcd339f7	-0.025784476
12	0xbc4310e0	-0.011905879
13	0xbd8aa668	-0.06770021
14	0x3d0811c1	0.033220056
15	0xbbef29d1	-0.007298686
16	0x3d60f0c7	0.054917123
17	0xbcd5e585	-0.02611042
18	0xbc930f97	-0.01795177
19	0x3d0280d8	0.031861156
20	0xbccdea85	-0.025136242
21	0x3b3530b3	0.0027647435
22	0x3d4f25da	0.050573207
23	0x3d1dd218	0.03853044
24	0xbcd15716	-0.025554221
25	0xb9984051	-0.0002903962
26	0xbd198955	-0.037484486
27	0x3d207ec5	0.039183397
28	0xbd384514	-0.044987753
29	0xbcf24413	-0.029573476
30	0xbd28610d	-0.04110818
31	0x3c78a124	0.015175138
32	0x3d58c08b	0.052918
33	0xbc8a5099	-0.016884135
34	0x3d56da26	0.052454136
35	0x3b85bcba	0.004081336
36	0xbc4b4a31	-0.012407825
37	0xbbbd5519	-0.0057779667
38	0xbc6915df	-0.014226406
39	0x3d47b6bc	0.048758253
40	0xbd397fbb	-0.04528783
41	0x3b1faae8	0.0024363343
42	0xbd1d8872	-0.038460203
43	0x3c4a5fa9	0.012351909
44	0xbafb9023	-0.0019192736
45	0x3c247ccf	0.010039522
46	0xbb511920	-0.0031905845
47	0xbd325919	-0.043542
48	0xbcadbb32	-0.021207426
49	0x3d3acfb9	0.045608256
50	0xbcdfa6a2	-0.027301136
51	0x3c3e9778	0.011632793
52	0xbc528b19	-0.012850546
53	0x3c03f259	0.008053386
54	0xbc1b2199	-0.0094684595
55	0xbd28801d	-0.041137803
56	0x3d02543e	0.03181862
57	0x3c9eca65	0.019383619
58	0x3ce55942	0.027996663
59	0xbd1ef6a2	-0.038809426
60	0x3c74b224	0.01493505
61	0xbd7d60d9	-0.06185994
62	0xbd1b665d	-0.037939418
63	0x3d028b04	0.031870857
64	0x3d152237	0.036409583
65	0x3be16801	0.0068788533
66	0x3ccb0ce7	0.024786426
67	0xbc888719	-0.016665982
68	0xbc896060	-0.016769588
69	0xbc606988	-0.013697036
70	0x3c1266ca	0.00893564
71	0xbd112738	-0.035437793
72	0x3a124761	0.00055800943
73	0x3d35c6e1	0.04437912
74	0x3ce63824	0.028102942
75	0xbcb42489	-0.021990078
76	0x3d08e0fe	0.033417694
77	0x3ba46077	0.0050163823
78	0x39af25a1	0.00033406637
79	0x3d570502	0.05249501
80	0x3cfc065c	0.030764751
81	0xbc64d9e8	-0.0139679685
82	0x3cb38c67	0.021917535
83	0xbcdd1cc9	-0.026991265
84	0x3d377ba4	0.044795647
85	0xbcc786f0	-0.024356335
86	0x3c9d1e4d	0.019179488
87	0x3b66dd5f	0.0035227162
88	0x3d0e9d29	0.03481785
89	0xbd960832	-0.07325782
90	0xbc374c2c	-0.011187594
91	0xbb30c299	-0.0026971458
92	0x3c27d79a	0.0102442745
93	0x3d2c6322	0.042086728
94	0xbb7c8b7f	-0.0038535295
95	0x3c8fa553	0.017534887
96	0x3cfff93a	0.03124677
97	0xbd19f5ae	-0.037587814
98	0xbd6b7545	-0.057484884
99	0xbb296f0a	-0.0025853538
100	0x3ca49433	0.020090198
101	0xbc08703c	-0.00832754
102	0xbc0d7a24	-0.008635078
103	0x3c7ed0e8	0.015552737
104	0xbc7e355a	-0.01551565
105	0xbc5edbf0	-0.013602242
106	0xbd16100f	-0.03663641
107	0x3bebcc8c	0.0071960147
108	0x3cba4a70	0.022740573
109	0xbba340b1	-0.004982077
110	0xbca92dc0	-0.020651698
111	0x3ce49798	0.027904317
112	0xbd03562c	-0.0320646
113	0xbcfc10df	-0.030769764
114	0xbd0d6d5f	-0.034528133
115	0xbc2be4bd	-0.010491547
116	0xbc756461	-0.0149775455
117	0xbcbd05a3	-0.023073977
118	0x3d3bb838	0.04582998
119	0xbd435e2d	-0.047697235
120	0x3bc536a4	0.0060184766
121	0x3b6da8ab	0.0036263864
122	0x3c5d4b2c	0.013506692
123	0x3c73c438	0.014878325
124	0xbdadc0db	-0.0848405
125	0xbc46e591	-0.012139694
126	0xbd02673b	-0.03183673
127	0x3d2f7f24	0.04284586
128	0x3d34a884	0.04410602
129	0xbc81c8dc	-0.015842848
130	0x3d305c24	0.043056622
131	0xbce0eb86	-0.027456056
132	0xbc14ae7a	-0.009074802
133	0x3c362a30	0.011118457
134	0xbce4f400	-0.02794838
135	0x3bd18e6a	0.006395151
136	0x3c245a7c	0.010031339
137	0x3c67b4b8	0.014142208
138	0xbbd5fb28	-0.0065301843
139	0xbcc7706d	-0.024345601
140	0x3d306d4a	0.043072976
141	0xbcd2d055	-0.025734106
142	0x3d4c4221	0.049867753
143	0xbbe13b51	-0.006873526
144	0x3cae6f8f	0.02129343
145	0xbcd9dfe8	-0.026596025
146	0xbcb6b718	-0.022304103
147	0xbd75a2bc	-0.05996965
148	0x3ca21ef9	0.01979016
149	0x3c90b7cf	0.017665772
150	0x3cc10103	0.023560053
151	0x3d3a67e3	0.04550923
152	0xbbb2335f	-0.005438253
153	0x3d2639a6	0.04058232
154	0x3d046c38	0.032329768
155	0xbcddb8ee	-0.02706572
156	0x3c9fd691	0.019511493
157	0x3cf147ef	0.029453246
158	0xba84e0f6	-0.0010137844
159	0xbc0d6420	-0.008629829
160	0x3b007361	0.0019600021
161	0xbd0a1656	-0.033712707
162	0x3c4cfc15	0.012511273
163	0xbccb88bd	-0.024845475
164	0x3cab4797	0.02090816
165	0x3d2e8b1e	0.04261314
166	0x3caa06e3	0.020755237
167	0x3c865e4b	0.016402384
168	0xbb1d9896	-0.0024047247
169	0x3d350725	0.044196267
170	0x3c8a3533	0.01687107
171	0xbc38f80a	-0.011289606
172	0x3d26a2c7	0.04068258
173	0xbccbba35	-0.024869064
174	0x3c96e53d	0.018419856
175	0x3c0592f4	0.008152712
176	0x3d3dfc46	0.046383165
177	0xbcc9f9c2	-0.024655227
178	0x3d082386	0.033237003
179	0xbbfb16e4	-0.007662641
180	0x3cccffe0	0.025024354
181	0x3c00e7e6	0.007867789
182	0xbd1a113d	-0.037614096
183	0xbd160c43	-0.036632787
184	0xbc268e1d	-0.010165718
185	0x3d05c709	0.032660518
186	0xbd36a47c	-0.04459046
187	0x3d0566ac	0.03256862
188	0xbc09a053	-0.008400041
189	0xbd1a3907	-0.03765204
190	0x3d06da33	0.032922935
191	0xbc6747f6	-0.014116278
192	0x3c83e653	0.016101038
193	0xbc17e3e5	-0.009270643
194	0x3b5561dc	0.003255955
195	0x3b7ac8ea	0.0038266727
196	0xbb8c9a08	-0.004290823
197	0xbab5da95	-0.0013874347
198	0x3cb97ea6	0.022643398
199	0x3d16e40b	0.036838572
200	0xbc322d0e	-0.010875
201	0x3c4d7acb	0.012541483
202	0xbceab03c	-0.028648488
203	0x3d6df77d	0.05809735
204	0x3d49b257	0.049242344
205	0xbcff2eff	-0.03115034
206	0xbbd540fb	-0.0065079904
207	0x3d87e76a	0.066359356
208	0xbc3ed609	-0.01164771
209	0x3b37c658	0.0028041806
210	0x3b21f2ab	0.0024711292
211	0xbcb4c2c0	-0.02206552
212	0x3cab1e22	0.020888392
213	0xbbee9d8c	-0.0072819646
214	0xbc58d20c	-0.013233673
215	0xbbe7bca0	-0.0070720464
216	0x3cc61e05	0.024184236
217	0xbc953918	-0.018215701
218	0x3cf249b4	0.02957616
219	0xbc22eb66	-0.009943819
220	0x3d323706	0.043509506
221	0x3cf30730	0.029666513
222	0x3ce29b9b	0.02766209
223	0x3d3893d0	0.04506284
224	0x3cee561e	0.029093798
225	0x3d1a4287	0.0376611
226	0x3d876ca3	0.06612518
227	0x3c6ab4d8	0.014325343
228	0x3c6ecd66	0.014575338
229	0xbc155959	-0.00911554
230	0xbd245375	-0.040118653
231	0x3d1d5933	0.038415145
232	0xbd1e7359	-0.038684223
233	0x3c5217f8	0.012823097
234	0xbcebd516	-0.02878813
235	0x3c9f5555	0.01944987
236	0x3b84b065	0.004049348
237	0x3d297ea1	0.04138053
238	0x3cafe6b9	0.021472322
239	0xbd0dada0	-0.03458941
240	0xbd108e35	-0.03529187
241	0xbaa93128	-0.0012908326
242	0x3c953542	0.018213872
243	0xbd56b967	-0.052422907
244	0x3cab8b0a	0.020940322
245	0xbca124fa	-0.019670952
246	0x3c94a105	0.018143186
247	0xbd05784b	-0.032585423
248	0xb9e5823f	-0.00043775325
249	0xbb258644	-0.002525703
250	0x3bf275cf	0.007399298
251	0x3cd92a90	0.026509553
252	0x3d0b4383	0.03399993
253	0xbca2f2fd	-0.019891256
254	0x3d0b829a	0.0340601
255	0x3d4d0964	0.050057784

model.2.bias f4 [96]
0	0x3d00600b	0.031341594
1	0x3bf0f5b4	0.007353509
2	0xbc05decd	-0.008170796
3	0x3d4f92fc	0.050677285
4	0x3d14938f	0.036273535
5	0xbce4597f	-0.027874706
6	0x3c35fd72	0.011107789
7	0xbafe9ef7	-0.0019426037
8	0xba420022	-0.00074005325
9	0x3c514af8	0.012774222
10	0xbc0cb5ff	-0.008588313
11	0x3c0638db	0.008192266
12	0x3d5f1756	0.054465614
13	0x3d38440c	0.04498677
14	0x3d275d31	0.04086036
15	0x3d165a5b	0.036707263
16	0x3d37cc78	0.04487273
17	0xbc4bf3cc	-0.012448262
18	0xbb788ca2	-0.003792562
19	0xbc3df40f	-0.011593833
20	0x3d4ad202	0.049516685
21	0x3ca31ee8	0.019912198
22	0x3b253966	0.0025211214
23	0x3c8e82f7	0.017396433
24	0x3cef5f5a	0.029220272
25	0xbd115568	-0.03548184
26	0xbcde8d48	-0.027166978
27	0x3cebd985	0.028790245
28	0x3d374fde	0.0447539
29	0x3d189ddc	0.03725992
30	0x3d396cf4	0.04526992
31	0xbc9eced4	-0.019385733
32	0x3d1f9d17	0.038968172
33	0x3c7df807	0.015501029
34	0xbc1869cd	-0.009302569
35	0x3d5d8a54	0.054086998
36	0x3d2997ed	0.041404653
37	0x3d1fb50a	0.03899101
38	0xbc99b4ea	-0.018763024
39	0x3d24fbc0	0.04027915
40	0x3d47ed20	0.048810124
41	0x3d0c913f	0.034318205
42	0x3d57c48d	0.05267768
43	0x3d3ad48d	0.04561286
44	0x3b88ab51	0.004170813
45	0x3d4e8980	0.0504241
46	0x3d36608e	0.044525675
47	0x3d235c27	0.039882805
48	0xbb6a9b0b	-0.003579798
49	0x3c218bcb	0.009859989
50	0xbb73d13a	-0.0037203566
51	0x3d4bb9d9	0.049737785
52	0x3c58b5db	0.0132269515
53	0x3d244ee2	0.04011429
54	0x3c0cd5e9	0.008595922
55	0xbc7e48e0	-0.015520304
56	0x3cce4435	0.025179008
57	0x3d0e6822	0.034767278
58	0x3bea1f52	0.007144847
59	0x3d5208ec	0.05127804
60	0x3bb17a5e	0.0054161986
61	0x3cc427e4	0.023944803
62	0x3d4a4a94	0.04938753
63	0xbd00894d	-0.03138094
64	0x3c6fc002	0.014633181
65	0xbc86f71d	-0.016475255
66	0x3d3fd215	0.04683121
67	0xbcbde6a1	-0.023181261
68	0x3a0c78ab	0.0005358557
69	0x3d25dd67	0.04049435
70	0xbbb788b5	-0.0056010135
71	0xbaa42cbd	-0.001252554
72	0xbc7318a3	-0.014837417
73	0xbce4c182	-0.027924303
74	0x3cc24449	0.023714202
75	0xbbe00e8f	-0.006837673
76	0x3cb7b47b	0.022424927
77	0xbabf8cfe	-0.0014614163
78	0x3d00af91	0.031417433
79	0x3c5bf6c9	0.013425537
80	0x3ced87f4	0.028995492
81	0x3c990980	0.018681288
82	0xbb23a41a	-0.0024969638
83	0x3cbd1ece	0.023085978
84	0x3c357c52	0.011077004
85	0x3bf69356	0.007524888
86	0x3ce1eeff	0.027579783
87	0xbcea9949	-0.028637545
88	0x3d40a382	0.047030933
89	0x3c801b17	0.015637917
90	0xbb282045	-0.0025654
91	0xbcf00f41	-0.029304149
92	0xbb2b1186	-0.0026102974
93	0x3cad24a3	0.021135634
94	0x3c6f4a6c	0.014605146
95	0xbc7419b9	-0.014898711
