checkpoints/solar_data_CycleNet_solar_data_ftMS_sl336_ll48_pl72/checkpoint.pth (torch, 841511 bytes, 5 tensors)

cycleQueue.data f4 [24, 12]
000000 00 00 00 00 00 00 00 00 00 00 00 00 00 00 00 00
       0.0 0.0 0.0 0.0
000010 00 00 00 00 00 00 00 00 00 00 00 00 00 00 00 00
       0.0 0.0 0.0 0.0
000020 00 00 00 00 00 00 00 00 00 00 00 00 de 16 20 bc
       0.0 0.0 0.0 -0.009771077
000030 00 00 00 00 00 00 00 00 00 00 00 00 00 00 00 00
       0.0 0.0 0.0 0.0
000040 00 00 00 00 00 00 00 00 00 00 00 00 00 00 00 00
       0.0 0.0 0.0 0.0
000050 00 00 00 00 00 00 00 00 00 00 00 00 b2 4e c3 bb
       0.0 0.0 0.0 -0.005960309
000060 00 00 00 00 00 00 00 00 00 00 00 00 00 00 00 00
       0.0 0.0 0.0 0.0
000070 00 00 00 00 00 00 00 00 00 00 00 00 00 00 00 00
       0.0 0.0 0.0 0.0
000080 00 00 00 00 00 00 00 00 00 00 00 00 44 42 76 3b
       0.0 0.0 0.0 0.0037576118
000090 00 00 00 00 00 00 00 00 00 00 00 00 00 00 00 00
       0.0 0.0 0.0 0.0
0000a0 00 00 00 00 00 00 00 00 00 00 00 00 00 00 00 00
       0.0 0.0 0.0 0.0
0000b0 00 00 00 00 00 00 00 00 00 00 00 00 13 a5 84 3c
       0.0 0.0 0.0 0.016191995
0000c0 00 00 00 00 00 00 00 00 00 00 00 00 00 00 00 00
       0.0 0.0 0.0 0.0
0000d0 00 00 00 00 00 00 00 00 00 00 00 00 00 00 00 00
       0.0 0.0 0.0 0.0
0000e0 00 00 00 00 00 00 00 00 00 00 00 00 87 6b f9 3b
       0.0 0.0 0.0 0.007611695
0000f0 00 00 00 00 00 00 00 00 00 00 00 00 00 00 00 00
       0.0 0.0 0.0 0.0
000100 00 00 00 00 00 00 00 00 00 00 00 00 00 00 00 00
       0.0 0.0 0.0 0.0
000110 00 00 00 00 00 00 00 00 00 00 00 00 8f 10 41 bd
       0.0 0.0 0.0 -0.047134932
000120 00 00 00 00 00 00 00 00 00 00 00 00 00 00 00 00
       0.0 0.0 0.0 0.0
000130 00 00 00 00 00 00 00 00 00 00 00 00 00 00 00 00
       0.0 0.0 0.0 0.0
000140 00 00 00 00 00 00 00 00 00 00 00 00 7d 38 85 bd
       0.0 0.0 0.0 -0.06504915
000150 00 00 00 00 00 00 00 00 00 00 00 00 00 00 00 00
       0.0 0.0 0.0 0.0
000160 00 00 00 00 00 00 00 00 00 00 00 00 00 00 00 00
       0.0 0.0 0.0 0.0
000170 00 00 00 00 00 00 00 00 00 00 00 00 ff c0 e6 bb
       0.0 0.0 0.0 -0.00704205
000180 00 00 00 00 00 00 00 00 00 00 00 00 00 00 00 00
       0.0 0.0 0.0 0.0
000190 00 00 00 00 00 00 00 00 00 00 00 00 00 00 00 00
       0.0 0.0 0.0 0.0
0001a0 00 00 00 00 00 00 00 00 00 00 00 00 a9 b4 7d 3d
       0.0 0.0 0.0 0.06193987
0001b0 00 00 00 00 00 00 00 00 00 00 00 00 00 00 00 00
       0.0 0.0 0.0 0.0
0001c0 00 00 00 00 00 00 00 00 00 00 00 00 00 00 00 00
       0.0 0.0 0.0 0.0
0001d0 00 00 00 00 00 00 00 00 00 00 00 00 98 56 54 3d
       0.0 0.0 0.0 0.051840395
0001e0 00 00 00 00 00 00 00 00 00 00 00 00 00 00 00 00
       0.0 0.0 0.0 0.0
0001f0 00 00 00 00 00 00 00 00 00 00 00 00 00 00 00 00
       0.0 0.0 0.0 0.0
000200 00 00 00 00 00 00 00 00 00 00 00 00 ab eb 86 3c
       0.0 0.0 0.0 0.016469797
000210 00 00 00 00 00 00 00 00 00 00 00 00 00 00 00 00
       0.0 0.0 0.0 0.0
000220 00 00 00 00 00 00 00 00 00 00 00 00 00 00 00 00
       0.0 0.0 0.0 0.0
000230 00 00 00 00 00 00 00 00 00 00 00 00 b1 84 18 3d
       0.0 0.0 0.0 0.03723592
000240 00 00 00 00 00 00 00 00 00 00 00 00 00 00 00 00
       0.0 0.0 0.0 0.0
000250 00 00 00 00 00 00 00 00 00 00 00 00 00 00 00 00
       0.0 0.0 0.0 0.0
000260 00 00 00 00 00 00 00 00 00 00 00 00 d7 e1 a3 3c
       0.0 0.0 0.0 0.02000515
000270 00 00 00 00 00 00 00 00 00 00 00 00 00 00 00 00
       0.0 0.0 0.0 0.0
000280 00 00 00 00 00 00 00 00 00 00 00 00 00 00 00 00
       0.0 0.0 0.0 0.0
000290 00 00 00 00 00 00 00 00 00 00 00 00 40 d6 ec 3b
       0.0 0.0 0.0 0.007227689
0002a0 00 00 00 00 00 00 00 00 00 00 00 00 00 00 00 00
       0.0 0.0 0.0 0.0
0002b0 00 00 00 00 00 00 00 00 00 00 00 00 00 00 00 00
       0.0 0.0 0.0 0.0
0002c0 00 00 00 00 00 00 00 00 00 00 00 00 68 85 2e 3d
       0.0 0.0 0.0 0.042607695
0002d0 00 00 00 00 00 00 00 00 00 00 00 00 00 00 00 00
       0.0 0.0 0.0 0.0
0002e0 00 00 00 00 00 00 00 00 00 00 00 00 00 00 00 00
       0.0 0.0 0.0 0.0
0002f0 00 00 00 00 00 00 00 00 00 00 00 00 67 94 5f 3d
       0.0 0.0 0.0 0.054584887
000300 00 00 00 00 00 00 00 00 00 00 00 00 00 00 00 00
       0.0 0.0 0.0 0.0
000310 00 00 00 00 00 00 00 00 00 00 00 00 00 00 00 00
       0.0 0.0 0.0 0.0
000320 00 00 00 00 00 00 00 00 00 00 00 00 01 32 9f 3b
       0.0 0.0 0.0 0.004858256
000330 00 00 00 00 00 00 00 00 00 00 00 00 00 00 00 00
       0.0 0.0 0.0 0.0
000340 00 00 00 00 00 00 00 00 00 00 00 00 00 00 00 00
       0.0 0.0 0.0 0.0
000350 00 00 00 00 00 00 00 00 00 00 00 00 b0 7f 36 bd
       0.0 0.0 0.0 -0.044555366
000360 00 00 00 00 00 00 00 00 00 00 00 00 00 00 00 00
       0.0 0.0 0.0 0.0
000370 00 00 00 00 00 00 00 00 00 00 00 00 00 00 00 00
       0.0 0.0 0.0 0.0
000380 00 00 00 00 00 00 00 00 00 00 00 00 72 38 2f bd
       0.0 0.0 0.0 -0.04277844
000390 00 00 00 00 00 00 00 00 00 00 00 00 00 00 00 00
       0.0 0.0 0.0 0.0
0003a0 00 00 00 00 00 00 00 00 00 00 00 00 00 00 00 00
       0.0 0.0 0.0 0.0
0003b0 00 00 00 00 00 00 00 00 00 00 00 00 79 85 8d ba
       0.0 0.0 0.0 -0.0010797224
0003c0 00 00 00 00 00 00 00 00 00 00 00 00 00 00 00 00
       0.0 0.0 0.0 0.0
0003d0 00 00 00 00 00 00 00 00 00 00 00 00 00 00 00 00
       0.0 0.0 0.0 0.0
0003e0 00 00 00 00 00 00 00 00 00 00 00 00 ec 9f 34 3c
       0.0 0.0 0.0 0.0110244565
0003f0 00 00 00 00 00 00 00 00 00 00 00 00 00 00 00 00
       0.0 0.0 0.0 0.0

model.0.weight f4 [512, 336]
000000 87 85 26 bc 91 36 f9 3c 9b d1 cc 3c 08 01 26 3c
       -0.010163671 0.030421527 0.025002291 0.010132082
000010 cb 08 41 bd 2e ff 36 bb 79 70 41 bd 06 79 42 3d
       -0.047127526 -0.0027923095 -0.047226403 0.0474787
000020 7a 96 c9 bc c2 6c 87 bc 80 da 40 bc 88 48 2c 3c
       -0.024607886 -0.016531352 -0.011770844 0.01051534
000030 38 43 fd 3c 0e 8d b2 bc a7 d1 bf ba fb 7e 35 bd
       0.030915841 -0.021795776 -0.0014634625 -0.04431055
000040 52 f4 4d bd eb c0 30 bd 38 d9 60 bd b9 6a 11 bd
       -0.05028183 -0.04315273 -0.054894656 -0.03550217
000050 08 96 10 3d 01 46 fb 3c 12 aa ed bb 33 56 0a bd
       0.03529933 0.030673029 -0.00725294 -0.033773612
000060 34 e0 7e bd b1 ae b8 3c 2e f9 07 3d 79 3a 0d bd
       -0.062225536 0.022544237 0.03319662 -0.034479592
000070 a0 81 cd bb 2a a2 3d bd fb 3c dd 3b 74 5a cf 3c
       -0.006271556 -0.04629723 0.006751654 0.025311686
000080 42 21 68 3d da bd 1d bd 1c 0a 6f b8 d6 38 db bc
       0.056672342 -0.038511135 -5.6991455e-05 -0.0267605
000090 4e 90 82 3c 09 01 4e bc e0 33 5b 3c 36 f5 df 3b
       0.01593795 -0.012573489 0.013379067 0.0068346513
0000a0 01 2a e1 bc 12 23 1f bd da 66 5e bd 2b 0f 32 3c
       -0.02748585 -0.038851805 -0.054297306 0.010867874
0000b0 d5 1d 09 3d e0 ee a4 bc 13 8e b7 bc 40 b1 2f bd
       0.033475716 -0.020133436 -0.022406613 -0.04289365
0000c0 01 85 87 bc dd c0 e3 3c 8f d4 23 3d 49 8a 05 bd
       -0.016542913 0.027801925 0.039997634 -0.032602582
0000d0 96 60 ea 3c 79 e2 94 bc 0e 5f d2 3c 42 fa 71 bc
       0.028610509 -0.018174397 0.025680091 -0.014769139
0000e0 77 35 6f bc 06 b2 43 3d c9 61 64 bd b8 1b 41 3d
       -0.014600149 0.0477772 -0.055757318 0.047145575
0000f0 0b 2c 95 bc a6 89 a8 bc fa d3 8d 3b bd 9d 5f 3b
       -0.018209478 -0.020573448 0.004328248 0.003412112
000100 2b 5d 9b bc 19 38 07 bc 3d 94 0a 3d 6b b9 68 bd
       -0.018965324 -0.008253121 0.033832777 -0.056817453
000110 4a 08 99 bc 00 c5 78 bc fb f2 4c bc 9d 9a 0c bd
       -0.01868071 -0.015183687 -0.012509103 -0.03432714
000120 93 af 88 3a 50 45 b8 3b 64 ab 32 bd ed 7b dc 3c
       0.0010428302 0.005623497 -0.043620482 0.026914561
000130 55 0f 89 3c 7e bc 0f bd e8 7c 82 bc c4 6c a2 3c
       0.016730944 -0.03509187 -0.0159287 0.019827254
000140 73 9f 5f 3d 97 3e 29 3d ed 5c a8 bb b1 97 c9 3b
       0.054595422 0.041319456 -0.0051380307 0.006152116
000150 03 7b 42 ba 15 9f 90 3c 17 b2 d9 bc 47 ef 68 3d
       -0.0007418843 0.017653981 -0.026574178 0.056868818
000160 94 81 94 3c 1e ff b5 bc f0 17 b3 bc 29 a4 43 3d
       0.018128194 -0.022216376 -0.021862 0.047763977
000170 90 f9 4b 3d e7 00 87 bc 0f 65 f3 bc 92 a7 6b bd
       0.04979855 -0.016479922 -0.029711274 -0.057532854
000180 51 ee 94 3a db c1 5f bc 9f 5d 80 3c 5f 9f 80 bd
       0.0011362528 -0.013657059 0.015669642 -0.062803976
000190 6b 35 9f 3b 0e 7f 63 3c 1c 54 db 3b 41 b0 9a bb
       0.004858663 0.013885273 0.006693376 -0.004720718
0001a0 5e 01 1e 3d 57 21 d0 3c 7c d8 d2 3c 12 4b d4 ba
       0.038575523 0.025406523 0.025737993 -0.0016196689
0001b0 aa 8a ec 3c 31 91 c7 3c 0c e8 38 3d 01 8b 0e 3d
       0.028874714 0.024361225 0.045143172 0.034800533
0001c0 66 aa 27 3d 2b 96 cc bb 8e c3 a4 3a 3f d5 a7 3b
       0.04093399 -0.0062434874 0.0012570487 0.0051218565
0001d0 85 86 48 bd 64 59 e3 3c fe 95 5a bd 8b 01 60 3a
       -0.048956413 0.027752586 -0.0533657 0.0008545152
0001e0 86 a0 ef bb d2 70 f0 3c 93 f5 44 3b db dd 16 bd
       -0.007312837 0.029350672 0.00300536 -0.03683267
0001f0 4a 83 b0 bc 41 c3 66 3c 8c da 5d bc e2 ac 01 bd
       -0.021546979 0.014084638 -0.013540875 -0.031659015
000200 20 35 10 bd 5f c7 62 3d 51 d4 12 bc 7a e5 10 bd
       -0.035206914 0.055365916 -0.008961753 -0.035375096
000210 47 37 77 3d ba b5 82 bc 55 6a 65 3d eb 32 c9 b8
       0.06035545 -0.015955795 0.05600961 -9.593911e-05
000220 a6 ab 6f 3c c3 a2 cd ba c8 68 5d 3d 97 df 47 3d
       0.0146283265 -0.0015688766 0.054055005 0.048797216
000230 8d 7c 66 3b cc 26 f5 bc 69 68 ac bb e5 b5 2f 3d
       0.0035169453 -0.029925726 -0.00526147 0.042898078
000240 ac 45 3c bd c0 0f 21 3d cc bf dd bc 97 11 17 3c
       -0.04596488 0.03932166 -0.027068995 0.009220502
000250 1d 7c 2f 3d d7 c7 67 3b b9 8b c5 bb b5 c2 32 bd
       0.042842973 0.0035366917 -0.006028619 -0.04364272
000260 63 80 10 3d 1b 7e a8 3c c7 0e 0f bd b2 20 c1 bc
       0.03527869 0.020567944 -0.034926202 -0.02357516
000270 a3 0a 20 bd 8a a7 52 3b f9 b9 28 39 9e 99 d8 3a
       -0.039072644 0.0032143318 0.00016091009 0.0016525274
000280 e3 04 4a 3d 11 29 5d 3c e4 e9 d5 bc c3 0b 96 bc
       0.049321067 0.0134985605 -0.026112504 -0.018316155
000290 7a cd 23 bd 6c 61 b5 bc 40 6a d1 bc 04 7c 50 bd
       -0.03999088 -0.022141181 -0.02556336 -0.05089952
0002a0 ec 56 e9 bc 33 12 17 bd ea a1 cb 3c 1b 48 40 bd
       -0.02848383 -0.03688259 0.02485748 -0.046943765
0002b0 4a d0 e3 bc 9e 6b 27 3d 91 ae 14 bd 9e 54 87 bb
       -0.02780928 0.040874116 -0.036299292 -0.00412996
0002c0 9a 79 16 3d a0 db 7e 3c b4 35 ea bc b9 ed aa ba
       0.036737062 0.015555292 -0.02859006 -0.0013040818
0002d0 92 c2 40 bd ba a0 31 3c cf 03 5a 3d e8 95 17 3d
       -0.047060557 0.010841543 0.05322629 0.037008196
0002e0 ff fa 40 3d 7f 52 03 3d ca be 14 bd 9d e9 cd 3c
       0.04711437 0.032061096 -0.036314763 0.02513581
0002f0 d6 0c c9 bc 7c ff de bc 22 6a 22 bd 6f e5 f1 bc
       -0.024542253 -0.027221434 -0.039651997 -0.029528348
000300 40 61 98 bc 3b 93 76 bd d3 cd 3d bd 77 3b 87 3c
       -0.01860106 -0.060199004 -0.046338867 0.016507847
000310 d1 41 de 3c 52 f1 a5 bb 57 56 40 3d 29 d1 c9 3c
       0.027130993 -0.005064168 0.04695734 0.024635868
000320 55 e1 dc 3c e9 08 26 3d a0 f3 78 3b e3 39 0b bd
       0.026962915 0.04053584 0.0037987009 -0.033990752
000330 9f 06 99 bc 37 e7 eb bc 0d c2 06 3d dd 3e 0f bd
       -0.018679915 -0.028796775 0.032899905 -0.03497206
000340 fe 3c 10 bd 0d 5d 45 3d 08 4a 00 bd 92 d7 98 bc
       -0.035214417 0.048184443 -0.0313206 -0.01865748
000350 82 58 fe bc 69 1a 11 bd d0 44 42 3c 09 82 ee bc
       -0.031048063 -0.035425577 0.0118572265 -0.02911474
000360 95 78 dc 3c 3a 3e 51 bd 6a 4d e6 bc a4 18 30 bd
       0.026912967 -0.051084734 -0.028113086 -0.04299225
000370 f6 47 fd 3c bd 6c bb bb fe e2 07 3c d2 ae f0 3b
       0.030918103 -0.0057197497 0.008293865 0.007345059
000380 e4 ef 42 3d b3 c1 f3 bc 2a 0d 6a 3d de d2 2a 3b
       0.04759206 -0.029755449 0.05714146 0.0026065628
000390 b8 48 56 3d c5 f7 39 bb 93 06 4e 3b 4b bf c8 bc
       0.052315444 -0.0028376442 0.0031437024 -0.024505278
0003a0 33 7e 50 3d 14 d6 04 bd e2 d9 03 3d 67 7a 61 3c
       0.050901603 -0.032430723 0.03219021 0.013762093
0003b0 7b dd 0b bd 53 db 8a 3b 11 ee c2 bc c0 d6 d4 bc
       -0.034146767 0.0042375713 -0.02379516 -0.025981307
0003c0 63 b9 0d bb 6c 6f 35 bd 6c e5 c7 3c 56 08 11 bd
       -0.0021625392 -0.044295713 0.024401389 -0.03540834
0003d0 cd 02 13 bd 3f a8 b6 3c c9 aa b4 bc 67 99 3e 3c
       -0.035891343 0.022297023 -0.022054093 0.011633254
0003e0 34 52 0d 3d bf d1 83 3b 56 e4 e4 bc d9 c0 4a 3c
       0.034502223 0.0040228064 -0.02794091 0.01237508
0003f0 ec 75 89 bc e2 35 93 bc c0 a0 b8 bc 0a 8d ad 3c
       -0.016779862 -0.01797003 -0.02253759 0.021185417

model.0.bias f4 [512]
000000 93 5b be 3c dd 41 1b 3d 07 44 88 3c 59 73 45 3d
       0.023237025 0.03790461 0.016634 0.048205707
000010 e6 4a cf bc 84 a9 54 bd 67 8a 8a bd a8 85 0d bc
       -0.025304269 -0.051919475 -0.067646794 -0.008637823
000020 2e 3f 0b bc a5 20 29 3d 2e de 1d bc be 7f 2b 3c
       -0.00849895 0.041290898 -0.009635491 0.010467468
000030 38 52 ab 3c 27 52 02 bd 87 0b cc 3a 05 c6 e8 3b
       0.020913228 -0.031816628 0.00155674 0.007103684
000040 88 d5 8a bc d1 09 f4 bc 03 09 68 3c 13 6e 8d bc
       -0.016947523 -0.029789837 0.014162305 -0.017264402
000050 e8 f0 5e 3d 30 a0 4d bb 59 b3 ed bc db a0 14 3d
       0.054428965 -0.0031375997 -0.029016184 0.036286216
000060 18 e8 48 3c e6 f4 36 3b 03 6d 4d bd de ca 89 3c
       0.012262367 0.0027916967 -0.05015279 0.016820367
000070 0a 8f 03 3c f7 cf 02 3c 70 11 9a 3c aa b3 44 3c
       0.008029709 0.007984153 0.018807143 0.012005726
000080 eb 39 24 3d 87 4f 13 bd 73 f9 42 bd 5b 55 0c 3d
       0.040094297 -0.035964515 -0.047601175 0.03426109
000090 1a 02 46 bb 5e 44 a7 3b d8 a1 13 bd ae cd 26 3d
       -0.0030213655 0.0051045856 -0.036043018 0.040723495
0000a0 ba f5 2f bb 83 29 8f 39 fd 18 75 3c fc 02 f8 3a
       -0.0026849345 0.00027306014 0.014959571 0.0018921788
0000b0 b4 8e e2 3b 7f c0 5e bd 1a 62 d7 bb 01 74 49 bc
       0.006913984 -0.054382797 -0.006572974 -0.012295724
0000c0 d7 aa 28 bd 75 9e f5 3b 5d 14 48 3d 42 38 2e bd
       -0.04117855 0.007495696 0.048847545 -0.04253412
0000d0 9d 66 34 bd 37 d2 f5 bc d8 a5 39 3c cb 57 4d 3d
       -0.044043172 -0.030007465 0.011331044 0.050132554
0000e0 8e 61 36 3d 72 2e 18 3d 12 28 34 bd f2 ca 79 bd
       0.04452663 0.03715367 -0.043983527 -0.06098456
0000f0 59 c3 1d 3c e9 29 31 bd e7 08 cf 3c d4 93 23 bd
       0.009629094 -0.04325286 0.0252728 -0.0399359
000100 18 51 fc 3c a9 33 28 bd 66 e1 d3 bc 06 e8 f9 bc
       0.030800387 -0.041064892 -0.025864314 -0.030506145
000110 51 e6 00 bd 45 5f 39 3a 76 25 9c 3c 6d b8 5d 3c
       -0.031469647 0.0007071386 0.019060832 0.01353274
000120 55 d4 4c bd 6a f7 34 bd 26 1c 81 3c e9 1a 0a bd
       -0.050007183 -0.044181265 0.015760493 -0.03371707
000130 d5 d0 36 bd fd 8c 20 3d 88 2b 2e bd 8c 52 04 3d
       -0.04463275 0.039196957 -0.042521983 0.032305285
000140 e5 98 e9 3c 59 c1 18 3d 17 b3 37 3d 6b e2 49 3d
       0.028515289 0.037293766 0.044848528 0.049288195
000150 de db 01 3d c1 cc ec bc c7 14 bb 3c e6 7f 40 bd
       0.031703822 -0.028906228 0.022837056 -0.046996973
000160 99 8d 57 3d 41 6a ed 3c 94 1e 38 3d d7 f6 05 3c
       0.052625272 0.02898133 0.044951037 0.008176527
000170 c7 5e c3 3c b9 9a 58 3c 2b d8 49 bd f0 30 d1 3c
       0.023848904 0.0132204825 -0.04927842 0.02553603
000180 e3 af b2 bc 71 32 5c bd a7 f2 a6 bc 76 4a ec 3b
       -0.021812385 -0.053759042 -0.020379378 0.007211025
000190 22 6c 1c 3d 86 35 83 3c 1a 50 1e 3c 6d a1 28 3d
       0.03818906 0.016016733 0.009662652 0.041169573
0001a0 f8 34 21 3c a2 ae 6a 3d 79 32 3e 3d 70 42 32 3d
       0.009839289 0.05729545 0.046434853 0.04352039
0001b0 ef 67 08 3d 9c b2 e0 3c de 13 1a bd cf 4b 0e bd
       0.033302244 0.027428918 -0.037616603 -0.034740265
0001c0 e0 f6 63 bd 6b 3b a1 3b 56 9a cc 3c 5f aa bc 3a
       -0.05565536 0.0049204133 0.024975937 0.0014394036
0001d0 a1 e0 0f 3d 6c 3b 7f bc d4 96 7a 3a 0a 56 d8 3c
       0.035126332 -0.015578132 0.00095592183 0.026408214
0001e0 98 29 09 3d 11 fb 73 bd 40 35 1f 3d a2 6f 5d 3c
       0.033486933 -0.059565607 0.038869143 0.013515385
0001f0 91 66 8d bc da 67 a5 bc 6f 9b 69 bb 97 0d 06 bd
       -0.017260822 -0.020191122 -0.0035645624 -0.032727804
000200 f1 1a 42 3c ab 47 a4 bb 94 6e 43 3d 33 f8 46 3d
       0.011847244 -0.0050134263 0.047712877 0.048576545
000210 66 30 b4 3c 47 96 c4 3c b6 ed bc 3c 56 5a 94 bc
       0.021995734 0.02399744 0.023062568 -0.018109482
000220 09 18 6d 3b cd 39 bf bc f3 1a 52 3b 54 19 14 3d
       0.0036177656 -0.023342991 0.003205952 0.036156967
000230 2c 0b 4f 3b 20 0c 13 bd 0c 6b 64 bc 83 58 dc bc
       0.0031592352 -0.035900235 -0.013941538 -0.026897674
000240 08 00 c7 bb df 67 bb ba 42 46 2a bc 7f 06 84 ba
       -0.006073002 -0.0014297924 -0.010392727 -0.0010072737
000250 e1 28 ba 3c 95 ab 33 bc c3 78 2e 3d bf 86 28 bd
       0.02272457 -0.010966201 0.042595636 -0.04114413
000260 0c 5a 3e bd b3 c4 2f bd fc 51 15 bc 03 20 f4 bc
       -0.046472594 -0.042912196 -0.009113785 -0.02980042
000270 c3 c2 54 bc da e6 93 bc 44 c2 0c bc e4 e0 7c ba
       -0.012985888 -0.018054415 -0.008591238 -0.00096465484
000280 df 0a 16 3d 3f f7 e7 3b 7c d0 27 3d a2 b5 04 3d
       0.03663146 0.0070790346 0.04097031 0.03239978
000290 02 e7 1d bd 31 53 01 3d 99 b1 4b bd e7 62 33 3c
       -0.038550384 0.031573478 -0.049729917 0.010948873
0002a0 b4 c7 35 3d 7b 33 2d bd 53 65 13 bd 86 2b cf bc
       0.044379905 -0.042285424 -0.035985302 -0.025289308
0002b0 2f 5f 94 3c c2 e7 0d bd 75 df 4c 3d e1 72 23 3d
       0.018111793 -0.03464485 0.050017793 0.03990448
0002c0 7f 22 3e bd 4a 35 97 bc 6d 4a 94 bc 3b 4e 40 bd
       -0.046419617 -0.018458027 -0.018101895 -0.046949606
0002d0 74 c8 37 bc d0 b8 06 bc 74 92 f4 bc 9b 1a d1 3b
       -0.011217225 -0.008222774 -0.02985499 0.0063813454
0002e0 5c 01 1a 3d d7 93 21 3b 8f a0 73 3b f7 ce 3d 3d
       0.037598953 0.002465477 0.0037174558 0.046339955
0002f0 a5 6a 93 bc 40 66 1b 3d a7 82 40 3d 7d d1 4d 3d
       -0.017995188 0.03793931 0.0469996 0.05024861
000300 60 15 c7 3c 16 21 1a 3c 7a b6 fb 3c ea b4 b4 3c
       0.024302185 0.009407302 0.03072666 0.022058923
000310 bc 09 f7 bc 9a 55 3d 3d 54 ca 4d bd 5e 4f 4b bd
       -0.030156009 0.046224214 -0.050241783 -0.049636237
000320 01 12 b1 3c e0 af 3b bc 0b 4a c9 3b 0c b6 28 bd
       0.02161503 -0.011455506 0.00614286 -0.04118924
000330 a2 a4 e7 bc e7 d7 e6 3a af 34 1f bc 8f 6e 0e 3d
       -0.028276745 0.0017611951 -0.009717151 0.034773406
000340 2d 93 bc 3c 1c 79 e6 bc 42 28 31 bc 59 17 06 3c
       0.023019398 -0.028133921 -0.010812821 0.008184277
000350 d8 ed 70 3c 45 94 62 3c 11 54 15 ba f1 9e 5f bd
       0.014705144 0.0138292955 -0.0005696426 -0.054594938
000360 16 fd 01 3d 2c f0 63 ba 56 49 b1 3b 2b 7c f6 3c
       0.031735502 -0.0008695151 0.0054103537 0.030088505
000370 eb 8c 62 bd 42 ae 28 3d 42 2d 08 3d 14 bc 80 bc
       -0.05531017 0.04118181 0.033246286 -0.015714683
000380 45 64 b8 3b 1f c1 27 3d 17 9c f8 bc b1 d6 6e bc
       0.0056271874 0.04095566 -0.030347867 -0.014577554
000390 33 c6 16 3d a1 9d c2 bc 1b 97 43 3c 8f 24 1d 3d
       0.03681011 -0.023756804 0.011937882 0.038364943
0003a0 2b ff 08 3d 61 15 bf bc 7a 73 09 bd f1 b5 2c bd
       0.033446472 -0.023325624 -0.033557393 -0.0421657
0003b0 c2 1d a7 bc ee 75 ff bc 80 fb c7 3c bf 25 bb 3c
       -0.020399932 -0.031184163 0.024411917 0.022845147
0003c0 f9 48 d7 bc 22 aa 7b ba ec e9 06 bd 0d 98 d9 bc
       -0.026279913 -0.0009600242 -0.03293793 -0.026561761
0003d0 ff 2b ad 3c 24 2a 9f bc f6 bc fb ba d9 e6 9c bc
       0.021139143 -0.019429274 -0.0019206095 -0.019153045
0003e0 d8 a6 5f 3d 79 e1 33 3c 68 69 ae bc 9e 89 cd bc
       0.054602474 0.01097905 -0.021290496 -0.025090035
0003f0 4b fe 5f 3d 6f 83 17 3d 1d 1a 2a 3b 4e 00 98 bd
       0.054685872 0.03699058 0.0025955506 -0.07421933

model.2.weight f4 [72, 512]
000000 2c eb 03 3c 8f 30 cd bc 18 6a ce 3c 01 23 f2 bb
       0.008051675 -0.025047569 0.025197074 -0.0073894267
000010 ab dd 06 bc ff 1a ca 3c 3c 3e aa bb ae 10 93 3c
       -0.008231561 0.024671076 -0.005195407 0.01795229
000020 39 98 00 3d fe a4 0d 3b 0f ae ac bb 11 64 85 bb
       0.03139517 0.0021613236 -0.005269773 -0.0040707667
000030 8b c6 ad bc 60 40 2d bd c0 82 82 3b 6d 83 4a bb
       -0.021212837 -0.04229772 0.003982872 -0.003090109
000040 e4 77 a9 bc a2 36 13 3c 67 fc 0d 3d 1c 88 dc bc
       -0.020687051 0.008985193 0.034664538 -0.02692037
000050 3d 2c e0 bc 6f db 6e bc 46 e9 27 3b 03 6c 83 bc
       -0.027364844 -0.014578684 0.002562122 -0.016042715
000060 de 37 22 3d e5 ff 55 bb f9 14 c1 bc 87 1d 4e bc
       0.03960406 -0.0032653746 -0.02356957 -0.012580282
000070 49 ce 1e 3d 7d fd f8 3b 95 84 5e 3c 2b 1f bc bc
       0.038770948 0.0075985775 0.013581415 -0.02296408
000080 1c 47 1d 3c 6f 57 45 bd bd 54 9b 3c 35 a9 34 3b
       0.009599473 -0.048179086 0.018961305 0.0027566676
000090 ab e7 5e 3c 0a 71 51 bb d0 aa 2e 3c 4f 88 1b bc
       0.013605039 -0.0031958246 0.010660842 -0.009492948
0000a0 da e8 1d bd ae fc bb 3c 95 50 c8 bc 53 51 9c 3c
       -0.038552143 0.022947636 -0.024452487 0.019081747
0000b0 78 1b 7c 3b 64 a5 a3 bc c5 88 1b 3b e7 34 b5 3c
       0.003846852 -0.019976325 0.0023732644 0.022119952
0000c0 1b c8 4b 3c bd 75 bc 3c c1 bd 84 3c 4e cb 75 bc
       0.012437846 0.02300536 0.016203763 -0.015002085
0000d0 11 5c 5b 3d 6e 94 49 bd e2 d3 08 3d 4b 5c 76 bc
       0.0535546 -0.04921382 0.033405192 -0.015036653
0000e0 25 ae 0f bd 98 28 c5 3c 54 8c 3b 3c 56 1a cc 3c
       -0.035078187 0.024067208 0.011447031 0.024914902
0000f0 2e 54 5a bd d2 b9 60 3c 5c ff 61 3d 8d ef d1 bc
       -0.053302936 0.013716178 0.05517517 -0.025626922
000100 2e af ff 3c 0b c8 31 3d e6 94 15 3c d4 a1 c8 bc
       0.031211462 0.043403666 0.009129738 -0.024491228
000110 f2 fc cb bc 6e 58 68 bc de b8 c6 3c 63 54 13 3b
       -0.024900887 -0.0141812395 0.024258073 0.0022480718
000120 65 19 31 3c 50 fa 44 3c 59 89 eb bb ed 74 28 3c
       0.010809277 0.01202257 -0.007188004 0.0102817835
000130 9e ab 15 3b b3 97 38 3c ca d7 39 bd 02 ca 56 3d
       0.0022837888 0.011266637 -0.045371808 0.052438743
000140 44 bc 35 3d b1 69 1d bd c5 78 f1 bc 28 76 bc 3b
       0.044368997 -0.038430873 -0.029476533 0.00575139
000150 21 8e 6c 3c bf c0 01 3d 7a de 02 bd 67 53 fb 3c
       0.014438183 0.031677958 -0.03195045 0.030679418
000160 de 13 bf 3c c3 8d 4a 3d 45 a8 01 bd 0c 41 b1 bc
       0.023324903 0.0494516 -0.031654615 -0.021637462
000170 5d af a4 bc c7 89 13 bb 2a df c3 3b 4f 27 4c ba
       -0.020103151 -0.0022512542 0.005977531 -0.000778784
000180 dd 69 98 bc 06 56 c1 3b 6f a5 b4 bc 6d a9 fb bc
       -0.018605167 0.0059001474 -0.022051541 -0.030720437
000190 c8 f1 19 3d dd b3 9d 3b c8 a1 02 bd d0 25 24 bd
       0.037584096 0.004812701 -0.031892568 -0.040075123
0001a0 dd 3d a2 bb 27 96 1a 3d 4a fd 26 bd 8d 64 ba bb
       -0.0049512223 0.037740853 -0.0407689 -0.005688256
0001b0 5b e9 26 bd 27 2f 81 3a 1f 3b 31 bd d5 2f 4c bc
       -0.04074989 0.0009855971 -0.043269273 -0.012462576
0001c0 9e ad b6 bb e7 2f c4 3c 0b 6d 05 3c 94 bb e4 bc
       -0.005574896 0.023948623 0.008143674 -0.027921475
0001d0 de 7a 00 bb 26 32 93 bb 43 08 84 bc 72 fe 2b bb
       -0.0019604485 -0.004492062 -0.01611722 -0.002624419
0001e0 24 23 af 3b 8c 5e b2 bc 63 f9 32 3d dc 61 5d 3c
       0.0053447653 -0.0217736 0.043694865 0.013512101
0001f0 f3 2e 31 bd 4b eb b3 bc c6 f7 5f 3c 3e 82 ad 3b
       -0.043257665 -0.021962782 0.013669914 0.005295067
000200 de 8b 07 3c ec 14 06 bc 6a 0a 40 3a 86 53 0b 3d
       0.008273093 -0.008183699 0.00073257706 0.0340152
000210 9e 3d 36 3d f4 7c ef bc de c0 d0 3b 09 95 d6 bc
       0.044492356 -0.029234387 0.006370648 -0.026194112
000220 c9 8d c9 3c f5 21 ef 3c 12 92 e6 bc b0 2e 21 3b
       0.024603741 0.029190997 -0.028145824 0.0024594478
000230 8f 5a 95 bc ad ce e0 bc 45 d8 df 3c 5c 0d 67 bc
       -0.018231658 -0.0274423 0.027324805 -0.014102306
000240 33 fa b5 bc 0e 99 0c bd b3 34 f1 3c a2 d2 1a 3d
       -0.02221403 -0.03432565 0.029444074 0.03779853
000250 3a a1 5f ba 88 b7 8f 3c 18 97 c0 bb 99 7b ba 3c
       -0.00085307995 0.01754357 -0.005877387 0.022764014
000260 e5 a9 c7 bc 65 c5 64 3c dc 5f 31 3c 7c d8 24 bc
       -0.024373004 0.013963078 0.010826077 -0.0100613795
000270 49 1c d1 bc a5 ea 13 3d de d6 e2 bc c9 a6 0b 3d
       -0.025526183 0.036112446 -0.027690347 0.034094606
000280 2d ee 74 3b 3c 0f 3a 3c 69 b2 71 3c 56 02 b2 bc
       0.003737341 0.011356171 0.014752009 -0.02172963
000290 cb 55 d1 3c 1c 09 ff 3c 24 f3 aa 3c 33 d4 63 3c
       0.025553605 0.031132273 0.020867892 0.013905573
0002a0 89 09 81 bc ac fe 31 bd a7 c8 97 3c 79 9f e3 3c
       -0.015751617 -0.043455765 0.018528296 0.027786003
0002b0 45 d1 01 3d c4 54 04 3d f9 50 12 3d 0f 3e 3d bc
       0.031693716 0.0323074 0.035721753 -0.01155044
0002c0 9c 68 03 bd e6 40 b4 3c 3b 65 b4 bb 27 90 aa bc
       -0.032082185 0.022003602 -0.0055052317 -0.02082069
0002d0 4f 84 c9 3c b8 d2 17 bd e9 de 9f 3c 61 1d b1 3c
       0.024599222 -0.03706619 0.019515472 0.021620454
0002e0 b4 0c b5 bc 12 f8 d7 bc 8f c4 1a 3d 13 8b dd bb
       -0.022100784 -0.026363406 0.03778511 -0.0067609637
0002f0 fc 1b fc bc a3 a7 80 3c 0c c3 f7 3b a6 44 0e bd
       -0.030775063 0.015704935 0.007561093 -0.034733437
000300 b2 27 03 3d 29 ea d2 3a 96 66 39 3c b2 ce dd bc
       0.03202028 0.0016091514 0.011315962 -0.027076099
000310 af d0 b2 3c 12 73 ad bc 78 03 3d bd af fd 2b 3d
       0.021828024 -0.021173034 -0.046145886 0.04198998
000320 2a f2 16 3c 89 f1 cd bc e5 a0 a7 bc 59 11 49 bc
       0.00921301 -0.025139587 -0.020462463 -0.012272202
000330 c1 03 e3 bc 14 d1 be bc 07 5c 72 3c c1 87 ea 3c
       -0.027711751 -0.023293056 0.014792449 0.028629186
000340 29 95 61 bb 83 de c5 3c bd c8 a2 bc 73 2b 5e bc
       -0.0034421182 0.024153953 -0.01987111 -0.013560164
000350 9a 4f 5b 3c e4 ab df 3c 91 1e 38 3d e1 f6 08 3d
       0.013385678 0.027303644 0.044951025 0.033438567
000360 87 85 07 bd d0 67 96 bc 13 e4 80 3c db c8 ea bc
       -0.033086326 -0.018360049 0.015733754 -0.028660228
000370 de d7 9c 3b 23 5b 15 39 d2 0b 28 bc b4 7e 10 bd
       0.0047864756 0.00014243698 -0.010256724 -0.035277084
000380 64 b2 23 bd 22 f0 ec 3c ff f5 be 3b 8e 42 76 bb
       -0.03996505 0.028923098 0.005827665 -0.003757629
000390 1a cd 95 3c 0b 77 25 bd 7e d1 13 bd e4 30 1f bd
       0.018286277 -0.04039673 -0.03608846 -0.038864985
0003a0 ef a3 c9 bc 76 e3 8d bc a1 b0 06 bd f4 8e 03 bd
       -0.024614302 -0.017320376 -0.03288329 -0.032118753
0003b0 29 ce a6 bc ce c4 a2 3c 70 d5 98 bc 87 1c 09 bd
       -0.020361977 0.019869234 -0.018656462 -0.03347447
0003c0 e4 d8 1e 3d f2 d7 cb 3c dd e9 0c bc d2 0d 95 bc
       0.03878106 0.024883244 -0.008600679 -0.018195067
0003d0 e9 61 4f bd f5 b7 da bc 46 4a ef bc ed 5d 09 bd
       -0.050630484 -0.026699046 -0.029210221 -0.03353684
0003e0 85 35 3b bd e1 7b 0b 3d 0e 71 11 bd f9 14 08 3c
       -0.045705337 0.034053687 -0.035508208 0.0083057815
0003f0 ac 6e a2 bc b7 f8 fd 3b 48 fc be 3b 0e 7c 37 bd
       -0.019828163 0.0077505964 0.005828414 -0.044796042

model.2.bias f4 [72]
000000 44 00 fc bc 80 f6 ce bc 17 64 35 3b 30 b6 a1 3b
       -0.030761845 -0.025264025 0.0027678066 0.0049350485
000010 f0 66 dd ba 85 b3 13 3c 05 9b 01 3c ce af 84 3c
       -0.001689164 0.009014969 0.007910495 0.016197111
000020 98 1e fe 3c 5b 55 69 bc 65 e8 d7 3c 47 6f 12 bd
       0.031020448 -0.014241542 0.026355932 -0.035750654
000030 67 a1 97 bc 96 53 04 3d a0 e5 cf ba 19 13 23 ba
       -0.01850958 0.032306276 -0.001586128 -0.00062208023
000040 59 70 09 bd 25 3c f2 bc cf 3b 2e 3d a8 06 05 3c
       -0.03355441 -0.029569695 0.042537507 0.008119263
000050 9c 79 25 bd 3e 65 14 bc 35 95 fb bc 92 1b 20 3d
       -0.04039918 -0.009057341 -0.030710796 0.039088793
000060 57 15 ad 3c 67 ae ae 3c be ec 2f 3d 3b 64 8a bc
       0.02112834 0.021323396 0.042950384 -0.016893497
000070 5c 48 94 3c 2c 0a 8c 3c bc 94 1c 3d 54 8a 1d 3b
       0.01810091 0.017094694 0.03822778 0.0024038749
000080 c6 0f 88 bc 09 6f 40 3d d1 d5 3a 3d ae 61 a8 bc
       -0.016609084 0.04698089 0.045614067 -0.02055439
000090 f8 c8 08 3d 78 5f 02 3d 72 6d e0 3c 42 15 6c bc
       0.033394784 0.031829327 0.027395938 -0.014409365
0000a0 b7 70 03 bd 80 37 05 3d 8c b8 1c 3d b7 85 2a bd
       -0.032089915 0.032523632 0.038261935 -0.041631427
0000b0 58 aa 29 3d 50 a1 2d 3d 1e 57 3c 3d 59 ef 84 3c
       0.041422218 0.042390168 0.04598152 0.016227411
0000c0 81 e6 7d 3b d9 1c 75 3c a5 dc 14 bd f9 ac 14 bd
       0.0038742127 0.014960491 -0.036343236 -0.036297772
0000d0 3c 67 0b 3d e9 ae 5c b9 f9 85 c0 3c 5c 73 09 3d
       0.034034 -0.00021045994 0.023501383 0.03355728
0000e0 4c 3c df bc 88 01 8d 3c b9 1c 51 3c ba 93 f5 bc
       -0.027250431 0.017212644 0.012763196 -0.029977668
0000f0 c5 fd f1 3c 9f 43 ec 3b 1a d4 e0 3c 89 90 0d 3d
       0.029539952 0.0072102095 0.027444888 0.034561668
000100 f2 c3 a7 3c 60 bd 18 3d d0 a1 d2 3c ed 31 de 3a
       0.020479176 0.037289977 0.025711924 0.0016952135
000110 6e cb 07 bc 93 f3 c0 3b 20 d4 ab bc 72 46 18 bd
       -0.0082882475 0.0058884113 -0.020975173 -0.037176557
