checkpoints/solar_data_CycleNet_solar_data_ftMS_sl336_ll48_pl24/checkpoint.pth (torch, 743015 bytes, 5 tensors)

cycleQueue.data f4 [24, 12]
000000 00 00 00 00 00 00 00 00 00 00 00 00 00 00 00 00
       0.0 0.0 0.0 0.0
000010 00 00 00 00 00 00 00 00 00 00 00 00 00 00 00 00
       0.0 0.0 0.0 0.0
000020 00 00 00 00 00 00 00 00 00 00 00 00 7a f8 97 bb
       0.0 0.0 0.0 -0.004637775
000030 00 00 00 00 00 00 00 00 00 00 00 00 00 00 00 00
       0.0 0.0 0.0 0.0
000040 00 00 00 00 00 00 00 00 00 00 00 00 00 00 00 00
       0.0 0.0 0.0 0.0
000050 00 00 00 00 00 00 00 00 00 00 00 00 22 db 1d bb
       0.0 0.0 0.0 -0.0024086912
000060 00 00 00 00 00 00 00 00 00 00 00 00 00 00 00 00
       0.0 0.0 0.0 0.0
000070 00 00 00 00 00 00 00 00 00 00 00 00 00 00 00 00
       0.0 0.0 0.0 0.0
000080 00 00 00 00 00 00 00 00 00 00 00 00 87 ec e6 3b
       0.0 0.0 0.0 0.007047239
000090 00 00 00 00 00 00 00 00 00 00 00 00 00 00 00 00
       0.0 0.0 0.0 0.0
0000a0 00 00 00 00 00 00 00 00 00 00 00 00 00 00 00 00
       0.0 0.0 0.0 0.0
0000b0 00 00 00 00 00 00 00 00 00 00 00 00 8a f9 b2 3c
       0.0 0.0 0.0 0.021847505
0000c0 00 00 00 00 00 00 00 00 00 00 00 00 00 00 00 00
       0.0 0.0 0.0 0.0
0000d0 00 00 00 00 00 00 00 00 00 00 00 00 00 00 00 00
       0.0 0.0 0.0 0.0
0000e0 00 00 00 00 00 00 00 00 00 00 00 00 9a 99 cf 3c
       0.0 0.0 0.0 0.025341798
0000f0 00 00 00 00 00 00 00 00 00 00 00 00 00 00 00 00
       0.0 0.0 0.0 0.0
000100 00 00 00 00 00 00 00 00 00 00 00 00 00 00 00 00
       0.0 0.0 0.0 0.0
000110 00 00 00 00 00 00 00 00 00 00 00 00 c4 a1 11 bd
       0.0 0.0 0.0 -0.035554662
000120 00 00 00 00 00 00 00 00 00 00 00 00 00 00 00 00
       0.0 0.0 0.0 0.0
000130 00 00 00 00 00 00 00 00 00 00 00 00 00 00 00 00
       0.0 0.0 0.0 0.0
000140 00 00 00 00 00 00 00 00 00 00 00 00 62 3d 72 bd
       0.0 0.0 0.0 -0.05914057
000150 00 00 00 00 00 00 00 00 00 00 00 00 00 00 00 00
       0.0 0.0 0.0 0.0
000160 00 00 00 00 00 00 00 00 00 00 00 00 00 00 00 00
       0.0 0.0 0.0 0.0
000170 00 00 00 00 00 00 00 00 00 00 00 00 95 2c c4 ba
       0.0 0.0 0.0 -0.00149669
000180 00 00 00 00 00 00 00 00 00 00 00 00 00 00 00 00
       0.0 0.0 0.0 0.0
000190 00 00 00 00 00 00 00 00 00 00 00 00 00 00 00 00
       0.0 0.0 0.0 0.0
0001a0 00 00 00 00 00 00 00 00 00 00 00 00 9e b3 70 3d
       0.0 0.0 0.0 0.058765046
0001b0 00 00 00 00 00 00 00 00 00 00 00 00 00 00 00 00
       0.0 0.0 0.0 0.0
0001c0 00 00 00 00 00 00 00 00 00 00 00 00 00 00 00 00
       0.0 0.0 0.0 0.0
0001d0 00 00 00 00 00 00 00 00 00 00 00 00 4a 44 0f 3d
       0.0 0.0 0.0 0.034977235
0001e0 00 00 00 00 00 00 00 00 00 00 00 00 00 00 00 00
       0.0 0.0 0.0 0.0
0001f0 00 00 00 00 00 00 00 00 00 00 00 00 00 00 00 00
       0.0 0.0 0.0 0.0
000200 00 00 00 00 00 00 00 00 00 00 00 00 6f 42 16 bb
       0.0 0.0 0.0 -0.002292778
000210 00 00 00 00 00 00 00 00 00 00 00 00 00 00 00 00
       0.0 0.0 0.0 0.0
000220 00 00 00 00 00 00 00 00 00 00 00 00 00 00 00 00
       0.0 0.0 0.0 0.0
000230 00 00 00 00 00 00 00 00 00 00 00 00 ab 26 1d 3d
       0.0 0.0 0.0 0.038366955
000240 00 00 00 00 00 00 00 00 00 00 00 00 00 00 00 00
       0.0 0.0 0.0 0.0
000250 00 00 00 00 00 00 00 00 00 00 00 00 00 00 00 00
       0.0 0.0 0.0 0.0
000260 00 00 00 00 00 00 00 00 00 00 00 00 f6 86 e9 3c
       0.0 0.0 0.0 0.028506737
000270 00 00 00 00 00 00 00 00 00 00 00 00 00 00 00 00
       0.0 0.0 0.0 0.0
000280 00 00 00 00 00 00 00 00 00 00 00 00 00 00 00 00
       0.0 0.0 0.0 0.0
000290 00 00 00 00 00 00 00 00 00 00 00 00 c1 7a 28 3b
       0.0 0.0 0.0 0.0025707933
0002a0 00 00 00 00 00 00 00 00 00 00 00 00 00 00 00 00
       0.0 0.0 0.0 0.0
0002b0 00 00 00 00 00 00 00 00 00 00 00 00 00 00 00 00
       0.0 0.0 0.0 0.0
0002c0 00 00 00 00 00 00 00 00 00 00 00 00 3e 99 16 3d
       0.0 0.0 0.0 0.036767237
0002d0 00 00 00 00 00 00 00 00 00 00 00 00 00 00 00 00
       0.0 0.0 0.0 0.0
0002e0 00 00 00 00 00 00 00 00 00 00 00 00 00 00 00 00
       0.0 0.0 0.0 0.0
0002f0 00 00 00 00 00 00 00 00 00 00 00 00 7d 22 57 3d
       0.0 0.0 0.0 0.052523125
000300 00 00 00 00 00 00 00 00 00 00 00 00 00 00 00 00
       0.0 0.0 0.0 0.0
000310 00 00 00 00 00 00 00 00 00 00 00 00 00 00 00 00
       0.0 0.0 0.0 0.0
000320 00 00 00 00 00 00 00 00 00 00 00 00 43 2c 83 3b
       0.0 0.0 0.0 0.004003079
000330 00 00 00 00 00 00 00 00 00 00 00 00 00 00 00 00
       0.0 0.0 0.0 0.0
000340 00 00 00 00 00 00 00 00 00 00 00 00 00 00 00 00
       0.0 0.0 0.0 0.0
000350 00 00 00 00 00 00 00 00 00 00 00 00 e3 54 30 bd
       0.0 0.0 0.0 -0.043049704
000360 00 00 00 00 00 00 00 00 00 00 00 00 00 00 00 00
       0.0 0.0 0.0 0.0
000370 00 00 00 00 00 00 00 00 00 00 00 00 00 00 00 00
       0.0 0.0 0.0 0.0
000380 00 00 00 00 00 00 00 00 00 00 00 00 44 70 0a bd
       0.0 0.0 0.0 -0.03379847
000390 00 00 00 00 00 00 00 00 00 00 00 00 00 00 00 00
       0.0 0.0 0.0 0.0
0003a0 00 00 00 00 00 00 00 00 00 00 00 00 00 00 00 00
       0.0 0.0 0.0 0.0
0003b0 00 00 00 00 00 00 00 00 00 00 00 00 5a 3f 36 3c
       0.0 0.0 0.0 0.011123503
0003c0 00 00 00 00 00 00 00 00 00 00 00 00 00 00 00 00
       0.0 0.0 0.0 0.0
0003d0 00 00 00 00 00 00 00 00 00 00 00 00 00 00 00 00
       0.0 0.0 0.0 0.0
0003e0 00 00 00 00 00 00 00 00 00 00 00 00 de 78 7c 3c
       0.0 0.0 0.0 0.015409676
0003f0 00 00 00 00 00 00 00 00 00 00 00 00 00 00 00 00
       0.0 0.0 0.0 0.0

model.0.weight f4 [512, 336]
000000 a3 c5 82 3d 1b f5 68 bc 18 1a 41 bd 1d 03 0c bd
       0.063853525 -0.014218594 -0.047144026 -0.034182657
000010 a9 39 00 3d d5 e7 be 3c c5 64 47 3d cf 28 03 3d
       0.03130499 0.023303906 0.048680086 0.03202134
000020 ae 81 48 3c 12 b5 8a bd 57 33 21 3b db 76 78 bc
       0.012237949 -0.06772818 0.0024597251 -0.015165056
000030 90 3e 25 bd 85 ad 8b bc 9d 6f 61 3d 0d a6 e2 3c
       -0.040342867 -0.017050514 0.055038083 0.02766707
000040 7d a5 38 ba 7c 66 3d 3c b3 3e 58 3d 07 df 39 bc
       -0.00070437026 0.011560079 0.05279417 -0.011344678
000050 9e 2d 2f 3d 9e 47 a3 3c 3b 98 c2 bc be e9 ec bb
       0.042768113 0.01993161 -0.02375423 -0.0072300127
000060 bc 68 4d bd cd 76 bc bc 71 d2 4f 3c 15 a9 01 bc
       -0.05014871 -0.023005867 0.0126844505 -0.007913847
000070 27 fa 1f 3d e8 1d 58 3c 87 2b ba 3c 2a 2e 2b bc
       0.039056923 0.013190724 0.022725834 -0.010448018
000080 24 04 bf 3c be e7 72 3c 94 f8 a8 bc 3e f0 1b bc
       0.023317404 0.014825759 -0.020626344 -0.009517727
000090 57 e5 42 3d 4b b7 40 3d 24 b9 62 3d 4b ab e9 3c
       0.047581997 0.0470498 0.055352345 0.028524062
0000a0 75 c1 45 bd 09 fa 5e bb bf 44 d0 3c 80 65 36 bd
       -0.048280198 -0.0034023544 0.025423406 -0.04453039
0000b0 ce 28 d1 3c 9b a8 57 bb 38 ed 28 3d 35 eb 56 bb
       0.025532153 -0.0032906893 0.041241854 -0.0032794003
0000c0 3e c0 fc bc 2a 91 40 bb 20 a1 03 3d 7f 0f 69 bd
       -0.030853387 -0.00293834 0.032136083 -0.056899544
0000d0 d8 fa 6f 3c 89 97 3f 3c 0b 6f 1f ba b9 37 e9 bc
       0.014647208 0.011693844 -0.00060819153 -0.028468953
0000e0 93 96 de bc 29 43 96 3c fa 6f 01 3d af 40 63 bd
       -0.027171409 0.018342571 0.03160093 -0.05548161
0000f0 0a f6 57 bd 65 71 86 3c ac e3 38 bd 65 67 18 3d
       -0.052724876 0.016411493 -0.045139 0.03720798
000100 76 3b ee 3c ac 90 89 bc 11 50 89 3c 9f 2a 01 3d
       0.029081088 -0.016792618 0.016761811 0.031534787
000110 65 57 04 bd e9 dc 28 3c 11 83 2c bd de 20 0f bd
       -0.03230991 0.010306575 -0.042117182 -0.034943454
000120 1c d1 db 3c 4c 89 77 bd bc 03 81 3b 87 f7 17 3d
       0.02683311 -0.06043367 0.0039372128 0.037101295
000130 b6 5c 36 bd 9e 85 d3 ba 02 bd b8 bc 0e e0 24 bd
       -0.04452201 -0.0016137843 -0.022551063 -0.040252738
000140 1b 88 23 3b 28 64 2a 3d 82 7a 69 bd fe 1c 3f bd
       0.0024952951 0.041599423 -0.0570016 -0.04665851
000150 dc c3 b9 bc 05 c6 ae bc 98 db fc bb 58 67 94 3c
       -0.0226764 -0.021334657 -0.0077166073 0.018115684
000160 6c 96 2f bd cb 67 45 3b 58 69 3a 3d 7f 38 f9 3b
       -0.042868063 0.003012168 0.04551062 0.007605612
000170 55 bb c1 3c 62 c9 3e bd be 62 55 bc d5 21 23 bd
       0.023648897 -0.046578772 -0.01302403 -0.039827187
000180 ef 9f 12 bd c3 57 ac 39 f5 62 c0 3b c0 b5 74 bb
       -0.035797056 0.00032871784 0.0058711716 -0.0037339777
000190 c3 f7 ce 3b cb e0 a9 3c 16 07 5c bc ae 02 35 3d
       0.0063161566 0.020737072 -0.013429424 0.04419201
0001a0 3f 57 5e bc ab 17 e9 bc 2b cd b3 3c e1 d7 22 bd
       -0.013570606 -0.028453669 0.021948418 -0.03975666
0001b0 2f 60 65 3b 51 03 66 3d 37 b3 b8 bc 2e 92 3d bc
       0.0034999957 0.056155507 -0.022546394 -0.0115704965
0001c0 a4 e2 36 bc fc 5a 7d 3d 68 57 12 3d 0b 09 3b 3d
       -0.011162434 0.061854348 0.03572789 0.04566292
0001d0 39 5d 43 bc 27 85 14 3d 62 cd 97 3c 3d 47 8d 3b
       -0.0119240815 0.036259796 0.018530551 0.004311471
0001e0 d6 27 32 bd 1e 6b 11 3d 40 dc a4 3c a1 bf c3 bc
       -0.04349502 0.035502546 0.020124555 -0.023895087
0001f0 e6 5a 02 3d a6 a6 ce bb 3f dc 8f 3c 72 5f 0c bc
       0.03182497 -0.006306487 0.017561076 -0.008567678
000200 98 fc b4 bc 87 74 8b bc d8 ee 90 bd 77 53 2b bc
       -0.022093102 -0.017023338 -0.07076806 -0.010456911
000210 a6 f5 36 bd c7 3e ca 3c 0d ff 2e 3b 63 a7 e1 ba
       -0.044667862 0.024688138 0.0026702315 -0.0017216023
000220 57 6c 45 3d 92 e6 1a 3d 8d ca d8 3c db dd 58 3d
       0.048199024 0.037817545 0.026463771 0.052945953
000230 69 80 1a bd 99 af 09 3d 87 b4 47 3d a2 19 5d 3d
       -0.037720118 0.03361473 0.04875615 0.053979523
000240 89 0a 2e 39 b6 3b 70 bd ba 45 db 3c 2b 6a 80 bc
       0.00016597858 -0.058650695 0.026766647 -0.015675625
000250 00 89 22 bd 9f a4 93 3c c1 02 ca bc 17 e1 ef bc
       -0.039681435 0.018022833 -0.024659516 -0.029282136
000260 a2 c7 08 3d 6b 37 a8 bb f8 60 59 bd 07 3e 23 bd
       0.03339351 -0.0051335595 -0.053070992 -0.039854076
000270 f2 24 0a 3d 75 20 05 bc e2 14 18 bd 0b d9 0f bd
       0.03372664 -0.008125414 -0.03712929 -0.035119098
000280 cd 0d ee 3c 85 d9 2f bd 3d 0b ef bc 23 f0 a3 bc
       0.029059315 -0.042932052 -0.029180164 -0.020011967
000290 36 eb a5 3c 67 a1 45 3d f8 c7 c1 bc 0d 95 29 3c
       0.020253759 0.04824963 -0.023654923 0.010350478
0002a0 7b 6c 60 3c ba a3 e0 bc 77 04 0f bd fa f3 e2 3b
       0.013697739 -0.02742182 -0.034916367 0.006926057
0002b0 f2 73 4c 3c 44 19 c9 ba c7 05 94 3c 82 20 36 3c
       0.012478815 -0.0015342613 0.018069161 0.011116149
0002c0 04 79 56 bd 16 41 1d bd cc 6a 84 bd 2a da 05 3c
       -0.052361503 -0.03839215 -0.064656824 0.00816969
0002d0 10 d1 d0 bc d3 5b 33 3c 26 28 44 3c ae 37 65 3d
       -0.025490314 0.010947186 0.011972463 0.055961303
0002e0 fe 38 08 bd c4 ed 29 bb 17 aa 43 3d 1e 6e 08 3c
       -0.033257477 -0.0025929073 0.047769632 0.008327035
0002f0 fa b3 d8 3c 0f b4 61 3d cb 5a 70 3c 47 ba 9c bc
       0.026453007 0.055103358 0.014670084 -0.019131793
000300 f9 5e 04 bd 1e 70 a4 bc 1d f0 4c 3d 65 d4 12 3d
       -0.032317135 -0.020072993 0.050033677 0.035847086
000310 3d 10 95 3c f7 cf db bc 68 ab c6 3a 8a bd a7 3c
       0.01819622 -0.026832564 0.0015157284 0.020476121
000320 a7 d9 4a bd 90 7c b5 bc eb 62 86 bd aa 2e 89 bd
       -0.049523976 -0.022154123 -0.06561836 -0.066983536
000330 30 3c d7 bc de 0e da bc 16 1a 9b bc 94 40 57 3d
       -0.026273817 -0.026618417 -0.018933337 0.05255182
000340 68 bf 68 3d 61 e4 ac 3b 57 83 cd 3b 85 66 95 3c
       0.056823164 0.0052762483 0.0062717604 0.018237362
000350 37 08 53 bc 76 7d 4a 3b cf f2 24 3d e9 50 0a bd
       -0.012880377 0.0030897534 0.040270623 -0.03376857
000360 8f 5b 56 bd 6e 61 d2 bc f5 5f 34 bd 37 f1 1d 3d
       -0.05233341 -0.025681224 -0.044036824 0.03856012
000370 23 b9 23 bd 97 61 f3 bc f6 a4 11 3d 95 79 57 3d
       -0.039971482 -0.02970962 0.03555771 0.052606184
000380 6e 73 ae bc e5 57 7d bd d8 77 3d bd d8 9c 8a 3c
       -0.021295276 -0.0618514 -0.04625687 0.016920492
000390 f5 7f 81 bc fc 89 df 3c de 26 2f bc d5 a7 ed bb
       -0.015808085 0.027287476 -0.010690419 -0.007252673
0003a0 58 82 e3 3c b7 b5 6d 3d 5c d5 64 3d 86 bf d5 bc
       0.027772114 0.058034625 0.055867538 -0.026092302
0003b0 10 6b 28 bc 56 bd ab bc f9 84 36 3d de 10 04 3d
       -0.010279432 -0.020964306 0.044560406 0.03224265
0003c0 ae 26 52 bd 9d 2a 54 bd 70 aa 66 bd a7 6a 73 bc
       -0.05130642 -0.05179845 -0.056314886 -0.014856971
0003d0 94 6f ae bc 3e e9 3d bd 3e 5a 4b 3d 70 8c 31 3d
       -0.021293439 -0.046365015 0.04964661 0.043346822
0003e0 30 bf 1f bd d8 60 82 3c 25 09 1f bc 2d d1 f5 bc
       -0.03900069 0.01591532 -0.00970677 -0.03000697
0003f0 85 4d 8a 3b 87 9e 49 bc ee 87 e4 3c 91 55 0e bd
       0.004220667 -0.012305862 0.027896848 -0.03474957

model.0.bias f4 [512]
000000 b1 c5 f0 bc ce c3 db bc 30 84 9d 3c b8 5a 07 3d
       -0.029391142 -0.026826765 0.019228071 0.0330455
000010 1c fa 31 bd a0 11 15 3d 8d ad 96 3c 9d 31 0b bc
       -0.043451414 0.03639376 0.018393302 -0.008495715
000020 f2 e0 38 bd 07 da 1a 3d 63 07 d1 3a 79 5f ee bc
       -0.0451364 0.037805583 0.0015947636 -0.02909826
000030 43 6d 0e bd 4b 21 63 bd 00 ec 53 3d 4a 13 0e ba
       -0.03477217 -0.055451673 0.05173874 -0.00054197444
000040 1c c4 0c 3d 63 b3 71 bc a1 52 38 3d fe 29 43 3c
       0.034366712 -0.014752242 0.045000676 0.011911867
000050 94 14 14 bd ab e0 28 bc a2 8b db 3c bd 67 7c bc
       -0.036152437 -0.010307471 0.02679998 -0.0154055925
000060 da 60 07 3d f3 57 e8 3c 7c 34 11 bd 9e 63 6a 3d
       0.03305135 0.02836225 -0.035450444 0.05722391
000070 5f b7 91 bc 36 8c a4 bb 28 85 b9 3c 1c 35 08 3d
       -0.017787633 -0.0050215973 0.022646502 0.033253774
000080 84 5c 00 bc cb a8 81 bc 16 5f 88 bc e3 f1 1f bb
       -0.007834557 -0.015827557 -0.016646903 -0.002440565
000090 f5 72 43 bc 9d 9a 40 3d 0c b0 d4 bc 60 e0 5d 3d
       -0.011929263 0.04702245 -0.025962852 0.05416906
0000a0 7a c5 20 3d fa 86 cf bb b7 5c 2b 3d 90 d7 d0 3a
       0.03925083 -0.006333229 0.041836467 0.0015933383
0000b0 cb 48 6b bc 69 74 63 3d 04 50 1e 3c f9 48 0f 3d
       -0.014360617 0.05553094 0.009662632 0.0349817
0000c0 87 e3 5d bb 76 0c d5 bc 24 68 35 3d 51 44 2f 3d
       -0.003385754 -0.026006918 0.04428877 0.04278976
0000d0 40 20 cc 3b 5c b5 de 3c 8e d9 3a bd 3f 67 b9 bb
       0.0062294304 0.027186088 -0.045617633 -0.00565806
0000e0 c6 78 0d 3d 06 d8 2e bc bf 2c 0b bd 65 36 55 3d
       0.034539007 -0.010671621 -0.03397822 0.052053828
0000f0 49 71 28 bd 63 2f 6b 3d aa e5 15 bd fe c2 dc bc
       -0.041123662 0.05741824 -0.036595978 -0.026948448
000100 b6 70 16 bd 0a 0b 0c 3d 2b 60 4e 3d 10 87 8f bc
       -0.036728583 0.034190215 0.05038468 -0.017520458
000110 98 74 77 3c 83 4a b1 bb f3 7b 5d bd 45 26 a7 3c
       0.015103482 -0.005410494 -0.054073285 0.02040399
000120 83 df be bc 9d 74 b6 bc b8 48 4c 3c f8 a3 0b 3d
       -0.023299938 -0.022272402 0.012468509 0.03409192
000130 43 c2 c7 bc 2f 9c 19 3d 57 c9 9f 3c 75 c4 14 bd
       -0.024384623 0.037502464 0.019505186 -0.03632017
000140 ff 67 c1 bc 8f bf b7 bc b7 69 1c bd 3b bc bf 3c
       -0.02360916 -0.02243021 -0.038186755 0.023405185
000150 65 32 cd 3c c8 85 51 3b b4 44 da 3c ec f6 80 bc
       0.025048444 0.003197061 0.026644088 -0.015742742
000160 70 75 2d 3b 79 f6 8d 3b 88 2a 03 3d 35 63 54 bd
       0.0026467703 0.0043323603 0.032022983 -0.051852424
000170 f1 e1 d2 3c d8 ba 46 bd 36 5b 22 3d 74 64 45 bc
       0.025742503 -0.04851803 0.039637767 -0.012047876
000180 a5 77 e8 3c 7e ed 7b 3c 65 31 fd 3c 33 2a 48 3d
       0.028377363 0.015376447 0.030907342 0.04886837
000190 00 1f 1a 3d ad 69 f2 3c e4 3e 75 3d 7e 18 a1 bc
       0.03762722 0.029591406 0.05987443 -0.019665
0001a0 a0 5b 54 bd 0d 5a fa bc 56 92 24 bd 24 ad 4b 3a
       -0.051845193 -0.030560518 -0.04017862 0.00077696354
0001b0 b0 6c 30 3c cf f9 a6 bc bc 9e 2b 3c 59 19 2a 3d
       0.010768101 -0.02038279 0.010474857 0.04152808
0001c0 4f 85 f9 3c 8a 75 bb 3c b7 ab e4 bc ef b4 43 3a
       0.030459074 0.022883195 -0.027913911 0.0007465621
0001d0 12 8a b9 b9 23 b2 c9 3b 34 cf d0 3c fd 28 d7 3c
       -0.0003538882 0.0061552688 0.025489427 0.026264662
0001e0 50 e7 ea bb 20 fe 23 bd 7e fd 02 bd 30 a1 f5 3c
       -0.007168688 -0.040037274 -0.03198003 0.029984087
0001f0 ad 6e 4e bd a8 85 31 3d 32 15 42 3c 75 fb 2c bd
       -0.050398517 0.043340355 0.011845874 -0.042231996
000200 37 50 09 3d 7c 7e 1f 3d 81 41 29 3d 6b a3 56 bc
       0.033523764 0.038938984 0.041322235 -0.013100485
000210 dc ed ea 3c 6a 99 6e 3d bc 1b 6f bd fa 74 5b bc
       0.028677873 0.058251776 -0.05837606 -0.013394589
000220 c1 81 4b bd a2 90 11 bd 05 8a 33 bd c4 09 05 3d
       -0.04968429 -0.035538323 -0.043832798 0.032480016
000230 85 04 0e bd be 59 7e bd 22 f0 0d bd 67 67 8f bc
       -0.03467228 -0.062097304 -0.034652837 -0.01750536
000240 8d b5 73 3c 97 33 f2 3c 73 f8 33 bd 9d 3e ea 3c
       0.014874828 0.029565616 -0.04393811 0.02859431
000250 ec d7 69 bd bd 4f 3a 3d 35 75 8d ba 7b 08 e2 3c
       -0.057090685 0.0454862 -0.0010792377 0.027591934
000260 be b3 fe bc b8 19 ee bc c0 d3 15 bd a4 7f fc bb
       -0.031091567 -0.029064998 -0.036578894 -0.0077056456
000270 06 69 80 3a a4 cd 5b 3c a0 36 41 bb 22 cc 63 3d
       0.0009796924 0.013415728 -0.0029482022 0.055614598
000280 ba 4a 56 3d 8a 22 4e 3b 13 57 2b bc 3e 62 06 3d
       0.05231736 0.0031453692 -0.010457772 0.032808535
000290 ff a9 1f bd bd d7 07 3d c6 8c aa 3c ae 20 ba ba
       -0.03898048 0.03316473 0.02081908 -0.0014200413
0002a0 fc d8 0a 3d ad 1c c9 3c 74 5d 10 3c 5b 41 f7 3c
       0.03389834 0.024549806 0.008811343 0.030182531
0002b0 38 bb 0b 3d 40 b0 43 3d 68 d0 02 bd bf a5 d6 3c
       0.034114093 0.047775507 -0.031937033 0.02620208
0002c0 a0 ee 31 3c 2e 35 59 3c 20 a5 ad bc fd 5a ad 3a
       0.010860115 0.013257308 -0.021196902 0.0013225969
0002d0 91 b1 9b 3b d7 e1 c3 bb c4 76 0a 3d 96 b4 a9 3c
       0.004751392 -0.00597785 0.03380467 0.020715993
0002e0 1e c5 b4 bb e9 4c 80 3c 86 d4 9d bc 2c 89 67 3c
       -0.0055166623 0.015661674 -0.019266378 0.014131825
0002f0 69 6c b6 3c ca 2a 16 3c cb 79 0d 3d a3 26 db 3b
       0.02226849 0.009165475 0.03453998 0.0066879555
000300 86 aa fe bc 60 81 db bc a9 2b 87 bc af e1 8c 3c
       -0.031087171 -0.02679509 -0.016500311 0.017197458
000310 fb 7f 71 3d 5c 93 f5 bb 66 4b db bc 30 0a a2 3c
       0.058959942 -0.0074943732 -0.026769351 0.019780248
000320 29 39 2e 3d d7 17 ea bc 4f d1 46 3d 81 ce 1f bd
       0.04253498 -0.02857582 0.048539456 -0.039015297
000330 cb a0 13 3d 34 74 1f 3b d5 13 05 bb 75 2a 2e bd
       0.036042016 0.0024330737 -0.002030601 -0.04252096
000340 21 31 36 bb af 83 b6 3c cc 72 b0 3c ab c1 53 3d
       -0.002780028 0.022279589 0.021539114 0.051698368
000350 dc ee 1a bd 34 fa 05 3d 04 8b cf 3c e4 04 97 3c
       -0.03782545 0.032709315 0.025334843 0.01843495
000360 d3 13 8f bc f7 7b 4e 3c 2d 8c 37 3d 69 5c fb bc
       -0.017465508 0.012602798 0.044811416 -0.030683713
000370 01 3c 92 ba e8 bf 09 bd ec fd 96 3c 19 59 a0 3c
       -0.0011156799 -0.03363028 0.018431626 0.019573735
000380 17 18 59 3d ea 7e 25 3d 33 87 83 3c 29 95 28 3d
       0.05300149 0.040404238 0.016055679 0.041157875
000390 ec 42 44 bd e2 df 11 bd c6 96 09 bd c6 6e 15 bd
       -0.047915384 -0.035613902 -0.033591054 -0.036482595
0003a0 44 1d be 3a d1 32 00 bc 32 c7 32 3d 35 89 09 bd
       0.0014504571 -0.007824616 0.043647 -0.033578116
0003b0 90 2c 47 bd 9f 9f 21 3d 1d 66 dd bc ee 51 b8 3c
       -0.048626482 0.039458867 -0.02702623 0.022500005
0003c0 d6 ff 27 3d 72 6e 7a 3d 28 e3 d6 bc b2 fe af bc
       0.04101547 0.061140485 -0.026231363 -0.021483753
0003d0 16 5f 15 bd a7 a0 3d b8 ab 66 c4 3b eb ab 57 bc
       -0.036467634 -4.521073e-05 0.0059936843 -0.013163547
0003e0 c5 c3 4b 3c c2 f2 29 3d fd bb 5e 3d 84 f1 15 3c
       0.012436812 0.041491278 0.0543785 0.00915182
0003f0 bf 45 44 bd 03 1b f3 3c f4 c0 f9 3c 1e 62 00 3d
       -0.047918078 0.029675966 0.030487515 0.03134357

model.2.weight f4 [24, 512]
000000 c4 6f 11 bc 83 14 71 bb 73 e2 e9 3b 2a 65 f6 bc
       -0.008876745 -0.0036785908 0.0071375906 -0.030077536
000010 5d ef 34 bd 12 e0 35 bd 4c ef e2 bc 00 bf 13 bd
       -0.044173587 -0.044403143 -0.027701996 -0.036070824
000020 a6 41 ea 3b 2b 1f 1f 3d 81 de 37 bd 16 6f 93 bc
       0.007148939 0.038848083 -0.04488993 -0.017997306
000030 04 da 31 3d 8a dd fe bc f0 43 b8 3c 96 6e 97 3c
       0.043420807 -0.031111497 0.022493333 0.018485349
000040 68 89 e3 3c 73 55 49 bc a1 14 20 bc a7 9f b8 3c
       0.027775481 -0.012288439 -0.009770543 0.022537066
000050 60 14 84 bc a3 4c 61 3b da 56 73 bc d4 ca 1b 3c
       -0.016122997 0.0034377954 -0.01485225 0.009508807
000060 1a ad a4 3c bf 02 90 3c a1 80 d8 bb 82 c0 54 3a
       0.020102073 0.017579434 -0.0066071306 0.0008115844
000070 4f 97 08 3d 92 61 b1 3b 15 8a c1 bc 1a c0 a3 bb
       0.033347424 0.0054132426 -0.023625413 -0.0049972655
000080 e0 65 ca 3b 6b 94 8f 3c 43 73 bf bb 53 d4 0d 3c
       0.006176695 0.017526826 -0.0058425977 0.008656579
000090 22 e0 a1 bc 99 05 60 bc 2a 5d 99 bc 95 bf 2a 3d
       -0.019760195 -0.01367321 -0.018721182 0.041686613
0000a0 30 20 b7 bb 3f d8 04 3d 69 5b c3 3c 22 62 11 3d
       -0.005588554 0.03243279 0.023847299 0.035493977
0000b0 e8 89 48 3c c4 e3 f7 bc e1 50 da bc 15 a8 aa bb
       0.012239911 -0.030259974 -0.026649894 -0.005208025
0000c0 46 f4 e7 bc d9 e6 02 3d 80 f2 a3 37 d8 26 c6 3c
       -0.02831472 0.031958435 1.9544037e-05 0.024188444
0000d0 b0 25 00 bd 49 2b e3 3c bf 24 d1 bb 67 a0 a3 3c
       -0.03128594 0.0277306 -0.0063825543 0.019973947
0000e0 8b e3 de bc 0f f0 6d bc 3e 83 a9 bc 63 e5 ef 3b
       -0.02720811 -0.014522566 -0.020692464 0.007321046
0000f0 d3 50 c6 3c b1 33 c6 bb 18 7b 0c bc 05 05 97 bc
       0.024208462 -0.0060486426 -0.00857427 -0.01843501
000100 10 d5 2c bd 9e 63 ec bc 96 db 70 3c 43 33 bc 3b
       -0.04219538 -0.028856095 0.014700791 0.0057434156
000110 d6 66 cd 3c 8c 34 32 bc 8f aa ae 3c 9d e5 8f 3b
       0.02507345 -0.010876786 0.021321563 0.0043913857
000120 81 85 53 bb d7 10 1a bd 10 5c c9 ba 78 9e 0a bd
       -0.003227562 -0.037613716 -0.001536252 -0.033842534
000130 9b 69 5d bc b2 40 ed 3c be 23 ac 3c aa ec a5 3c
       -0.013513948 0.028961513 0.021013137 0.020254452
000140 46 65 b1 3c 47 81 99 bb 47 b7 84 bd fb 44 c5 3c
       0.021654736 -0.0046846005 -0.0648027 0.024080744
000150 9f 05 87 3c e6 15 1e bc 87 c7 f5 3c 13 9c 92 bc
       0.016482173 -0.009648776 0.030002369 -0.017896688
000160 fc 06 20 bc 60 04 fb 3c 18 0e ad 3c f2 ae b4 3a
       -0.00976729 0.030641735 0.021124884 0.0013785048
000170 0e d7 61 bb 94 60 7d 3c e8 a8 dd 3c e8 5b 99 3c
       -0.0034460458 0.015464921 0.02705808 0.018720582
000180 2f 7b ee 3b 1f a3 df 3c da 28 f6 bc 2f ed 0e bd
       0.007277868 0.027299462 -0.030048776 -0.034894165
000190 71 69 16 bc 24 3e 25 3d 46 e7 34 bc 1a 75 c0 bc
       -0.009180413 0.040342465 -0.011041468 -0.023493338
0001a0 ba 55 73 3c e0 72 e9 3c 67 43 f9 bc 79 98 f4 bc
       0.014851982 0.02849716 -0.030427648 -0.02985786
0001b0 f9 d2 c4 3c 89 1f f9 ba a5 93 9f bb 70 a1 dd bc
       0.02402638 -0.0019006591 -0.0048698955 -0.027054518
0001c0 61 10 94 bc b6 bd 06 bd 80 14 08 3c b4 1b b6 bc
       -0.018074216 -0.032895766 0.008305669 -0.022230007
0001d0 1c c4 39 3d 6e f8 c6 3c ea 98 fb 3c 57 33 1b bc
       0.04535304 0.024288382 0.030712564 -0.00947269
0001e0 53 57 06 3d 90 b8 80 ba 8f a9 12 3d 9c de 03 bc
       0.032798123 -0.0009820629 0.035806235 -0.00804868
0001f0 37 25 30 3c 20 f6 21 bc 38 87 22 3c 17 bd 26 bc
       0.01075106 -0.009885341 0.009919934 -0.0101769185
000200 da be c4 3c 42 b6 37 bc b2 4b ae 3c f0 89 55 bb
       0.024016786 -0.011212887 0.021276329 -0.0032583438
000210 d8 62 4b bb 25 c0 6a 3b 2c ca 0c bd e1 a8 5d 3b
       -0.0031034257 0.0035820093 -0.034372494 0.0033822584
000220 49 d7 0a bd 7f 54 1a bd bc ef ad bc 41 eb 1b 3d
       -0.03389672 -0.037678238 -0.021232478 0.038066152
000230 d1 ea b4 bc 65 5b b5 3c c7 f0 03 bd dc 4a 9d 3c
       -0.022084625 0.022138307 -0.032212045 0.019200735
000240 d3 04 ee bc ab 8d de bc 90 c3 3f 3c fe 2a 64 bd
       -0.029055035 -0.027167162 0.011704341 -0.055705063
000250 79 48 38 3c ff 57 20 3d 54 fa b7 3c e0 d8 7f bb
       0.011247748 0.03914642 0.022458233 -0.003903918
000260 a8 a2 0a bd 02 b8 61 bc d6 83 04 bd 04 fe 0f 3c
       -0.033846527 -0.013776781 -0.03235229 0.008788589
000270 1b af f7 bc 22 fc ea 3b 4f 0a 89 bc dd 37 8e 3c
       -0.030234864 0.00717117 -0.016728548 0.017360622
000280 7f 5d 3e bc 40 d8 c2 3c 09 02 10 bd c6 43 15 3c
       -0.011618971 0.023784757 -0.03515819 0.009110397
000290 8b 1c 54 3c 9e 35 9c bb f7 df 84 3c 34 f2 43 bc
       0.012946258 -0.004767134 0.016220076 -0.011959601
0002a0 a1 86 37 bc 55 43 01 bd b4 2c 49 3d a0 5b 97 3a
       -0.011201532 -0.031558353 0.049114898 0.0011547692
0002b0 cd 8f 09 3b f6 36 cf bb 21 2a 13 bd 14 04 ba 3a
       0.0020990253 -0.0063236905 -0.03592885 0.0014191889
0002c0 30 fb 4c 3c 72 aa de bc 48 d1 07 3d d1 df b5 bc
       0.01251106 -0.027180884 0.03315857 -0.02220145
0002d0 32 3e 66 bc 9f 9f b0 bc b5 41 28 3d 08 8c b7 bc
       -0.014052914 -0.021560488 0.041078288 -0.02240564
0002e0 4b 82 d3 ba 52 10 0d 3d 43 68 29 3d 34 1b b7 3c
       -0.0016136853 0.034439392 0.041359197 0.022351839
0002f0 b9 60 2e bd 59 ba 06 3d 8a 82 6c 3b 45 41 fb 3c
       -0.04257271 0.03289256 0.003608855 0.030670771
000300 81 12 00 bc 6e 94 4b 3c 38 a0 a1 3c 96 84 db 3c
       -0.007816912 0.012425525 0.019729719 0.02679662
000310 f9 b7 97 bc d8 bf 98 bc fd 67 ed bc 29 de 8b 3c
       -0.018520342 -0.018646166 -0.02898025 0.017073708
000320 90 f3 81 bc b7 93 95 bb 9e b2 48 bc 8b 1a 2b bd
       -0.01586321 -0.004564728 -0.012249617 -0.04177336
000330 c5 26 26 3a 68 23 0b bc 3e 12 92 3c 04 0c eb 3b
       0.00063381746 -0.008492328 0.017830964 0.0071730632
000340 0f 2b 35 3d 92 3b 8a 3b 25 fa a5 3c a3 56 b9 bc
       0.044230517 0.004218527 0.02026088 -0.02262432
000350 58 64 dd ba 26 59 6a bc dc a4 c8 3b 45 c3 bf bb
       -0.0016890867 -0.014303481 0.0061231684 -0.0058521354
000360 90 99 db 3c be 3f fc ba be 2b 71 bc 05 af 36 3d
       0.026806623 -0.0019245071 -0.014719902 0.044600505
000370 c6 9d 7d bc 2b 38 e5 3c bc 0c 56 3a 14 42 48 3c
       -0.015479511 0.027980885 0.000816535 0.0122227855
000380 2c 6d 06 bd ea 9e 15 bd 05 23 47 bc 6e 20 71 3d
       -0.03281896 -0.036528505 -0.012154345 0.058868818
000390 19 87 d7 3b 46 a4 01 3d 4d 19 83 3c 19 94 ff bc
       0.006577384 0.031650804 0.016003275 -0.031198548
0003a0 cf 5c 82 bc d2 04 86 bc 9b 05 83 3c 8a ba a4 3c
       -0.015913395 -0.01635972 0.015993884 0.02010848
0003b0 69 b5 a2 3c db a5 90 bc 01 d2 da 3c bd f7 2d 3d
       0.019861894 -0.017657211 0.026711466 0.04247259
0003c0 6d 13 03 bc 10 bc 0c bd aa 82 5d bc 52 0b ec bb
       -0.008000237 -0.034359038 -0.013519922 -0.007203498
0003d0 72 bb 0d 3c d4 a3 b1 3c 56 53 89 bc 26 5b 25 3d
       0.0086506475 0.021684565 -0.01676337 0.04037013
0003e0 76 78 fd 3c 9b e3 e1 3c 66 6b f4 3b 1d e6 b5 3b
       0.03094123 0.027574351 0.007459092 0.0055511133
0003f0 05 72 9d bc 0c d8 d1 3c da d7 0e bc 9f 58 2c bc
       -0.019219408 0.025615714 -0.008718455 -0.010519176

model.2.bias f4 [24]
000000 d5 e2 30 3d d6 fa 9d bc a9 80 8c bc 28 0f f9 bc
       0.043185074 -0.019284647 -0.017151194 -0.030402735
000010 56 b1 c5 bc 29 3f 29 3c 8e 88 fd bc 4b de 05 3d
       -0.024132412 0.01033 -0.030948903 0.0326827
000020 75 55 fe 3c 6d ef 7d 3a 35 58 30 3c c5 47 01 bd
       0.031046608 0.00096868613 0.010763218 -0.031562585
000030 92 58 fd 3c 2c d2 1f 3d 24 a8 5e bc 20 9b b1 3c
       0.030926023 0.039018795 -0.013589893 0.021680415
000040 b5 82 09 3d cc 44 58 3c d3 a2 b8 3b d7 24 57 bc
       0.033571918 0.013199996 0.0056346445 -0.013131342
000050 2b b7 42 ba 18 eb d3 3c ae 4c 1a bb 39 17 35 3c
       -0.0007427807 0.025868937 -0.002354424 0.0110529
