checkpoints/solar_data_CycleNet_solar_data_ftMS_sl336_ll48_pl1/checkpoint.pth (torch, 695847 bytes, 4 tensors)

cycleQueue.data f4 [24, 12]
0	0x00000000	0.0
1	0x00000000	0.0
2	0x00000000	0.0
3	0x00000000	0.0
4	0x00000000	0.0
5	0x00000000	0.0
6	0x00000000	0.0
7	0x00000000	0.0
8	0x00000000	0.0
9	0x00000000	0.0
10	0x00000000	0.0
11	0xbaee01da	-0.0018158511
12	0x00000000	0.0
13	0x00000000	0.0
14	0x00000000	0.0
15	0x00000000	0.0
16	0x00000000	0.0
17	0x00000000	0.0
18	0x00000000	0.0
19	0x00000000	0.0
20	0x00000000	0.0
21	0x00000000	0.0
22	0x00000000	0.0
23	0xba2127bb	-0.0006147583
24	0x00000000	0.0
25	0x00000000	0.0
26	0x00000000	0.0
27	0x00000000	0.0
28	0x00000000	0.0
29	0x00000000	0.0
30	0x00000000	0.0
31	0x00000000	0.0
32	0x00000000	0.0
33	0x00000000	0.0
34	0x00000000	0.0
35	0xbb073fbe	-0.0020637359
36	0x00000000	0.0
37	0x00000000	0.0
38	0x00000000	0.0
39	0x00000000	0.0
40	0x00000000	0.0
41	0x00000000	0.0
42	0x00000000	0.0
43	0x00000000	0.0
44	0x00000000	0.0
45	0x00000000	0.0
46	0x00000000	0.0
47	0x3b7b2fe3	0.0038328103
48	0x00000000	0.0
49	0x00000000	0.0
50	0x00000000	0.0
51	0x00000000	0.0
52	0x00000000	0.0
53	0x00000000	0.0
54	0x00000000	0.0
55	0x00000000	0.0
56	0x00000000	0.0
57	0x00000000	0.0
58	0x00000000	0.0
59	0x3b676668	0.0035308842
60	0x00000000	0.0
61	0x00000000	0.0
62	0x00000000	0.0
63	0x00000000	0.0
64	0x00000000	0.0
65	0x00000000	0.0
66	0x00000000	0.0
67	0x00000000	0.0
68	0x00000000	0.0
69	0x00000000	0.0
70	0x00000000	0.0
71	0xbc30417c	-0.0107578
72	0x00000000	0.0
73	0x00000000	0.0
74	0x00000000	0.0
75	0x00000000	0.0
76	0x00000000	0.0
77	0x00000000	0.0
78	0x00000000	0.0
79	0x00000000	0.0
80	0x00000000	0.0
81	0x00000000	0.0
82	0x00000000	0.0
83	0xbc728ff7	-0.014804832
84	0x00000000	0.0
85	0x00000000	0.0
86	0x00000000	0.0
87	0x00000000	0.0
88	0x00000000	0.0
89	0x00000000	0.0
90	0x00000000	0.0
91	0x00000000	0.0
92	0x00000000	0.0
93	0x00000000	0.0
94	0x00000000	0.0
95	0xbbb8da0d	-0.005641228
96	0x00000000	0.0
97	0x00000000	0.0
98	0x00000000	0.0
99	0x00000000	0.0
100	0x00000000	0.0
101	0x00000000	0.0
102	0x00000000	0.0
103	0x00000000	0.0
104	0x00000000	0.0
105	0x00000000	0.0
106	0x00000000	0.0
107	0x3b93aaf8	0.004506465
108	0x00000000	0.0
109	0x00000000	0.0
110	0x00000000	0.0
111	0x00000000	0.0
112	0x00000000	0.0
113	0x00000000	0.0
114	0x00000000	0.0
115	0x00000000	0.0
116	0x00000000	0.0
117	0x00000000	0.0
118	0x00000000	0.0
119	0x3b72c788	0.00370452
120	0x00000000	0.0
121	0x00000000	0.0
122	0x00000000	0.0
123	0x00000000	0.0
124	0x00000000	0.0
125	0x00000000	0.0
126	0x00000000	0.0
127	0x00000000	0.0
128	0x00000000	0.0
129	0x00000000	0.0
130	0x00000000	0.0
131	0xbb2329f0	-0.0024896823
132	0x00000000	0.0
133	0x00000000	0.0
134	0x00000000	0.0
135	0x00000000	0.0
136	0x00000000	0.0
137	0x00000000	0.0
138	0x00000000	0.0
139	0x00000000	0.0
140	0x00000000	0.0
141	0x00000000	0.0
142	0x00000000	0.0
143	0x3b9aa19f	0.0047189738
144	0x00000000	0.0
145	0x00000000	0.0
146	0x00000000	0.0
147	0x00000000	0.0
148	0x00000000	0.0
149	0x00000000	0.0
150	0x00000000	0.0
151	0x00000000	0.0
152	0x00000000	0.0
153	0x00000000	0.0
154	0x00000000	0.0
155	0x3b07b911	0.0020709673
156	0x00000000	0.0
157	0x00000000	0.0
158	0x00000000	0.0
159	0x00000000	0.0
160	0x00000000	0.0
161	0x00000000	0.0
162	0x00000000	0.0
163	0x00000000	0.0
164	0x00000000	0.0
165	0x00000000	0.0
166	0x00000000	0.0
167	0x39c1c8a8	0.0003696133
168	0x00000000	0.0
169	0x00000000	0.0
170	0x00000000	0.0
171	0x00000000	0.0
172	0x00000000	0.0
173	0x00000000	0.0
174	0x00000000	0.0
175	0x00000000	0.0
176	0x00000000	0.0
177	0x00000000	0.0
178	0x00000000	0.0
179	0x3b694a2a	0.0035597184
180	0x00000000	0.0
181	0x00000000	0.0
182	0x00000000	0.0
183	0x00000000	0.0
184	0x00000000	0.0
185	0x00000000	0.0
186	0x00000000	0.0
187	0x00000000	0.0
188	0x00000000	0.0
189	0x00000000	0.0
190	0x00000000	0.0
191	0x3bda6da2	0.0066659013
192	0x00000000	0.0
193	0x00000000	0.0
194	0x00000000	0.0
195	0x00000000	0.0
196	0x00000000	0.0
197	0x00000000	0.0
198	0x00000000	0.0
199	0x00000000	0.0
200	0x00000000	0.0
201	0x00000000	0.0
202	0x00000000	0.0
203	0x37e89f91	2.7730859e-05
204	0x00000000	0.0
205	0x00000000	0.0
206	0x00000000	0.0
207	0x00000000	0.0
208	0x00000000	0.0
209	0x00000000	0.0
210	0x00000000	0.0
211	0x00000000	0.0
212	0x00000000	0.0
213	0x00000000	0.0
214	0x00000000	0.0
215	0xbbfb40a6	-0.007667619
216	0x00000000	0.0
217	0x00000000	0.0
218	0x00000000	0.0
219	0x00000000	0.0
220	0x00000000	0.0
221	0x00000000	0.0
222	0x00000000	0.0
223	0x00000000	0.0
224	0x00000000	0.0
225	0x00000000	0.0
226	0x00000000	0.0
227	0xbb9d99dc	-0.004809601
228	0x00000000	0.0
229	0x00000000	0.0
230	0x00000000	0.0
231	0x00000000	0.0
232	0x00000000	0.0
233	0x00000000	0.0
234	0x00000000	0.0
235	0x00000000	0.0
236	0x00000000	0.0
237	0x00000000	0.0
238	0x00000000	0.0
239	0x38063ee4	3.200666e-05
240	0x00000000	0.0
241	0x00000000	0.0
242	0x00000000	0.0
243	0x00000000	0.0
244	0x00000000	0.0
245	0x00000000	0.0
246	0x00000000	0.0
247	0x00000000	0.0
248	0x00000000	0.0
249	0x00000000	0.0
250	0x00000000	0.0
251	0x3b2f41e6	0.002674216
252	0x00000000	0.0
253	0x00000000	0.0
254	0x00000000	0.0
255	0x00000000	0.0

model.0.weight f4 [512, 336]
0	0x3c72644c	0.01479442
1	0xbd529ef2	-0.051421113
2	0x3d51edc1	0.05125213
3	0xbbefdc77	-0.0073199826
4	0x3d3f54ea	0.04671184
5	0xb9ff1b5e	-0.0004865778
6	0xbc5bc7a0	-0.0134142935
7	0x3d3bb790	0.045829356
8	0x3d1fb7e6	0.03899374
9	0xbcc23619	-0.023707436
10	0x3c1468ee	0.00905822
11	0x3c3eaa48	0.011637278
12	0x3d455809	0.04817966
13	0x3d5466d4	0.051855877
14	0xbb295e76	-0.0025843657
15	0xbd4b72ef	-0.049670156
16	0xbca322b2	-0.019914005
17	0xbccc7ec9	-0.0249628
18	0xbd27dbbd	-0.040981043
19	0x3c90ed2b	0.017691216
20	0x3c1b6e92	0.009486811
21	0xbd2ad821	-0.041710023
22	0xbd0a3790	-0.033744395
23	0xbcef119d	-0.029183203
24	0xbd7d1f82	-0.061797626
25	0x3ccb0b05	0.024785528
26	0xbcfa3587	-0.030543102
27	0x3d4a07ee	0.04932397
28	0xbd3163f8	-0.04330823
29	0xbc32c77d	-0.0109118195
30	0xbd26255a	-0.040562965
31	0x3d00f3e9	0.03148261
32	0x3c864c2a	0.01639374
33	0x3d315ccd	0.043301392
34	0x3d597970	0.053094327
35	0xbca9d372	-0.020730708
36	0xbd0b4d11	-0.034009043
37	0x3d0be1c9	0.034150872
38	0x3d2f1bb9	0.042751048
39	0x3d5084bd	0.05090784
40	0x3a536d58	0.0008065305
41	0xbc048720	-0.008088857
42	0x3bc8abce	0.0061239963
43	0xbc1ae765	-0.009454583
44	0x3d4c11ed	0.049821783
45	0x3aadd422	0.0013262073
46	0x3bf57236	0.0074904216
47	0xbce40966	-0.027836513
48	0xbd1f10b2	-0.03883428
49	0xbca131a2	-0.019676987
50	0xbd63111e	-0.055436246
51	0xbca56cca	-0.020193476
52	0x3d3e864e	0.0465148
53	0x3b92dba6	0.0044817505
54	0xbc8222df	-0.015885768
55	0x3d0cd418	0.034381956
56	0x3d2582c7	0.040407922
57	0xbd2630de	-0.040573947
58	0xbc577180	-0.013149619
59	0xbd06d3de	-0.032916896
60	0x3d084c47	0.03327587
61	0x3d05e69f	0.03269064
62	0xba9b47d9	-0.0011846974
63	0x3ce012e3	0.027352756
64	0xbd24d151	-0.040238682
65	0xbd2424d7	-0.040074196
66	0x3d08015d	0.033204425
67	0x3c5b48a5	0.013384019
68	0xbd50f41d	-0.051014055
69	0xbd2e66a1	-0.042578343
70	0xbd1e6eee	-0.03868001
71	0x3ccdbe4f	0.02511516
72	0xbcde0197	-0.027100367
73	0xbd0ed203	-0.03486825
74	0xbb89b90e	-0.0042029684
75	0x3c1467a0	0.009057909
76	0x3c6c2706	0.014413601
77	0x3cd7471e	0.026279029
78	0x3d156249	0.036470685
79	0x3ce6de2c	0.028182112
80	0x3c234552	0.009965258
81	0xbcb10046	-0.021606576
82	0xbc2e55ed	-0.0106406035
83	0xbbd6fad9	-0.006560665
84	0xbc9377ac	-0.0180014
85	0xbc385536	-0.011250785
86	0xbbfa0538	-0.0076300167
87	0x3ca4e904	0.020130642
88	0x3cdc50be	0.02689397
89	0xbcdd795f	-0.027035413
90	0x3d0b01f8	0.033937424
91	0xbc2800f6	-0.010254135
92	0x3d178cc2	0.03699947
93	0xbd3e4ad7	-0.04645809
94	0x3c48aff6	0.012248984
95	0xbc8e3c76	-0.017362814
96	0x3d24db6b	0.040248316
97	0x3d132674	0.035925344
98	0x3d48d93b	0.049035292
99	0xbd22f673	-0.039785814
100	0x3d330c2c	0.04371278
101	0x3d0b89be	0.034066908
102	0xbd362276	-0.04446646
103	0x3d5940d2	0.053040333
104	0x3c34cc2c	0.0110350065
105	0xbc207cb3	-0.009795356
106	0x3cb987be	0.022647735
107	0xbc5a99db	-0.013342346
108	0x3cd64f5b	0.026160887
109	0xbca6078a	-0.020267267
110	0x3d354779	0.044257615
111	0xbc7553f2	-0.014973627
112	0xbc93a6c9	-0.018023865
113	0xbc1948fe	-0.009355782
114	0x3d0c4d87	0.034253623
115	0x3d24c012	0.040222235
116	0x3a937feb	0.0011253332
117	0x3cc22ca9	0.023702936
118	0xbcefe8ad	-0.029285753
119	0xbd11d5a5	-0.035604138
120	0x3d0c5694	0.034262255
121	0xbc898c06	-0.016790401
122	0xbca74e59	-0.020423101
123	0x3bfe194a	0.0077544795
124	0xbc864b01	-0.016393187
125	0xbc5f1561	-0.013615937
126	0xbcbde737	-0.02318154
127	0x3d05aa02	0.032632835
128	0x3d2f7f4b	0.042846005
129	0xbb9b2f41	-0.0047358577
130	0xbd53db59	-0.051722858
131	0xbc9ed40d	-0.019388223
132	0x3d533e93	0.051573347
133	0x3d11a89c	0.03556119
134	0xbcb32656	-0.021868866
135	0x3bd6df2e	0.006557367
136	0xbd42f47e	-0.047596447
137	0x3ca03ac4	0.019559272
138	0x3d486fa7	0.048934605
139	0xbbaa1d59	-0.005191487
140	0x3d229121	0.039689187
141	0xbd0d8407	-0.03454974
142	0xbd1f2adf	-0.038859244
143	0xbd405534	-0.046956256
144	0xbcc000de	-0.023437914
145	0x3d2e00df	0.0424813
146	0xbca566b7	-0.02019058
147	0x3d23b3c8	0.039966375
148	0xbcda68d1	-0.026661308
149	0xbcd0a6ea	-0.025470216
150	0x3d46a770	0.048499525
151	0xbb5906bd	-0.0033115589
152	0x3c77bf9a	0.015121365
153	0xbac50801	-0.0015032293
154	0xbd3dd36a	-0.0463442
155	0xbcd57654	-0.0260574
156	0xbd072c6b	-0.033001345
157	0x3d5b73a5	0.053577084
158	0xbd52292b	-0.051308792
159	0x3d17f0c6	0.037094854
160	0x3cecb56c	0.028895102
161	0xbd49f248	-0.049303323
162	0x3d182dad	0.037152935
163	0x3c9c40b5	0.019073823
164	0x3d5173d1	0.05113584
165	0xbd092e4e	-0.033491425
166	0xbc184c89	-0.009295591
167	0xbc0d6540	-0.008630097
168	0x3d1fc4f3	0.039006185
169	0xbcd0f553	-0.025507605
170	0x3d243bca	0.04009608
171	0x3c2f998b	0.01071776
172	0xbd329de2	-0.0436076
173	0xbcd8f3e4	-0.026483484
174	0xbc90d3d1	-0.017679127
175	0xbbcaa58c	-0.0061842855
176	0xbd0675ac	-0.032827064
177	0xbd09b59a	-0.033620454
178	0xbbf1ad33	-0.0073753833
179	0xbd5902df	-0.052981254
180	0xbc9dd7a4	-0.019267865
181	0xbd45275e	-0.048133247
182	0x3cfd3b42	0.030912045
183	0xbd3806a5	-0.04492821
184	0x3bc81320	0.0061057955
185	0x3d04db3f	0.032435652
186	0x3c6eb3e6	0.014569258
187	0x3d0f62dd	0.035006393
188	0x3b947056	0.004529993
189	0xbd333dd1	-0.043760125
190	0x3cc11b69	0.02357264
191	0xbd77a627	-0.06046119
192	0xbd76c7c9	-0.060249124
193	0x3cf15979	0.02946161
194	0xbc12d308	-0.008961447
195	0xb9aa2593	-0.00032452922
196	0x3c2d9bf2	0.010596262
197	0x3d340b02	0.04395581
198	0xbccd3cc0	-0.025053382
199	0xbcf356fd	-0.029704565
200	0xbd6fc155	-0.058533985
201	0xbc85e6e7	-0.016345454
202	0xbcfc8f59	-0.030830072
203	0x3c9066a5	0.01762707
204	0xbd3cad8c	-0.046063945
205	0xbd4ff152	-0.05076725
206	0xbcaebb69	-0.021329599
207	0x3caf959f	0.02143365
208	0x3d295ec6	0.04135015
209	0x3cb47984	0.0220306
210	0xbc5465cf	-0.012963726
211	0xbc6c28f7	-0.014414064
212	0xbc8d47d1	-0.017246159
213	0x3d623787	0.055228736
214	0xbc4bff0a	-0.012450943
215	0xbb9f93f8	-0.004869934
216	0x3d153627	0.036428597
217	0x3ce853a1	0.02836019
218	0xbcd654f7	-0.026163561
219	0x3d0166ea	0.031592287
220	0x3d406bf1	0.04697794
221	0xbd3b38bb	-0.0457084
222	0xb9297776	-0.00016161599
223	0x3d195881	0.03743792
224	0xbd5ad521	-0.05342591
225	0xbbfedd2b	-0.00777783
226	0x3d155db1	0.036466304
227	0xbcab6cb6	-0.02092586
228	0xbd45edce	-0.04832249
229	0x3d4bcb21	0.049754266
230	0x3ce90d82	0.028448824
231	0xbd4e0794	-0.050300196
232	0xbc9348a3	-0.017978972
233	0x3ce7d71b	0.028300812
234	0x3cfb7828	0.030696943
235	0x3aa7087e	0.001274362
236	0xbc6687bd	-0.014070448
237	0xbc900a05	-0.017582903
238	0x3c8f722b	0.017510494
239	0xbd236e62	-0.03990019
240	0xbc2a6cd0	-0.0104019195
241	0xbcccf2b5	-0.025018075
242	0xbd3ec4f6	-0.046574555
243	0xbc9512ce	-0.018197443
244	0xbd4e3bed	-0.05035012
245	0xbce7f9e7	-0.028317405
246	0xbd25121f	-0.040300485
247	0xbd5253c7	-0.051349428
248	0xbd0d551b	-0.03450499
249	0xbd471cc9	-0.048611436
250	0xbd32ac8b	-0.04362158
251	0xbd46776f	-0.048453745
252	0x3d456b17	0.048197832
253	0xbd4b7c14	-0.049678877
254	0x3938e972	0.00017634573
255	0x3c5229c1	0.012827338

model.0.bias f4 [512]
0	0x3d674568	0.056462675
1	0xbd4126c6	-0.047156118
2	0xbacf9df7	-0.0015839924
3	0x3c117f79	0.0088804895
4	0xbc5a1af0	-0.013312086
5	0x3cc99032	0.02460489
6	0xbba173e4	-0.0049271453
7	0x3ca118d6	0.019665163
8	0xbcd5f360	-0.026117027
9	0xbc122839	-0.008920723
10	0x3c2f4e4e	0.010699822
11	0xbc2dde8e	-0.010612143
12	0xbc8578a0	-0.01629287
13	0xbd38846c	-0.045048162
14	0x3d4ffa29	0.05077568
15	0xbb48745d	-0.0030586936
16	0xbc943216	-0.01809029
17	0xbcb65d6a	-0.02226134
18	0x3cfeca88	0.031102434
19	0xbd5b9def	-0.053617414
20	0x3cc963df	0.024583755
21	0x3d2b5f60	0.041839004
22	0xbbcadee0	-0.0061911196
23	0xbc10a289	-0.008827814
24	0xbb82639c	-0.0039791595
25	0x3cce23d1	0.025163563
26	0x3c1f4390	0.009720698
27	0x3adf16da	0.001702036
28	0xbcfedb21	-0.031110348
29	0x3ce53a11	0.02798179
30	0xbc989aa0	-0.018628418
31	0xbd31bf03	-0.043395054
32	0x3c912c3c	0.017721288
33	0xbd6503b7	-0.055911746
34	0xbce39ba3	-0.027784174
35	0xbd21c9ef	-0.03949922
36	0x3ae9030a	0.0017777395
37	0x3d36f100	0.04466343
38	0x3c0472c5	0.008084004
39	0x3b83eb22	0.0040258327
40	0x3d060569	0.032720003
41	0x3d194782	0.03742171
42	0x3cbb57c7	0.022869004
43	0xbd44227f	-0.04788446
44	0x3c976c74	0.018484332
45	0x3ce38b5f	0.027776418
46	0x3d5c3dbb	0.05376981
47	0x3c9e0c58	0.019292995
48	0x3d2eb5b3	0.04265375
49	0xbceb07c7	-0.028690232
50	0xbd0c63d2	-0.034274884
51	0x3c979832	0.01850519
52	0x3b988ab8	0.0046552084
53	0x3ceb22fb	0.028703203
54	0x3cc95672	0.024577353
55	0x3d436d59	0.047711704
56	0xbce04589	-0.027376907
57	0xbd1054ce	-0.035237126
58	0xbcb8bc6f	-0.02255079
59	0x3b1ed8f7	0.0024238208
60	0xbcbc74d7	-0.023004932
61	0x3d23e369	0.040011797
62	0x3c8d0b02	0.017217163
63	0xbd44f1bc	-0.0480821
64	0x3cb99c6e	0.0226576
65	0xbd348239	-0.044069503
66	0xbbb25fa3	-0.0054435297
67	0xbd44515b	-0.04792915
68	0xbc76f576	-0.015073171
69	0x3ca6eca7	0.020376517
70	0x3c6b256e	0.014352186
71	0xbca02cb0	-0.019552559
72	0xbc01c8a4	-0.007921372
73	0xbce31243	-0.027718669
74	0x3d07ac12	0.033123083
75	0xbaa9e38a	-0.0012961489
76	0x3b8c18f5	0.004275436
77	0x3d1d80e4	0.038452998
78	0xbce3c396	-0.027803224
79	0x3d39c770	0.045356214
80	0xbc8f3885	-0.017483005
81	0xbd4175d0	-0.047231495
82	0xbd0d8e30	-0.03455943
83	0x3cdaf7a7	0.026729418
84	0x3b97cd9d	0.0046326653
85	0x3ce5e0a0	0.028061211
86	0xbcdb87a1	-0.026798071
87	0x3d6480f2	0.055787034
88	0xbc96d747	-0.0184132
89	0xbcae99c6	-0.02131356
90	0xbd037874	-0.032097295
91	0x3d64d155	0.055863697
92	0x3d2c7aa9	0.042109165
93	0x3d1bd5d3	0.038045716
94	0xbc83b5b0	-0.016077846
95	0xbcabf28a	-0.020989675
96	0x3c986d0d	0.018606687
97	0xbcc3d8ad	-0.02390703
98	0xbd34d97e	-0.04415273
99	0xbd0d716b	-0.034531992
100	0xbd24142b	-0.040058296
101	0xbc33cc0e	-0.010973943
102	0x3b6c96af	0.0036100557
103	0x3d30a061	0.0431217
104	0xbcee19c0	-0.029065013
105	0xbd46bf80	-0.048522472
106	0xbc872b05	-0.016500005
107	0xbc1757bf	-0.009237229
108	0xbcb55a06	-0.022137653
109	0x3d49902c	0.04920976
110	0xbc42916b	-0.011875491
111	0x3ccd6cff	0.025076387
112	0x3c836144	0.01603759
113	0x3b29e4e0	0.0025923774
114	0xbd0beda5	-0.034162182
115	0xbcebc8ad	-0.028782213
116	0xbd2c837c	-0.04211758
117	0xbd64e146	-0.0558789
118	0x3ba71c9b	0.0050998456
119	0x3cf27691	0.029597552
120	0xbd39bfce	-0.045348935
121	0xbc71ce4c	-0.014758658
122	0x3d665ce9	0.05624095
123	0x3c26afd4	0.010173757
124	0xbd323f91	-0.043517653
125	0x3cbcf4d0	0.023065954
126	0xbcee1d6e	-0.029066768
127	0xbd12ba73	-0.035822343
128	0xbd065608	-0.03279689
129	0x3cc7d62f	0.024394123
130	0xbd3b05ce	-0.045659833
131	0xbc5de8ef	-0.013544305
132	0xbd4fd1d1	-0.050737206
133	0xbcaa914d	-0.020821238
134	0x3b6f81cb	0.0036545868
135	0x3d0b6487	0.034031417
136	0x3cdc5fa5	0.026901076
137	0x3d2447b7	0.040107455
138	0x3d4db877	0.050224748
139	0x3c59e3eb	0.013298969
140	0x3c162771	0.009164677
141	0xbc26247e	-0.010140536
142	0xbc8274c0	-0.015924811
143	0x3c86fa45	0.01647676
144	0xbd5e681d	-0.05429851
145	0x3d67dd28	0.056607395
146	0x3d37b96e	0.044854574
147	0x3c9ecb08	0.019383922
148	0xbc233fa3	-0.009963903
149	0x3c9486a7	0.018130613
150	0xbbabd553	-0.005243936
151	0x3cd0d753	0.0254933
152	0x3a652ab6	0.0008742021
153	0x3d463752	0.0483926
154	0x3c379a9d	0.011206296
155	0xbc40ce26	-0.0117679
156	0x3d008978	0.0313811
157	0xbd198456	-0.03747972
158	0xbd28fcf5	-0.041256864
159	0x3d4534e4	0.048146144
160	0xbca42a41	-0.02003968
161	0xbcb5fd41	-0.022215487
162	0x3d44c332	0.048037715
163	0x3d2c9c4b	0.04214124
164	0xbc393751	-0.011304692
165	0xbd26e52e	-0.040745907
166	0xbd29583e	-0.04134392
167	0xbb33d015	-0.002743726
168	0xbd152045	-0.036407728
169	0x3d2de76f	0.04245704
170	0x3c80e61a	0.015734721
171	0xbd183d9b	-0.037168127
172	0xbc664acf	-0.014055922
173	0x3cacfcfb	0.021116724
174	0x3b4551c2	0.0030108546
175	0xbaa7bb56	-0.0012796919
176	0xbd470700	-0.04859066
177	0xbd139e76	-0.036039792
178	0x3d16d776	0.036826573
179	0xbc145643	-0.0090537695
180	0xbd4670c9	-0.048447404
181	0xbd10f401	-0.03538895
182	0x3ccc140b	0.024911901
183	0xbb8020c3	-0.0039101555
184	0xbc84176d	-0.016124452
185	0xbc8af77b	-0.016963711
186	0xbd1baa4e	-0.038004212
187	0xbc914023	-0.017730778
188	0xbd2f1ed8	-0.042754024
189	0xbb988563	-0.004654573
190	0x3cce9c8d	0.025221134
191	0x3d5a4c77	0.05329558
192	0xbd405908	-0.046959907
193	0x3d0bde29	0.034147415
194	0xbce1d45a	-0.027567077
195	0xbc91399b	-0.017727664
196	0x3d57103e	0.052505724
197	0x3cd45f3d	0.02592432
198	0x3c653c5b	0.013991441
199	0x3ccb11b8	0.024788722
200	0x3cd3d4bb	0.025858274
201	0xbcb7c44d	-0.02243247
202	0x3cd8cc22	0.026464526
203	0xbc81b623	-0.01583392
204	0x3c808878	0.015690073
205	0xbcf340f7	-0.029694064
206	0xbbe2e245	-0.006923946
207	0x3d472f5c	0.04862915
208	0x3d2471dd	0.04014765
209	0x3cb8bdba	0.022551406
210	0xbcf83bac	-0.030301891
211	0xbb8d14d8	-0.0043054633
212	0x39e56762	0.0004375531
213	0xbd34bb7e	-0.04412412
214	0xbccbdae6	-0.024884652
215	0xbcf86d97	-0.030325694
216	0x3cfb38ad	0.030666674
217	0x3d4af0d2	0.04954607
218	0x3cf8c2cf	0.03036633
219	0x3d5d9d7a	0.05410526
220	0x3caab380	0.020837545
221	0xbd0586db	-0.03259931
222	0xbd5f2794	-0.054481104
223	0x3c731cd8	0.01483842
224	0xbb8b6c2f	-0.00425484
225	0xbc9db544	-0.019251473
226	0xbd06fac6	-0.032954
227	0xbc84ecbd	-0.016226167
228	0xbb737cf3	-0.0037153333
229	0xbd19cdf8	-0.037549943
230	0xbcd8d1e6	-0.026467275
231	0x3c0c8461	0.0085764835
232	0x3c0fdec6	0.008781141
233	0xbcebd477	-0.028787835
234	0x3ce358c2	0.027752284
235	0xbd2e6819	-0.042579744
236	0x3d31a525	0.043370385
237	0x3d5ee627	0.05441871
238	0x3d2cd5bf	0.04219603
239	0x3c15b52b	0.009137432
240	0xbb7fa7a1	-0.0039009827
241	0xbcaad5c3	-0.020853883
242	0x3ce0a445	0.02742208
243	0xbc291d40	-0.010321915
244	0x3d26ac92	0.04069192
245	0x3d5b2099	0.053497884
246	0xbccc1c2a	-0.024915773
247	0x3c55ecc2	0.013056936
248	0xbcfea282	-0.03108335
249	0x3c5e3d8e	0.0135644805
250	0xbd49d4d4	-0.049275234
251	0x3d0ddc3d	0.034633864
252	0xbd19beb3	-0.03753538
253	0xbd4f1056	-0.05055269
254	0x3bb0227b	0.005375204
255	0xbd349413	-0.044086527

model.2.weight f4 [1, 512]
0	0xbcf4865b	-0.029849222
1	0x3c07d6b8	0.008290939
2	0xbb412d4e	-0.0029476467
3	0x3d39bc5a	0.04534564
4	0x3ce68f11	0.028144391
5	0xbc20181e	-0.009771375
6	0x3cbe0bc3	0.023198968
7	0x3d06cec9	0.03291205
8	0x3cbfa60c	0.023394607
9	0x3cdb03d6	0.026735228
10	0xbd05eb70	-0.032695234
11	0xbbef25be	-0.0072982004
12	0x3c9f05c6	0.019411933
13	0x3c263315	0.010144015
14	0x3d1d16c6	0.038351797
15	0xbc89ea1c	-0.016835265
16	0xbc29128d	-0.010319364
17	0xbb02c6ca	-0.0019954913
18	0x3d59428c	0.05304198
19	0x3c894a7a	0.016759146
20	0xbd29b579	-0.04143283
21	0xbc61e816	-0.013788244
22	0xbc5738ac	-0.01313607
23	0xbd004d67	-0.031323817
24	0xbc32ca75	-0.010912527
25	0x3d154ef3	0.036452245
26	0x3d0545e6	0.032537363
27	0x3c09bef8	0.008407347
28	0xbc87c52b	-0.01657351
29	0x3cf0a855	0.029377142
30	0xbcf2b4c4	-0.029627211
31	0x3d37884f	0.04480773
32	0x3ccd87fa	0.025089253
33	0xbb835d71	-0.004008942
34	0x3b6faaa1	0.0036570209
35	0x3d31c98b	0.043405097
36	0x3cc5d28b	0.024148246
37	0xbc49a21f	-0.012306719
38	0xbd25168b	-0.0403047
39	0x3c95f9e6	0.018307637
40	0xbd136dd3	-0.03599341
41	0xbcc4f41f	-0.024042187
42	0xbd06d068	-0.032913595
43	0xbbb6c696	-0.0055778725
44	0xbd3fb34f	-0.04680186
45	0xbce7d969	-0.028301911
46	0xbc334b4f	-0.010943248
47	0xbc3e1002	-0.011600496
48	0xbc8e787a	-0.017391432
49	0xbc8f975c	-0.017528228
50	0x3d0d717d	0.03453206
51	0x3d2e759e	0.042592637
52	0xbc8e34dc	-0.01735919
53	0x3cc0ba7b	0.02352642
54	0x3cf00da5	0.029303381
55	0xbd0a8cf6	-0.033825837
56	0x3d393956	0.045220695
57	0xbcbd5d66	-0.023115825
58	0xbca1987e	-0.019726034
59	0x3cbb634e	0.0228745
60	0x3d133462	0.035938628
61	0xbc2fb0e4	-0.010723326
62	0xbd15a9d8	-0.03653893
63	0x3cab9394	0.020944394
64	0x3d40aa90	0.04703766
65	0xbcc0fb1f	-0.023557244
66	0xbd27431e	-0.040835492
67	0xbd2e17f2	-0.042503305
68	0xbcfe160d	-0.031016374
69	0x3c2e710e	0.0106470715
70	0xbccdb203	-0.025109297
71	0xbc8132df	-0.015771328
72	0xbcdd241d	-0.02699476
73	0xbc2aeded	-0.0104327025
74	0xbd0b8890	-0.034065783
75	0xbc2ec6bd	-0.0106675
76	0x3d0ed8a3	0.03487457
77	0xbd06f340	-0.032946825
78	0x3d210b8b	0.03931765
79	0x3d1dc7f3	0.038520765
80	0xbc36ffcf	-0.011169388
81	0xbd07d9e4	-0.03316678
82	0xbcf37ca9	-0.029722529
83	0xbc030b1b	-0.007998253
84	0x3cfcad0a	0.03084423
85	0xbd25db6f	-0.04049247
86	0xbd056c9a	-0.032574274
87	0xbc61925b	-0.013767804
88	0xbd1263bd	-0.03573965
89	0xbcc15dad	-0.023604238
90	0xbd20b1e0	-0.039232135
91	0x3d0fbaa8	0.03509012
92	0xbcec18cc	-0.028820418
93	0x3cea34c3	0.028589612
94	0xbd0af7d6	-0.03392776
95	0xbcd49dc2	-0.025954131
96	0xbc057361	-0.008145184
97	0x3d19ab01	0.037516598
98	0xbd1c366f	-0.03813785
99	0xbc69fded	-0.014281732
100	0xbd1f3f2e	-0.038878612
101	0xbcb8b22b	-0.022545895
102	0x3d2ec589	0.042668853
103	0x3d2d30f3	0.04228301
104	0x3cf7fae3	0.030271
105	0xbc19ee20	-0.009395152
106	0xbc6287fe	-0.013826368
107	0x3d2cedaa	0.04221884
108	0xbb8e8ba8	-0.0043501444
109	0x3c63e098	0.013908528
110	0x3d39cab6	0.045359336
111	0x3d008ab1	0.031382266
112	0x3aa6e1c5	0.001273208
113	0xbcceb5ef	-0.025233237
114	0x3cc9a9c5	0.024617085
115	0xbbf0ede6	-0.0073525785
116	0xbc2164c1	-0.009850682
117	0x3c97cfef	0.018531768
118	0x3c79561a	0.015218282
119	0xbc4eb991	-0.012617485
120	0xbc8b748e	-0.017023351
121	0x3b2695dd	0.0025418915
122	0x3ce9e195	0.028549949
123	0x3c4906b6	0.012269666
124	0x3d22a448	0.039707452
125	0xbcd20fc8	-0.02564229
126	0xbca2ff34	-0.019897081
127	0xbc972b94	-0.018453397
128	0x3bf902f5	0.0075992295
129	0x3bc5d655	0.0060375133
130	0xbb8105e6	-0.0039374707
131	0xbcd0d1a1	-0.025490584
132	0xbbec2652	-0.0072067166
133	0x3d0fd68c	0.035116717
134	0xbb804d8d	-0.003915495
135	0xbd045377	-0.03230616
136	0xbcab1484	-0.020883806
137	0xbc53c3ae	-0.012925072
138	0x3d21baf9	0.03948495
139	0xbbff54a2	-0.0077920714
140	0x3c905e49	0.017623084
141	0xbb804265	-0.003914165
142	0x3c4b89c8	0.012422986
143	0xbce79746	-0.028270375
144	0xbd1a6aba	-0.03769944
145	0xbce07b50	-0.02740255
146	0xbc712db6	-0.014720371
147	0xbcb13fce	-0.02163687
148	0x3c8e5a38	0.017377004
149	0xbd2d484e	-0.042305283
150	0xbd207548	-0.039174348
151	0x3cf7550e	0.030191924
152	0x3c77cd80	0.015124679
153	0xbbb23ab5	-0.0054391273
154	0xbcce24b9	-0.025163995
155	0xbcbc698d	-0.02299955
156	0x3cd5c946	0.026096951
157	0x3d264f77	0.040603127
158	0x3c113ed1	0.008865074
159	0x3c705e5d	0.014670935
160	0xbc262bea	-0.010142306
161	0xbce0033f	-0.027345298
162	0x3cfd7b42	0.030942563
163	0x3cec1657	0.028819246
164	0xbd049082	-0.032364376
165	0x3d3592c9	0.04432944
166	0xbcb55422	-0.022134844
167	0xbcae36b0	-0.021266311
168	0x3c8eb665	0.017420957
169	0x3c7be3ad	0.015374106
170	0xbcf35271	-0.029702397
171	0xbbaac436	-0.0052113784
172	0xbb0c6294	-0.0021421062
173	0xbc874db8	-0.016516551
174	0xbd2e2578	-0.0425162
175	0x3ceb5978	0.028729185
176	0xbd5e3e20	-0.054258466
177	0xbd03ad98	-0.032147974
178	0x3d250d19	0.040295694
179	0xbc81f8c6	-0.015865695
180	0x3d3c84df	0.046025153
181	0x3d145bfc	0.036220536
182	0x3d207833	0.03917713
183	0x3d1f3c15	0.038875658
184	0xbd0bba03	-0.03411294
185	0xbd112648	-0.0354369
186	0x3cdf0ec1	0.027228715
187	0x3d2c66dd	0.042090286
188	0x3cd3845b	0.025819948
189	0xbc261307	-0.010136372
190	0x3d12f0f3	0.03587432
191	0xbc0549d1	-0.008135275
192	0xbd4a93c1	-0.049457315
193	0xbc86f580	-0.016474485
194	0x3cd65148	0.026161805
195	0x3cbc5c10	0.022993118
196	0xbc6972a4	-0.014248524
197	0xbd6483aa	-0.055789627
198	0x3cd1120c	0.0255213
199	0xbd2397c8	-0.03993967
200	0xbc048a56	-0.0080896225
201	0xbc912cec	-0.017721616
202	0x3babb25c	0.005239768
203	0xbd3cf344	-0.046130434
204	0x3d354daa	0.04426352
205	0x3cdeac57	0.027181787
206	0xbd3a53b2	-0.045489974
207	0x3c9016cc	0.017588995
208	0x3ce6125e	0.02808493
209	0x3d36920f	0.044572886
210	0xbc54febb	-0.013000186
211	0x3d131281	0.03590632
212	0xbbbfef81	-0.0058574085
213	0x3ca9df23	0.020736283
214	0xbd54470f	-0.05182558
215	0xbca146c1	-0.019687058
216	0x3cc1c40a	0.023653049
217	0x3cbb134a	0.022836346
218	0x3cfa133c	0.03052675
219	0xbc161537	-0.009160331
220	0xbd09c669	-0.033636484
221	0x3d1c7d39	0.03820536
222	0xbb8b4fcc	-0.004251456
223	0xbca94e66	-0.020667266
224	0xbc7cd0d7	-0.015430651
225	0x3b86cc87	0.004113737
226	0xbd068461	-0.03284109
227	0x3d0ce875	0.034401376
228	0xbced7fb9	-0.028991567
229	0xbc2048c0	-0.00978297
230	0xbc87fef0	-0.016601056
231	0xbd6adfa1	-0.057342175
232	0xbc5503a6	-0.013001358
233	0xbc852f22	-0.016257826
234	0xbd0dfdf1	-0.034666006
235	0x3d093447	0.03349712
236	0x3cd6cc04	0.02622033
237	0xbcae0b18	-0.021245524
238	0xbc59b283	-0.013287189
239	0x3c6f51b7	0.014606885
240	0xbca6c1cc	-0.020356081
241	0xbc2611b1	-0.010136054
242	0xbd1ec113	-0.03875835
243	0xbccca298	-0.024979874
244	0x3d0c5d0d	0.034268428
245	0xbca18105	-0.019714842
246	0x3cac1621	0.021006646
247	0x3c16eec0	0.009212196
248	0xbcb9ef44	-0.022697099
249	0xbcf76b96	-0.030202668
250	0x3c5129fa	0.012766356
251	0x3d439261	0.04774702
252	0x3d02d9a6	0.031945847
253	0x3d338fc2	0.04383827
254	0xbc73892c	-0.014864247
255	0xbd33c180	-0.043885708
