checkpoints/test1_CycleNet_solar_data_bs16_ftMS_sl96_ll48_pl120/checkpoint.pth (torch, 448487 bytes, 5 tensors)

cycleQueue.data f4 [24, 12]
00000000: 0000 0000 0000 0000 0000 0000 0000 0000
00000010: 0000 0000 0000 0000 0000 0000 0000 0000
00000020: 0000 0000 0000 0000 0000 0000 de75 9ebc
00000030: 0000 0000 0000 0000 0000 0000 0000 0000
00000040: 0000 0000 0000 0000 0000 0000 0000 0000
00000050: 0000 0000 0000 0000 0000 0000 fe8a a73b
00000060: 0000 0000 0000 0000 0000 0000 0000 0000
00000070: 0000 0000 0000 0000 0000 0000 0000 0000
00000080: 0000 0000 0000 0000 0000 0000 226f ff3c
00000090: 0000 0000 0000 0000 0000 0000 0000 0000
000000a0: 0000 0000 0000 0000 0000 0000 0000 0000
000000b0: 0000 0000 0000 0000 0000 0000 487b 473d
000000c0: 0000 0000 0000 0000 0000 0000 0000 0000
000000d0: 0000 0000 0000 0000 0000 0000 0000 0000
000000e0: 0000 0000 0000 0000 0000 0000 b90b 0a3d
000000f0: 0000 0000 0000 0000 0000 0000 0000 0000
00000100: 0000 0000 0000 0000 0000 0000 0000 0000
00000110: 0000 0000 0000 0000 0000 0000 c26a 39bd
00000120: 0000 0000 0000 0000 0000 0000 0000 0000
00000130: 0000 0000 0000 0000 0000 0000 0000 0000
00000140: 0000 0000 0000 0000 0000 0000 b11a bbbd
00000150: 0000 0000 0000 0000 0000 0000 0000 0000
00000160: 0000 0000 0000 0000 0000 0000 0000 0000
00000170: 0000 0000 0000 0000 0000 0000 6259 56bd
00000180: 0000 0000 0000 0000 0000 0000 0000 0000
00000190: 0000 0000 0000 0000 0000 0000 0000 0000
000001a0: 0000 0000 0000 0000 0000 0000 b65c 093d
000001b0: 0000 0000 0000 0000 0000 0000 0000 0000
000001c0: 0000 0000 0000 0000 0000 0000 0000 0000
000001d0: 0000 0000 0000 0000 0000 0000 4f22 2f3d
000001e0: 0000 0000 0000 0000 0000 0000 0000 0000
000001f0: 0000 0000 0000 0000 0000 0000 0000 0000
00000200: 0000 0000 0000 0000 0000 0000 9f32 b13c
00000210: 0000 0000 0000 0000 0000 0000 0000 0000
00000220: 0000 0000 0000 0000 0000 0000 0000 0000
00000230: 0000 0000 0000 0000 0000 0000 f716 4d3d
00000240: 0000 0000 0000 0000 0000 0000 0000 0000
00000250: 0000 0000 0000 0000 0000 0000 0000 0000
00000260: 0000 0000 0000 0000 0000 0000 0405 c63c
00000270: 0000 0000 0000 0000 0000 0000 0000 0000
00000280: 0000 0000 0000 0000 0000 0000 0000 0000
00000290: 0000 0000 0000 0000 0000 0000 2600 643a
000002a0: 0000 0000 0000 0000 0000 0000 0000 0000
000002b0: 0000 0000 0000 0000 0000 0000 0000 0000
000002c0: 0000 0000 0000 0000 0000 0000 867d 193d
000002d0: 0000 0000 0000 0000 0000 0000 0000 0000
000002e0: 0000 0000 0000 0000 0000 0000 0000 0000
000002f0: 0000 0000 0000 0000 0000 0000 6200 043d
00000300: 0000 0000 0000 0000 0000 0000 0000 0000
00000310: 0000 0000 0000 0000 0000 0000 0000 0000
00000320: 0000 0000 0000 0000 0000 0000 8349 0ebd
00000330: 0000 0000 0000 0000 0000 0000 0000 0000
00000340: 0000 0000 0000 0000 0000 0000 0000 0000
00000350: 0000 0000 0000 0000 0000 0000 1249 83bd
00000360: 0000 0000 0000 0000 0000 0000 0000 0000
00000370: 0000 0000 0000 0000 0000 0000 0000 0000
00000380: 0000 0000 0000 0000 0000 0000 01c3 e3bc
00000390: 0000 0000 0000 0000 0000 0000 0000 0000
000003a0: 0000 0000 0000 0000 0000 0000 0000 0000
000003b0: 0000 0000 0000 0000 0000 0000 7212 163d
000003c0: 0000 0000 0000 0000 0000 0000 0000 0000
000003d0: 0000 0000 0000 0000 0000 0000 0000 0000
000003e0: 0000 0000 0000 0000 0000 0000 7e4b 473d
000003f0: 0000 0000 0000 0000 0000 0000 0000 0000
0.0 0.0 0.0 0.0 0.0 0.0 0.0 0.0
0.0 0.0 0.0 -0.019343313 0.0 0.0 0.0 0.0
0.0 0.0 0.0 0.0 0.0 0.0 0.0 0.0051130047
0.0 0.0 0.0 0.0 0.0 0.0 0.0 0.0
0.0 0.0 0.0 0.031180922 0.0 0.0 0.0 0.0
0.0 0.0 0.0 0.0 0.0 0.0 0.0 0.048701555
0.0 0.0 0.0 0.0 0.0 0.0 0.0 0.0
0.0 0.0 0.0 0.033702586 0.0 0.0 0.0 0.0
0.0 0.0 0.0 0.0 0.0 0.0 0.0 -0.045267828
0.0 0.0 0.0 0.0 0.0 0.0 0.0 0.0
0.0 0.0 0.0 -0.0913595 0.0 0.0 0.0 0.0
0.0 0.0 0.0 0.0 0.0 0.0 0.0 -0.052331336
0.0 0.0 0.0 0.0 0.0 0.0 0.0 0.0
0.0 0.0 0.0 0.03353568 0.0 0.0 0.0 0.0
0.0 0.0 0.0 0.0 0.0 0.0 0.0 0.04275733
0.0 0.0 0.0 0.0 0.0 0.0 0.0 0.0
0.0 0.0 0.0 0.021630583 0.0 0.0 0.0 0.0
0.0 0.0 0.0 0.0 0.0 0.0 0.0 0.05007073
0.0 0.0 0.0 0.0 0.0 0.0 0.0 0.0
0.0 0.0 0.0 0.024172314 0.0 0.0 0.0 0.0
0.0 0.0 0.0 0.0 0.0 0.0 0.0 0.0008697532
0.0 0.0 0.0 0.0 0.0 0.0 0.0 0.0
0.0 0.0 0.0 0.037473224 0.0 0.0 0.0 0.0
0.0 0.0 0.0 0.0 0.0 0.0 0.0 0.032226928
0.0 0.0 0.0 0.0 0.0 0.0 0.0 0.0
0.0 0.0 0.0 -0.034738075 0.0 0.0 0.0 0.0
0.0 0.0 0.0 0.0 0.0 0.0 0.0 -0.064104214
0.0 0.0 0.0 0.0 0.0 0.0 0.0 0.0
0.0 0.0 0.0 -0.027802946 0.0 0.0 0.0 0.0
0.0 0.0 0.0 0.0 0.0 0.0 0.0 0.036638685
0.0 0.0 0.0 0.0 0.0 0.0 0.0 0.0
0.0 0.0 0.0 0.04865598 0.0 0.0 0.0 0.0

model.0.weight f4 [512, 96]
00000000: f82c f23c 2ebb a9bd 0adc 1fbd 50ac b03c
00000010: 8286 703d 1379 2bbc 8625 4dbd ca08 2c3d
00000020: 68f4 87bd f073 573d ae72 523d 4c20 33bd
00000030: f904 443d 9cce 90bd 55fc 9bbd f25d 98bd
00000040: 59b1 d63a dfc9 41bd 7ffd f63b 3c6b 973d
00000050: 63c3 1abd f6b5 34bd 6200 87bd 8947 8dbc
00000060: 7b3c 8c3c a1a5 84bd d46e 283d ea5a 183d
00000070: e34a 863d b80b 37bd e7aa 873d 4189 4e3d
00000080: de8b 123d 3710 3b3d c8bc efbc c80a c73d
00000090: c393 843d b003 84bb 4362 823d 4976 b5bc
000000a0: 727e 76bd b10f ccbd 21c0 143d 925e a2bc
000000b0: 7a97 493d 6135 99bd 38e3 8ebd 5d07 94bb
000000c0: 44d4 a5bd 9ed1 0b3d f8c0 d23c d3f5 3e3d
000000d0: fdcf 94bb 2f88 b93d 612e 123d a56b b4bc
000000e0: f6d3 7d3d 6a6b 17bb 8d64 c9bb 7602 c93d
000000f0: e52b a33d 9374 b93c 5972 36bd 3088 52bd
00000100: ca57 ab3d 3a9e 803d 1c35 b9bd 75c0 c0bd
00000110: 69a1 8abd 8e26 173d 261f 923b 5281 0ebd
00000120: ea14 e4bd 76bc c0bd 7235 1d3c 0b95 bf3c
00000130: fb69 a0bd 6a7c a13d 756e 143d c322 7e3d
00000140: c66f b53d 95b1 563d 82b2 923d 643e 463c
00000150: 8d1d e53d caf4 93bd 1e8e b9bd cb2b 71bc
00000160: 0608 3dbd 9119 ca3c 2ec1 193d c927 943a
00000170: ca88 903d 39a7 853d 7cd9 c2bc cd43 74ba
00000180: 75d9 2bbd 441b 1fbd 00b1 b43d 2ecb 163d
00000190: 825a 33bb d2bb a13c eadf 3a3d 84ea 8bbd
000001a0: 31c0 e13c 0cea c9bd 3f65 3bbd 0e73 17bc
000001b0: d817 cc3c 91d5 77bd f135 d5bd ad22 56bd
000001c0: 1410 64bc f19a 23bc 598a ec3c 675d aa3d
000001d0: 0182 2f3c bebc 03bd 5906 b9bd 0b8c debb
000001e0: 7cd2 9ebc 2f41 47bd d9d8 403d c566 16bc
000001f0: bca8 47bd f56f 553d 7738 91bd 7443 6dbd
00000200: 8c67 04bd 3e7b 11bd ebd5 a7bd 5e3d 3dbc
00000210: 1335 913d b852 6f3c 441d e5bc da56 51bd
00000220: f545 973c 77d8 573d cf82 84bd a3c9 913d
00000230: 124d 5b3d 8223 783c f031 273c 5a62 c4bd
00000240: c00f d33c f74a 87bd be10 ae3d 5fcc b9bd
00000250: e6e1 ac3d 86e9 b0bd 61db 8c3d c0d1 4f3b
00000260: 8969 82bd 9343 b6bd eab2 78bd ae53 c2bd
00000270: e58b ae3d a29b 82bd c104 3dbd 2d8a fbbc
00000280: 49c4 00bd 3937 c93d 68f8 aabd 53d4 ce3d
00000290: 7a07 c03d 5e4d 96ba 4445 8a3d 3864 133d
000002a0: e7f0 653d 1361 993d 7db7 a73c 3998 183d
000002b0: 6113 9c3d d7e4 8b3d 0d3c 30bd 08e7 8bbd
000002c0: 8d17 ccbc 8984 0d3b 602e 9fbc d326 75bd
000002d0: 2cb0 8e3d 9245 483d 1525 ae3d 0fa0 acbd
000002e0: f966 70bd 3380 ce3d 98c5 9fbc d2c6 efbc
000002f0: 484b 12bd 2e42 553d e9c5 1c3c 3b5c c1bd
00000300: 8db4 afbd bcdf 923d eccf a9bd 555b 323d
00000310: 6dc3 1a3d 3412 803d bd89 95bd 71e7 1d3d
00000320: aed9 c2bd 1361 b5bd 9d20 583c 3996 fd3c
00000330: 7d77 cfbc 99e6 1e3d b591 c03c 4127 35bd
00000340: d05f f1bc 974a 663d c9ce 243d 8528 f9bc
00000350: eb6e b0bb 522c 323b 924c 3c3d df69 1d3d
00000360: ea43 b53d 2820 c6bd 7187 4bbd 0bfa 173d
00000370: 2b8c 133d cb86 4abd b178 753d 83ea a23d
00000380: 1166 d8bd f7fc b63a e518 8bbd 8425 263d
00000390: 25c2 b73c b886 7bbd eb89 873d 8b34 41bd
000003a0: 0a11 5d3c af7e 55bd eeb8 c13d 26b4 903c
000003b0: 0968 4c3d d7d4 783d fc3c ab3d 6de4 bebd
000003c0: 9358 7ebd 8313 0b3d 0196 a23c 76e5 cdbd
000003d0: d2b7 47bd 26b2 cbbd 4cd5 27bd 1652 10bc
000003e0: 1793 f6bc 0ef4 833d 7d72 07bd 8704 babd
000003f0: cd57 bdbd d295 703c 5d26 91bd 0e4f f33c
0.029562458 -0.08287655 -0.039028205 0.02156654 0.058722027 -0.010465878 -0.050084613 0.04200057
-0.06638414 0.0526008 0.0513789 -0.043731973 0.047856305 -0.070706576 -0.07616488 -0.07439794
0.0016379758 -0.04731166 0.0075375433 0.073935 -0.03778399 -0.044118844 -0.0659187 -0.017246025
0.017118683 -0.06476904 0.04112132 0.037196077 0.06557252 -0.04468891 0.06624394 0.050423864
0.03577792 0.04566976 -0.029264823 0.09718853 0.06473496 -0.00402876 0.06366398 -0.02215113
-0.06017918 -0.099639304 0.03631604 -0.019820485 0.049216725 -0.07480884 -0.06976932 -0.0045174793
-0.08097127 0.034135453 0.02572678 0.046621155 -0.0045413957 0.09059178 0.03568876 -0.022023985
0.06196972 -0.0023104795 -0.00614602 0.098149225 0.079673566 0.022638595 -0.044542644 -0.05139941
0.08366354 0.06280179 -0.09043333 -0.09411708 -0.06769068 0.036902003 0.0044592796 -0.0347913
-0.111368015 -0.09410946 0.009595262 0.023386499 -0.07832714 0.07885058 0.036238153 0.06204487
0.0885921 0.05241545 0.07162954 0.012099836 0.11187277 -0.07224424 -0.0906031 -0.014719914
-0.04615023 0.024670394 0.037537746 0.0011303361 0.070573404 0.06526036 -0.023785345 -0.00093179644
-0.04195543 -0.038844362 0.088228226 0.03681486 -0.002736718 0.01974288 0.045623697 -0.0683184
0.027557464 -0.09859094 -0.045750853 -0.00924374 0.024913713 -0.060506407 -0.10410679 -0.052279163
-0.013919849 -0.009985671 0.028874563 0.08318596 0.010712148 -0.03216242 -0.09034414 -0.0067915968
-0.019387476 -0.04864615 0.047081802 -0.009179776 -0.048744902 0.052108724 -0.07090848 -0.057925656
-0.032325312 -0.035517924 -0.081950985 -0.011550276 0.07090201 0.014607124 -0.027968056 -0.05110822
0.018465975 0.05269667 -0.06470262 0.07118537 0.053540297 0.0151451845 0.010204777 -0.095890716
0.025764346 -0.06606095 0.08499287 -0.09072184 0.08441524 -0.08638291 0.06877781 0.0031710714
-0.063677855 -0.088996075 -0.0607175 -0.09488617 0.085227765 -0.06377341 -0.04614711 -0.030705536
-0.031437192 0.09824986 -0.08348161 0.100990914 0.09376426 -0.0011467149 0.067514926 0.035984248
0.056137946 0.074892186 0.020473236 0.037254546 0.07620884 0.06830757 -0.04302602 -0.06831175
-0.024913574 0.002159389 -0.019431293 -0.05985148 0.06967196 0.048894472 0.085031666 -0.08428966
-0.058691952 0.10083046 -0.0195034 -0.02926961 -0.035716325 0.052065067 0.00956867 -0.0944142
-0.08579359 0.0717158 -0.08291611 0.043544132 0.03778403 0.06253472 -0.07301662 0.038550798
-0.09514175 -0.08856406 0.013191369 0.03095542 -0.025325531 0.038794134 0.023506979 -0.04422689
-0.029464632 0.05622348 0.04023627 -0.030414829 -0.005384316 0.0027187061 0.04597146 0.038431045
0.08850844 -0.09674102 -0.049689714 0.037103694 0.036022346 -0.049444955 0.059929553 0.07954886
-0.105663426 0.0013960887 -0.06791858 0.04056312 0.022431443 -0.061407775 0.06618103 -0.04716925
0.013492832 -0.052122768 0.09459101 0.017664026 0.049903903 0.060749855 0.08361241 -0.093209125
-0.06209619 0.033954155 0.019846918 -0.10053532 -0.04875929 -0.099460885 -0.0409749 -0.008808633
-0.030099435 0.06443034 -0.03306817 -0.09082895 -0.09245262 0.014684157 -0.07087395 0.029700782

model.0.bias f4 [512]
00000000: deef 5dbb 89e4 943d e215 3fbd 0874 7ebd
00000010: 0435 143c 163f b53d 6670 1bbc 88dc 49bc
00000020: 61eb c1bc ddd4 0dbc 2db2 d83d 754e 75bd
00000030: d22d 8ebd 37d8 b23b a4e7 94bd f81e bdbd
00000040: da8a b43d eb58 f23b 23c3 ac3c c058 83bd
00000050: 80dd 983c 57dc 863d c133 a53c d067 cd3d
00000060: ed40 c3bb 58b6 1d3d ca13 163d 39de b33d
00000070: 9ef0 853c a73a afbd 99a9 923d 5d87 81bd
00000080: ef76 f53c c98f 99bd a0a5 0cbd 07ad d13d
00000090: 5507 3b3d c443 b0bd 874c 35bd 0f06 b03d
000000a0: 9602 9bbd bcc9 b5bc e14f 273c 83ed 9a3d
000000b0: 022c 2a3c af53 873d f72f 8dbd a923 e43d
000000c0: 216c 8a3d 3125 903d 47e7 983d 0c61 753a
000000d0: b91c 82bd 3982 e63c 0fbf 773d 5cf7 44bd
000000e0: 4c70 cbbc 47e7 8bbd 0f40 f7bb 9e3c e73c
000000f0: 5fab 78bb dbc4 e4bc 40f4 9ebd 73dd 1d3c
00000100: de63 d93d e90d 923d 4e88 683c b482 573c
00000110: e041 243d 62fb 84bd 9d14 803d 6269 08bd
00000120: f216 89bd cd65 093d 92e7 a63d 055e d63d
00000130: 57e1 2b3d a108 babc 0fe6 8a3c 3d36 923d
00000140: 4869 0ebd bdaf 383d 15c6 c7bd d21f 9fbd
00000150: 2cd1 973d 042c f03c 1a2f 7c3d abb1 473d
00000160: 01d5 b2bd ba5c b63d 7e67 a0ba 84dd 95bc
00000170: 336e 87bd f569 94bd 1df9 813a a73d 9a3d
00000180: 04ff cc3d ffc0 6bbd bc01 56bd ed56 053c
00000190: 3100 40bd 366a b63d eaa2 6fbd 9adb 23bd
000001a0: 29f3 cd3d 3793 8bbc 59d2 56bd 6a7c 1ebd
000001b0: a81f 0cbd c62c af3d 6dd5 6cbd 48cc adbd
000001c0: 87df 803c eeba a13d 13fe 8abd 7462 db3c
000001d0: 6afd 083c 6a8b 1fbd fc87 c73d acd1 07bd
000001e0: add0 963c f857 023d 981b c13d 2cca a73d
000001f0: e90b 5e3c 176e b4bd 4dd3 473c 46d4 3abd
00000200: b2d3 a7bd 82f5 11bd 8e83 da3d 51f8 373d
00000210: e6dd 04bd 6e21 abbd e4d5 43bd 1b32 823d
00000220: 244b 0c3d 544f 99ba 6ce5 093d 6ebc a4bb
00000230: e871 7e3d 34bb 96bc 0daa 823d ac16 123c
00000240: 641f 81bd a98b 99bd 98a4 13bc 6237 14bc
00000250: aa10 5d3c fd7a 63bd 8750 18bd c371 2cbd
00000260: d0cf 4fbc 989d cbbc 62d1 88bd 14f3 75bd
00000270: ceb4 d1bd 457c ac39 1360 123c 2918 39bd
00000280: 82d9 91bb 18bd 5b3d fe4b 403d dbc0 1dbc
00000290: de4c c5bc ecd4 2b3d 254b 93bd 0e8e e03d
000002a0: ea26 473d cad5 65bd ba4d 2f3d adf7 acbd
000002b0: 3488 11bd e840 853d 2314 e03c 31b5 a2bd
000002c0: b2a1 c03d 9b32 9bbc 01b4 4bbd 51df b13b
000002d0: 8776 bdbc 1263 56bd 6d44 323d 328b 903c
000002e0: 7af1 c63d 6f80 91bd ced4 df3d 1763 093d
000002f0: ee7c adbd a36a e03c 1def 5b3c 36c2 babd
00000300: 4555 01bd 52a0 22bd b759 f8bc 89d6 a23d
00000310: 9650 1d3d 4f26 a9bc f883 5c3d bb45 b9bd
00000320: e8b3 7539 bfc1 d23d d5e9 39bd 9ab4 4ebd
00000330: 2134 c13d 11d8 823d 1bd7 983d e850 403d
00000340: dbbf b3bd 1033 91bd fbc3 dbbc 0bed af3d
00000350: 03bd 983d 7949 a5bd f1f0 b5bb 2fbf 1a3d
00000360: 87fb 50bd 0de5 833d 7fc8 193d 5489 713d
00000370: 4eec 4b3c 79a0 7a3d 34f8 27bd 2ed8 5d3d
00000380: 26b7 d2bc c95c 54bb 66e8 673c 11ea 333b
00000390: 595c ac3d c019 a7bd 626b 5abd 3310 cebd
000003a0: f8bf e0bb dab4 bebd 14b9 593d fcd0 a3bc
000003b0: 2b46 4bbd f30b 89bd 68cb a83d 3aba 2c3d
000003c0: 95f0 c8bd 166c 97bd a621 e93c a210 62bd
000003d0: fe7a b4bc 9254 b63d aa39 3cbd 9cc5 533d
000003e0: abbd d43c 3403 99bd d137 cf3c a041 963d
000003f0: f1e2 c2bd 715b 803d 15cc 87bc a5dd 82bd
-0.0033864896 0.07270152 -0.04665173 -0.062122375 0.009045843 0.08849923 -0.009487247 -0.012320645
-0.023671808 -0.008656708 0.10580859 -0.059889276 -0.06942333 0.0054579037 -0.072707444 -0.092344224
0.08815546 0.0073958538 0.021089142 -0.06413412 0.018660307 0.06584995 0.02016628 0.10029566
-0.0059586675 0.038503975 0.036639966 0.0878262 0.016350087 -0.08556109 0.071612544 -0.063246466
0.029963939 -0.07498128 -0.03433764 0.102380805 0.04566129 -0.08606675 -0.044262435 0.085949056
-0.075688526 -0.022190921 0.010211916 0.07564833 0.010386469 0.06607758 -0.06893914 0.11139614
0.06758905 0.07038344 0.07465988 0.00093604694 -0.06353135 0.028138267 0.060484942 -0.048087463
-0.02483382 -0.06831222 -0.007545478 0.028227147 -0.0037943942 -0.0279259 -0.07761431 0.009635317
0.10614751 0.071315594 0.014192654 0.013153721 0.040101886 -0.0649326 0.06253932 -0.033303626
-0.066938296 0.03354435 0.08149637 0.104671516 0.041962948 -0.022709193 0.016955404 0.071392514
-0.034768373 0.045089472 -0.09754578 -0.07769741 0.07412943 0.029317863 0.061568357 0.04875342
-0.087320335 0.08904405 -0.0012237874 -0.018294103 -0.06612816 -0.07246772 0.000991616 0.075312905
0.10009578 -0.057557102 -0.052247748 0.0081384005 -0.046875183 0.08906977 -0.058504976 -0.04000435
0.10056145 -0.017037971 -0.052446697 -0.03869287 -0.034209877 0.08553462 -0.057820726 -0.08486229
0.015731586 0.07896982 -0.06786742 0.026780345 0.0083612 -0.038951315 0.09742734 -0.033158943
0.018410051 0.031822175 0.09429091 0.08192858 0.013552644 -0.088100605 0.012196374 -0.045612596
-0.081946746 -0.035634525 0.10669623 0.044914547 -0.03243818 -0.083559856 -0.047811404 0.06357213
0.034251347 -0.0011696615 0.03366606 -0.0050273454 0.06212035 -0.018399812 0.06380091 0.008916538
-0.063048154 -0.07497341 -0.00901141 -0.009046407 0.013492743 -0.055537213 -0.03718617 -0.04210068
-0.012683824 -0.02485542 -0.066805616 -0.06004627 -0.10239564 0.00032898985 0.008934039 -0.045189057
-0.004450978 0.05364713 0.04694747 -0.0096285 -0.024084505 0.041951105 -0.07192067 0.10964595
0.048621096 -0.05611209 0.042798735 -0.08445678 -0.035530284 0.065065205 0.027353352 -0.07944716
0.09405841 -0.018945029 -0.049732212 0.0054282327 -0.023127807 -0.052340575 0.043522287 0.017644498
0.09714027 -0.07104575 0.10929261 0.033541765 -0.08471094 0.027394598 0.013423708 -0.09119074
-0.03157546 -0.039703675 -0.030316217 0.079510756 0.03840693 -0.02064815 0.053836793 -0.09046503
0.00023432041 0.102908604 -0.045389015 -0.050465204 0.09433771 0.06388868 0.07462903 0.04695216
-0.08776828 -0.070898175 -0.02682685 0.08590134 0.07457926 -0.080706544 -0.005552404 0.037779983
-0.051021125 0.06440172 0.037544724 0.058968857 0.012446476 0.061188195 -0.04100819 0.054161243
-0.025722098 -0.0032403937 0.014154529 0.0027452747 0.084160514 -0.08159208 -0.053325064 -0.100616835
-0.006858822 -0.093118384 0.05315502 -0.019997112 -0.049627464 -0.06691732 0.08241922 0.042169787
-0.098115124 -0.07393663 0.028458428 -0.055191644 -0.022031303 0.08902849 -0.04595343 0.051702127
0.025969347 -0.07471314 0.02529517 0.07336736 -0.09515942 0.06267441 -0.016576806 -0.063899316

model.2.weight f4 [120, 512]
00000000: 6cd3 b9bc a426 983c 8e6b 8dbb 685b 173b
00000010: 96ab 1c3d d3bc 4dbc c7be 9b3c 789f 9ebc
00000020: b227 893b 25b0 b83c 9c98 223b f438 10bd
00000030: 041c c7bc db55 073d 6b79 213d 009f c3bc
00000040: 57ba e1bc 972d 76bc 8bcc 323c 0b11 5e3b
00000050: bac3 10bd 0638 47bb 0035 08bd 90aa b83c
00000060: 6b13 08bd 3ce5 963c ae91 17bb 3fef a23b
00000070: 5016 46bc b9ae cc3c dcbd b23c 785c d63a
00000080: efc3 033d 7f18 06bd 920a 3a3d 9252 1a3c
00000090: b85c c1bc f30e 83bd d4a7 103d db21 4ebd
000000a0: cf27 3abd 001e e43c ee01 263c e488 923c
000000b0: 5a49 413d 2dbe 5bbd 5ced 1a3d 93bb c2bb
000000c0: 3c0f 213d 2a62 853b 257f f03c 8944 d53c
000000d0: d80e bf3c 6d9c cc3c 598a 95bc 4a65 f43c
000000e0: d61c b53c 242c 21bc 3e32 913c c326 823b
000000f0: 8915 0cbc 16d4 3dbd e362 8c3c 4a3b 2a3c
00000100: 4078 debc 7d8e 1a3c 95b5 123c a611 b93c
00000110: 2146 83bc 782c 8abb ff24 09bd 7108 06bd
00000120: 2093 da3c 8e21 c0bc 4e69 ba3c 624e 593d
00000130: 964a 02bd f055 09bd 9336 193d 0717 87bc
00000140: 2051 26bc 3e80 4b3c c706 133d c28c 1ebd
00000150: 946d a43b ade7 b4bc ce34 bfbc 2315 92bc
00000160: 61e0 febc 8599 02bd 3abb f9bc 12da 02bc
00000170: cbeb e0bc ef90 2ebd d7ff 1a3d 9c6c dc3c
00000180: 012f 14bd 4f6d 9dbc d527 b43c 0617 b4bc
00000190: 96d2 5f3d 7275 c73c fac4 05bd 0f4d 8a3c
000001a0: 1f3a f43c 0e4a d33c 7c06 dabb 481a 783c
000001b0: a080 19bd 2c3b 36bd cb1b 7f3a 0bca 3cbd
000001c0: 3147 94bc 49a6 843c e754 7ebc 9ed4 073d
000001d0: 64a3 803c c8ce d93c 6ed5 b13b f5cb c1bb
000001e0: fcd8 60bc 6a61 3c3d 0305 e3bc 4a4d 98bc
000001f0: eb5e 7bbc 4ab7 383b 2437 3c3d 901d a8bb
00000200: d1ae 14bd 9b32 2d3c 6153 3fbc a20a 3f3d
00000210: 2970 0d3c b9e3 69bc e6d1 05bd d61f 80bc
00000220: 66e1 153d 7a6e a33c 87ca 1fbc 0486 96bc
00000230: 02e3 f7bc 5357 c7bb ec7a 55bc 285e 5d3d
00000240: 14a8 da3c 21b8 90bc 51f5 d33c 8fd2 693d
00000250: c078 43bc 0a5b 52bc f50a 35bd 0d16 debb
00000260: 0764 343d 2531 473c 404d 143c 2462 c6bc
00000270: 7b33 863c e0a4 8d3c aeb5 a13c ce42 44bd
00000280: cf3a 753c 39e9 1cbd fc97 3d3d 344f bbbc
00000290: 6ab3 8abc 59f9 383d a08d e3ba 42d7 cf3a
000002a0: 7f02 0dbd 04e1 a23c 12b5 e7bc 8622 03bd
000002b0: 8adf ff3c cc52 8a3b 713a df3c 370d 0bbc
000002c0: 110c 423c c3ba 77bd 7a9b 333c 43aa fd3c
000002d0: efc5 233a 9d63 223d dc07 333d 899c 4a3d
000002e0: ebd3 b43c 5a5e 50bd 802d c6bb e2e8 663d
000002f0: 77b1 87bc ab42 67bb 7230 d9bb c191 623c
00000300: 489b 4b3c 484d ea3c 074e 4a3c a9b4 abb8
00000310: 0f85 38bc dc2a 14bc fe2c e73b 7bad 5c3d
00000320: 5aae 573d 52b4 893b 903d 503a 46dd b6bc
00000330: 300d 143d 3535 e53c d67f cd3c 49e0 85bc
00000340: 9bc2 953c dc85 533d 49e4 9ebc 39f5 28bd
00000350: 9ed3 f83b 5a80 25bd 4699 603b 9438 77bb
00000360: 7fbc aa3b d4d3 5f3c e81a 2e3d bb82 113d
00000370: f50d c6bc a80e b7bb b696 35bc e74b 30bd
00000380: ec35 a33c a871 d2bb 461d c2bb f772 113d
00000390: c3f3 2ebd 1eb7 24bd d6e4 633d ba1a a63c
000003a0: 8704 babc f524 0c3d c66a ec3c dfbb 83bc
000003b0: 3718 213d 8e8a 373c 8213 0b3d 217d 0abd
000003c0: c652 ba3b 479a c438 d894 8ebc b9b1 27bc
000003d0: 997a d33c a4b5 febc 0fa9 90bb 7c47 53bd
000003e0: 26ca aabc d03c af3c ff17 a53c e973 103d
000003f0: 7c83 a9bc 2074 27bc 36de 27bc da61 aebc
-0.022683822 0.018573113 -0.0043158 0.0023095254 0.038249575 -0.012557226 0.019011868 -0.01936315
0.0041856403 0.02254493 0.00248102 -0.035210565 -0.024305351 0.033040863 0.039422434 -0.023879528
-0.027554674 -0.015025518 0.010913025 0.003388467 -0.03534291 -0.0030398383 -0.03325367 0.022542268
-0.033221643 0.018419854 -0.0023127603 0.004972368 -0.012090281 0.024985658 0.021819048 0.0016354462
0.03216928 -0.032738205 0.045420237 0.0094191 -0.023603782 -0.06399336 0.035316303 -0.050325256
-0.04544812 0.027846336 0.010132296 0.01788754 0.047189094 -0.053648163 0.03782402 -0.0059427707
0.03932117 0.00407054 0.029357502 0.026033657 0.023322508 0.024976933 -0.018254446 0.029833455
0.022108477 -0.009837184 0.017724153 0.003971906 -0.008550056 -0.04634484 0.017136997 0.010390112
-0.027156949 0.009433386 0.008954425 0.022591423 -0.016024651 -0.004216727 -0.033482548 -0.032722894
0.026681483 -0.0234535 0.022755291 0.053053267 -0.031809412 -0.033529222 0.03740556 -0.016490472
-0.010151178 0.012420712 0.035895135 -0.038708456 0.0050179455 -0.022083128 -0.023340609 -0.017832344
-0.031112852 -0.03188469 -0.030484784 -0.007986562 -0.027456185 -0.04261869 0.037841644 0.026907258
-0.03617764 -0.019217161 0.02199165 -0.021983635 0.05464419 0.024347994 -0.032658555 0.016882448
0.02981287 0.025792148 -0.006653605 0.015142985 -0.037476182 -0.044490024 0.00097316195 -0.04609112
-0.018100353 0.016192572 -0.015523172 0.033161752 0.01570291 0.026587859 0.005427054 -0.005914206
-0.013723608 0.04599134 -0.02771235 -0.018591542 -0.015342454 0.002818542 0.045951024 -0.0051304772
-0.03629953 0.010571147 -0.011677594 0.046641 0.008632698 -0.014275485 -0.032670878 -0.01564018
0.03659191 0.01995014 -0.009752876 -0.01837445 -0.030259613 -0.006083408 -0.013029795 0.054044873
0.026691474 -0.017665925 0.025873812 0.05708557 -0.0119306445 -0.012839088 -0.044199903 -0.006777531
0.044040706 0.012157713 0.009051621 -0.024216719 0.01638197 0.017290533 0.019739952 -0.047915272
0.014967634 -0.038308356 0.04628752 -0.022864915 -0.016931254 0.04515967 -0.0017360933 0.0015856999
-0.03442621 0.019882686 -0.028284583 -0.032015346 0.031234521 0.004221296 0.027249547 -0.008487037
0.011843697 -0.060480844 0.0109623615 0.030964976 0.0006247451 0.03964578 0.043708667 0.04946569
0.022073707 -0.05087123 -0.0060479045 0.056374438 -0.016564114 -0.003528754 -0.0066280896 0.013828696
0.012427159 0.028601304 0.012347705 -8.187566e-05 -0.011262192 -0.009043422 0.007054924 0.05387638
0.05265651 0.004202404 0.0007943744 -0.022322308 0.03614539 0.027979473 0.025085371 -0.016342299
0.018281272 0.05164133 -0.019395964 -0.041249488 0.007593586 -0.04040561 0.0034271046 -0.0037722932
0.0052104588 0.013661344 0.04250613 0.035525065 -0.024176577 -0.005586464 -0.011083296 -0.043041136
0.019923173 -0.0064222403 -0.0059239 0.03551003 -0.042712938 -0.040213697 0.055638157 0.020276416
-0.022707237 0.034214932 0.028859507 -0.016080795 0.039329734 0.011202468 0.03395415 -0.03381074
0.005686137 9.374745e-05 -0.017404959 -0.0102352435 0.025815295 -0.031092472 -0.0044146846 -0.051581845
-0.020848345 0.021391302 0.020153044 0.03526679 -0.02069258 -0.010220557 -0.01024585 -0.021286894

model.2.bias f4 [120]
00000000: 2649 cfbc 9f7e 1d3d e1c6 19bd 54ed 593d
00000010: 24ce 2b3d d512 443d 74fd 5bbc ad3f 323d
00000020: c27f 483d 8738 dfbc f27b f83c 80bf bb3c
00000030: bf8c ccbc 687a 543c 6728 963c 2873 45bc
00000040: 10a6 083d 3cbe be3b 1cbc 0dbd 0db5 49bc
00000050: de67 5e3b 78c4 53bb 6785 09bd 2305 983c
00000060: 3e7c 3dbc 8142 3abb a14a 253d b681 ba3c
00000070: 3b2e adbc 96c9 f73c 5a38 a1bc b0e1 bfbc
00000080: 8197 1c3d cb41 ad3c 4a2c 43bc 994f 913c
00000090: 6f4f cc3c eeef a3bb ddb8 acbc 99ce d9bc
000000a0: 9d27 eaba 5f85 583d 0746 e1bc 1f36 0b3d
000000b0: 9e0f 1b3c cddf 473c 4962 9cbc 93d7 1ebb
000000c0: e68d 0ebd d5ce 42bc f9ac 03bc 901e 283c
000000d0: 4a5b 073c c62f 163d 1d60 af3c 89c5 003d
000000e0: 1e3c 163c cd77 e5bb 8a20 af3c a756 e7bc
000000f0: 907f 233c dc10 9e3c 7aef 143d 5a70 db3c
00000100: 5924 a53c a22a 21bb 803e 4abc c1f7 dc3b
00000110: 7297 ea3c a115 0b3b b9c4 61bc 9bdc 373d
00000120: f9ed 2c3b f823 bfbb d7e2 083d eb81 3a3d
00000130: c4b9 0b3d a69d 8c3c 8b72 193d 1981 0d3d
00000140: 44fb 07bd 2c5f c03a 9ad7 5d3c 65fa b0bc
00000150: f8db 4bbc 25e3 9d3c f3a9 403d 8b01 7abc
00000160: e86b 0b3c 3de8 d73b b522 de3c a30e 243c
00000170: 7d3f fd3c 0766 5dbb 6d58 b4bc 1cb8 7a3b
00000180: 2158 1c3c 80f0 293d 827d 463d 4737 4c3d
00000190: 41e5 dc3c 9016 86bb 2aee c63b b7d4 633c
000001a0: 5f93 91bc 8f18 89bc 9df0 acbc 6ef7 db3c
000001b0: b021 09bd ed3e 1d3d 67bd 74bc cfbf 37ba
000001c0: b351 123d 0ee5 0a3d 0a02 b33c c03b 3f3b
000001d0: 09cd ce3c b62a a73c 5060 2c3d 1d58 343d
-0.025303435 0.038450833 -0.03754318 0.05320485 0.041944638 0.047869522 -0.013427127 0.043517757
0.048949964 -0.027248634 0.03033254 0.022918463 -0.024969457 0.012968637 0.018329812 -0.012051381
0.033361495 0.0058210175 -0.034603223 -0.012311232 0.0033936421 -0.003231315 -0.033574488 0.018557137
-0.011565266 -0.0028420987 0.040354375 0.02276693 -0.021140208 0.03024749 -0.01968019 -0.023423046
0.038230423 0.021149537 -0.011912415 0.01773815 0.02494022 -0.005002967 -0.021084243 -0.026587771
-0.0017864589 0.052861568 -0.027499212 0.03398716 0.009464173 0.012199354 -0.019089835 -0.002423738
-0.034803294 -0.011890133 -0.008036845 0.010261193 0.008261511 0.036666654 0.021408135 0.031438384
0.0091696065 -0.0070028068 0.02137782 -0.028239561 0.009979144 0.019295149 0.036361195 0.026786972
0.020158933 -0.0024592062 -0.012344003 0.0067434018 0.028636668 0.0021222609 -0.0137798125 0.04488812
0.002638696 -0.005833145 0.033419456 0.045534056 0.034112707 0.017165016 0.037462752 0.034546945
-0.03319861 0.0014676801 0.013540173 -0.021603772 -0.012442581 0.01927335 0.047037076 -0.015259157
0.008509614 0.0065889643 0.027116159 0.010013255 0.030914063 -0.0033782737 -0.022014821 0.003825671
0.009542496 0.041489124 0.048459537 0.049857404 0.026964786 -0.004092045 0.006070872 0.013905696
-0.017770467 -0.016735343 -0.021110827 0.026851382 -0.033479393 0.03839009 -0.014937735 -0.00070094777
0.035722446 0.03390985 0.021851558 0.00291799 0.025244253 0.020406108 0.04208404 0.044029344
