checkpoints/solar_data_CycleNet_solar_data_ftMS_sl96_ll48_pl72/checkpoint.pth (torch, 349991 bytes, 5 tensors)

cycleQueue.data f4 [24, 12]
00000000: 0000 0000 0000 0000 0000 0000 0000 0000
00000010: 0000 0000 0000 0000 0000 0000 0000 0000
00000020: 0000 0000 0000 0000 0000 0000 5823 02bc
00000030: 0000 0000 0000 0000 0000 0000 0000 0000
00000040: 0000 0000 0000 0000 0000 0000 0000 0000
00000050: 0000 0000 0000 0000 0000 0000 cf6c ff39
00000060: 0000 0000 0000 0000 0000 0000 0000 0000
00000070: 0000 0000 0000 0000 0000 0000 0000 0000
00000080: 0000 0000 0000 0000 0000 0000 9def 683c
00000090: 0000 0000 0000 0000 0000 0000 0000 0000
000000a0: 0000 0000 0000 0000 0000 0000 0000 0000
000000b0: 0000 0000 0000 0000 0000 0000 a90c c03c
000000c0: 0000 0000 0000 0000 0000 0000 0000 0000
000000d0: 0000 0000 0000 0000 0000 0000 0000 0000
000000e0: 0000 0000 0000 0000 0000 0000 bef4 fd3b
000000f0: 0000 0000 0000 0000 0000 0000 0000 0000
00000100: 0000 0000 0000 0000 0000 0000 0000 0000
00000110: 0000 0000 0000 0000 0000 0000 7b42 53bd
00000120: 0000 0000 0000 0000 0000 0000 0000 0000
00000130: 0000 0000 0000 0000 0000 0000 0000 0000
00000140: 0000 0000 0000 0000 0000 0000 9443 aabd
00000150: 0000 0000 0000 0000 0000 0000 0000 0000
00000160: 0000 0000 0000 0000 0000 0000 0000 0000
00000170: 0000 0000 0000 0000 0000 0000 1e5a 2cbd
00000180: 0000 0000 0000 0000 0000 0000 0000 0000
00000190: 0000 0000 0000 0000 0000 0000 0000 0000
000001a0: 0000 0000 0000 0000 0000 0000 71bb 113d
000001b0: 0000 0000 0000 0000 0000 0000 0000 0000
000001c0: 0000 0000 0000 0000 0000 0000 0000 0000
000001d0: 0000 0000 0000 0000 0000 0000 8912 333d
000001e0: 0000 0000 0000 0000 0000 0000 0000 0000
000001f0: 0000 0000 0000 0000 0000 0000 0000 0000
00000200: 0000 0000 0000 0000 0000 0000 a0d1 a23c
00000210: 0000 0000 0000 0000 0000 0000 0000 0000
00000220: 0000 0000 0000 0000 0000 0000 0000 0000
00000230: 0000 0000 0000 0000 0000 0000 f812 143d
00000240: 0000 0000 0000 0000 0000 0000 0000 0000
00000250: 0000 0000 0000 0000 0000 0000 0000 0000
00000260: 0000 0000 0000 0000 0000 0000 8403 993c
00000270: 0000 0000 0000 0000 0000 0000 0000 0000
00000280: 0000 0000 0000 0000 0000 0000 0000 0000
00000290: 0000 0000 0000 0000 0000 0000 24eb 8c3b
000002a0: 0000 0000 0000 0000 0000 0000 0000 0000
000002b0: 0000 0000 0000 0000 0000 0000 0000 0000
000002c0: 0000 0000 0000 0000 0000 0000 1d7c f23c
000002d0: 0000 0000 0000 0000 0000 0000 0000 0000
000002e0: 0000 0000 0000 0000 0000 0000 0000 0000
000002f0: 0000 0000 0000 0000 0000 0000 392f d13c
00000300: 0000 0000 0000 0000 0000 0000 0000 0000
00000310: 0000 0000 0000 0000 0000 0000 0000 0000
00000320: 0000 0000 0000 0000 0000 0000 39ef 24bd
00000330: 0000 0000 0000 0000 0000 0000 0000 0000
00000340: 0000 0000 0000 0000 0000 0000 0000 0000
00000350: 0000 0000 0000 0000 0000 0000 6f26 98bd
00000360: 0000 0000 0000 0000 0000 0000 0000 0000
00000370: 0000 0000 0000 0000 0000 0000 0000 0000
00000380: 0000 0000 0000 0000 0000 0000 e4f4 34bd
00000390: 0000 0000 0000 0000 0000 0000 0000 0000
000003a0: 0000 0000 0000 0000 0000 0000 0000 0000
000003b0: 0000 0000 0000 0000 0000 0000 f435 473c
000003c0: 0000 0000 0000 0000 0000 0000 0000 0000
000003d0: 0000 0000 0000 0000 0000 0000 0000 0000
000003e0: 0000 0000 0000 0000 0000 0000 9df5 ed3c
000003f0: 0000 0000 0000 0000 0000 0000 0000 0000
0.0 0.0 0.0 0.0 0.0 0.0 0.0 0.0
0.0 0.0 0.0 -0.007942997 0.0 0.0 0.0 0.0
0.0 0.0 0.0 0.0 0.0 0.0 0.0 0.0004871846
0.0 0.0 0.0 0.0 0.0 0.0 0.0 0.0
0.0 0.0 0.0 0.0142172845 0.0 0.0 0.0 0.0
0.0 0.0 0.0 0.0 0.0 0.0 0.0 0.023443537
0.0 0.0 0.0 0.0 0.0 0.0 0.0 0.0
0.0 0.0 0.0 0.007750123 0.0 0.0 0.0 0.0
0.0 0.0 0.0 0.0 0.0 0.0 0.0 -0.051577073
0.0 0.0 0.0 0.0 0.0 0.0 0.0 0.0
0.0 0.0 0.0 -0.08313671 0.0 0.0 0.0 0.0
0.0 0.0 0.0 0.0 0.0 0.0 0.0 -0.04207813
0.0 0.0 0.0 0.0 0.0 0.0 0.0 0.0
0.0 0.0 0.0 0.03557915 0.0 0.0 0.0 0.0
0.0 0.0 0.0 0.0 0.0 0.0 0.0 0.04371885
0.0 0.0 0.0 0.0 0.0 0.0 0.0 0.0
0.0 0.0 0.0 0.019875348 0.0 0.0 0.0 0.0
0.0 0.0 0.0 0.0 0.0 0.0 0.0 0.036150903
0.0 0.0 0.0 0.0 0.0 0.0 0.0 0.0
0.0 0.0 0.0 0.018678434 0.0 0.0 0.0 0.0
0.0 0.0 0.0 0.0 0.0 0.0 0.0 0.004300492
0.0 0.0 0.0 0.0 0.0 0.0 0.0 0.0
0.0 0.0 0.0 0.029600197 0.0 0.0 0.0 0.0
0.0 0.0 0.0 0.0 0.0 0.0 0.0 0.025535213
0.0 0.0 0.0 0.0 0.0 0.0 0.0 0.0
0.0 0.0 0.0 -0.040267203 0.0 0.0 0.0 0.0
0.0 0.0 0.0 0.0 0.0 0.0 0.0 -0.074292056
0.0 0.0 0.0 0.0 0.0 0.0 0.0 0.0
0.0 0.0 0.0 -0.04417886 0.0 0.0 0.0 0.0
0.0 0.0 0.0 0.0 0.0 0.0 0.0 0.0121588595
0.0 0.0 0.0 0.0 0.0 0.0 0.0 0.0
0.0 0.0 0.0 0.029047782 0.0 0.0 0.0 0.0

model.0.weight f4 [512, 96]
00000000: 09ac 35bd 1f33 1bbd a43b 5b3d dfe7 6b3d
00000010: 0aa5 a23d 2320 5f3d 1572 0e3c 157c 35bd
00000020: b6a5 7fbd 241e fc3b bee7 4bbd 5af1 24bd
00000030: 9fb1 d2bd 554a 6cbd 637e cabc f9f7 cf3c
00000040: c3d3 cfbd 6311 93bd 254d 7e3c 0957 93bd
00000050: 4ef0 823d 1853 723d bcb0 c23c caa2 973c
00000060: 177a 88bd f473 35bd 8fd4 95bd c812 f2bc
00000070: 2ca2 67bd a9ff 923d a9e3 82bb 4630 0dbc
00000080: 52e4 72bd 7ca1 b13d 817d bd3c 5dcd 59bd
00000090: d4f0 c9bd 16c0 e5bd f1cf a4bc 0573 843d
000000a0: 3f93 0d3c 9e32 213d 9005 d1bc c211 3b3d
000000b0: a8f5 833d 394c c63d 4ecd 613d d6b3 3abd
000000c0: 51f9 91bd e6c9 4e3d 59eb 043c f97d 043d
000000d0: c310 563d 191e 5dbd 93c4 96bd 8dc6 af3d
000000e0: 02d5 ac3d 5cb7 333d 4e2a 1abd 52e8 cebb
000000f0: f914 5bbd 3a4d d33a d892 1c3d 09ca bdbd
00000100: dba9 adbc ac23 e0bc 411a 663d 89d1 203d
00000110: 74ee 0a3d 8176 853c 9909 84bd c4aa a1bd
00000120: fde6 c4bd f167 443c 21fd 8e3d 4657 f438
00000130: da77 013d 77fb e43c ee80 34bc 2149 da3b
00000140: 93b4 ffbc 984e a6bd 9210 02bd 0078 953c
00000150: 6b73 e33c 5fe8 bdbd 43a6 abbd b0d2 b7bd
00000160: ee49 cdbc eb8a b73d bd0b 10bd 81b1 74bc
00000170: 0842 863b 41b0 b43d 539a 88bd a11e 173d
00000180: 8df4 00bd 0a12 33bd 9e0b 56bd 3301 7cbc
00000190: 8099 a63d 9bce f3bc c7cd b7bd e527 113d
000001a0: 2e7d 01bd 58dc 9a3d 7450 24bd 9813 113d
000001b0: 1441 6f3d 23f3 d13b d34a 8e3c aff5 143d
000001c0: 7273 46bc 7bc6 403d eb97 c9bc 2805 c3bd
000001d0: 0c2d e1bb fcc7 edbc 0df8 c63c a14b 313d
000001e0: 1c5a d13b 50e6 08bd 4125 d13c a030 9e3d
000001f0: 25bc b33d f343 893c 33eb c2bd 05f5 943d
00000200: 40b5 fd3c 7d53 b2bd a5f9 8b3d 9833 49bd
00000210: e7fb a03d dd74 c5bc aa06 903c d2fe 89bc
00000220: def6 493d b8d4 e7bb bc7d aabd df14 a83c
00000230: 9299 90bd 8a4b 53bc c07d 4bbc d115 4c3d
00000240: 6b4f 44bd 46b0 d3bd 4f17 babc 18ef 67bd
00000250: 50f1 653c c802 c3bd c874 b43d dc3d 863d
00000260: 5aee 3e3d 0141 823c 227a 703d e1bd 94bc
00000270: 5cc2 783d 3811 7a3d 6848 c73c b6d7 d0bc
00000280: 935f 1e3c bc96 493c f8c8 cc3a fd3b a8bd
00000290: c592 a93d 06b1 203d 9d6d 9f3d e03a c1bd
000002a0: c71a 1abd e632 b13d df76 423d 3eb6 773d
000002b0: 90a3 3fbd d904 a73d a4b8 d5bd 1536 293d
000002c0: d715 1e3d 00c8 e43c f0f8 a13d d8b9 ab3d
000002d0: 0ffb 5c3d a3ae 6fbd 2885 c23c 636b b4bc
000002e0: d157 5e3b c8c1 ae3d b536 0bbd 6a3a 58ba
000002f0: 8321 2e3d 62cd eb3c f2c1 aa3d dc0e cbbd
00000300: 4c26 843d c888 86bd 5482 8f3d f571 45bc
00000310: 2bfe d3bd bfeb de3c c803 bf3d 8caa b6bc
00000320: 0177 5dbc f9a3 d6bc f5f0 9d3b 367b 0cbd
00000330: 0370 c23d ba06 29bb eb53 423d 53d8 8d3d
00000340: 1df7 18bd c8ba bcbc 3098 8d3d 7e88 efbb
00000350: 4022 ac3d 9391 ccbd fd50 013d afcb 733d
00000360: b9e1 b3bd 9d2b 83bd 6c0a b43d 8543 47bd
00000370: f76b b6bd d19c 05bd f902 073d 9b65 c83d
00000380: 36d0 423c 8b45 7a3d 56f0 8a3d 1ee3 a13d
00000390: fb17 673d 0013 9dbd 369f c63d dfff 563d
000003a0: e98f 273c 8a51 523d cbe7 ae3b 7a90 fbbc
000003b0: 5fef 8cbd 2602 82bd fd75 c83c 02cd f73b
000003c0: aa98 74bc a951 38bc b881 553d b3a4 e3bd
000003d0: ef56 a3bc 8240 adbd 7f88 abbc 32c8 6f3d
000003e0: 5f7c ab3d b61c 46bd f498 873d 5892 343c
000003f0: 7146 543d bf8e d53d 74e0 703d ff5b 543d
-0.04435352 -0.03789055 0.053523675 0.057594176 0.07941635 0.054474007 0.008694191 -0.044307787
-0.062413894 0.0076940227 -0.049781553 -0.040269233 -0.10287785 -0.057688076 -0.024718469 0.025386797
-0.10147812 -0.07181051 0.015521322 -0.07194335 0.06393491 0.059161276 0.023765914 0.018510241
-0.06663912 -0.044300035 -0.07315933 -0.029549971 -0.056551144 0.071776696 -0.0039944244 -0.008617466
-0.059299774 0.08673379 0.023131134 -0.053174365 -0.098603874 -0.11218278 -0.020118685 0.06467251
0.008641063 0.039354913 -0.025515348 0.045671232 0.064433396 0.09682507 0.055127434 -0.04558166
-0.071276315 0.050485514 0.008112752 0.0323467 0.05226208 -0.05398378 -0.07361712 0.085827924
0.084390655 0.043876037 -0.037638 -0.006314316 -0.053486798 0.0016121038 0.03822598 -0.09267051
-0.021199157 -0.02736076 0.05617738 0.03926233 0.033918813 0.016291859 -0.06447143 -0.07893899
-0.0961437 0.011987672 0.06981874 0.000116510826 0.03160844 0.027951939 -0.011017067 0.0066615497
-0.031214034 -0.08120459 -0.031754084 0.018245697 0.027764997 -0.09272837 -0.08381321 -0.08975732
-0.025059666 0.089620434 -0.035167444 -0.014934898 0.004097227 0.0882268 -0.0667006 0.036894444
-0.03148322 -0.043718375 -0.052257173 -0.015381145 0.081347466 -0.029761603 -0.08974796 0.035438437
-0.03161352 0.075615585 -0.04011579 0.035419077 0.058411673 0.006407158 0.017369663 0.036367115
-0.012112485 0.047064286 -0.024608573 -0.09522468 -0.006871825 -0.029026024 0.024288202 0.043285016
0.0063889157 -0.033422768 0.02553046 0.07724118 0.0877612 0.016756034 -0.09517517 0.07273296
0.030970216 -0.087073304 0.06834725 -0.04912147 0.078605466 -0.024103576 0.017581303 -0.01684514
0.049307697 -0.0070749186 -0.08324763 0.020517765 -0.07060541 -0.012896428 -0.012420118 0.049825493
-0.0479273 -0.10336356 -0.022716193 -0.056624502 0.014034584 -0.09522015 0.08811337 0.065547675
0.04661403 0.015900137 0.058710225 -0.018156948 0.06073223 0.061051577 0.024326518 -0.025493484
0.009666341 0.012304004 0.0015623858 -0.08214567 0.08279947 0.039231323 0.07784579 -0.09435058
-0.037623193 0.08652286 0.047476646 0.060476534 -0.046786845 0.081552215 -0.10435608 0.041311342
0.038595047 0.027927399 0.07908809 0.08385056 0.053950366 -0.058516156 0.023745134 -0.022023862
0.0033926854 0.085330546 -0.03398772 -0.00082484505 0.042512428 0.028784458 0.083377734 -0.099149436
0.06452617 -0.06569058 0.0700728 -0.012051095 -0.10351213 0.027212022 0.09326893 -0.02229812
-0.013517142 -0.026201235 0.004819984 -0.03429719 0.09494021 -0.0025791363 0.04744331 0.06926026
-0.03734504 -0.023038283 0.06913793 -0.0073099723 0.0840497 -0.099887036 0.031571377 0.05952042
-0.087832876 -0.06404803 0.0879105 -0.048648376 -0.089073114 -0.032620255 0.03296182 0.09785005
0.011890462 0.061101478 0.06784122 0.07904647 0.056419354 -0.076696396 0.09698336 0.05249011
0.010227182 0.051347293 0.0053376905 -0.03070854 -0.06881594 -0.06348066 0.024470324 0.0075622806
-0.014928976 -0.011249938 0.052125663 -0.11115398 -0.019938914 -0.084595695 -0.02093911 0.05854053
0.08373331 -0.048367225 0.0662097 0.011021219 0.05182499 0.10427617 0.058807805 0.051845547

model.0.bias f4 [512]
00000000: 3b9a 5c3d 0a9e 84bd 67ff 95bc 5f23 e43c
00000010: b9e5 843d d4cc 31bc 2327 58bd 4d6f 0d3d
00000020: b6db 8bbd 8cd4 683d 0694 123d 61c0 5bbd
00000030: 50a6 1d3d e1c6 9ebd 71ea 91bd 1e47 91bd
00000040: e9de 633c 13c1 58bd 10fd a53c 5e97 a93d
00000050: d572 c3bc 4d2f 1bbd 4b66 09bd b7a2 90ba
00000060: 060b 363d 2864 42bd 60ab 473d f45f 103d
00000070: 3c51 4c3d fd15 80bd cb3a 7b3d 1d2e 1e3d
00000080: e0cc da3c fd2b 413d 48b5 03bd 8db5 ae3d
00000090: 9ce2 203d ae32 06bc 590b 8b3d e729 c2bc
000000a0: 3d3f 57bd de12 c4bd f1d8 403d df69 10bb
000000b0: 36cb 943d e6d8 51bd 2b95 3fbd 7213 bc3c
000000c0: 1d1b 6fbd 28e2 693d 9c11 be3c baf5 443d
000000d0: d73f ebbc bda5 8c3d 3f8b 063d 4013 09bd
000000e0: ec38 383d 0055 45bc d675 cabc b788 a63d
000000f0: 6ecc 9c3d 1055 293c 75db 01bd 479b 56bd
00000100: e75e b13d eeb4 7e3d a6f9 86bd fff5 9abd
00000110: e100 72bd f543 8a3d 67b5 c13c 2cb5 dbbb
00000120: dd43 bbbd 0e67 92bd 7e96 313c cf51 893c
00000130: caac a2bd 142a 673d 7ce3 063d 3f78 893d
00000140: 5424 ae3d ff8e 293d e399 983d 0a6a 653c
00000150: 189a d13d a2d0 aabd 1fa2 b3bd 5b87 1abb
00000160: de4f e3bc 0032 003d 6190 1f3d 5e15 ffb9
00000170: 33c7 8d3d c02a b33d 9347 23bc 5c91 733b
00000180: 0e55 1bbd 8896 cebc e894 cf3d 6f05 443d
00000190: 07c6 8abc ff49 bc3c a319 0f3d 7a83 8abd
000001a0: f035 123d 4fd9 bcbd 1227 73bd 691c adbc
000001b0: 5359 be3c e69d 2dbd 5397 c5bd fed3 39bd
000001c0: f63c 36bc d71d 17bd 27f8 ce3c 3dcc b43d
000001d0: 0f62 b53b a689 2ebd 58cf d0bd 30cd a539
000001e0: 95d9 f7bc 94e1 15bd a986 673d acd3 823c
000001f0: 5df0 e9bc 1759 3b3d 864f 92bd d554 96bd
00000200: b169 35bd 8f05 3cbd 87ae a1bd c848 51bc
00000210: cdee 843d a7b7 f7ba bfa7 43bd b4ab 45bd
00000220: a398 2f3c ee21 233d fa4e a7bd 20a8 953d
00000230: 2f87 5d3d 1387 f13c 8b27 f43c 35f4 bbbd
00000240: fae7 693d aaf6 84bd 8600 bf3d 87ee 91bd
00000250: b1c9 ae3d c3bc c3bd b952 8f3d 710e 0e3c
00000260: 734a 87bd bd95 a4bd b80b 52bd 6fe5 bbbd
00000270: 3458 c63d 3c22 65bd abab 0bbd f782 edbc
00000280: df83 21bd 15ac c93d 3b55 a2bd 384d d03d
00000290: 0115 ce3d 5285 0a3c c733 af3d 7033 483d
000002a0: 36dd 813d 0d6e bd3d c08b 8b3c c9fd 3b3d
000002b0: 0721 a53d f165 9b3d fd61 4bbd 7bb4 b6bd
000002c0: 1322 4bbd ab8e 083b 7ea1 4fbc 6149 80bd
000002d0: ea69 9b3d 1b68 743d 84bc b73d f298 bebd
000002e0: c5b9 8bbd 5e12 9b3d ea9d 0abd 6075 1fbd
000002f0: d832 bdbc 32dc 6f3d e746 a83c 4ea9 a1bd
00000300: c301 a4bd a004 8a3d 0031 8abd 9373 5e3d
00000310: bf76 0c3d a98e 913d b238 81bd d968 363d
00000320: 3fbb c2bd 6c0a 96bd f379 013d 1422 5f3d
00000330: 58c7 f53b 6696 5a3d fca3 e43c 677a 77bd
00000340: b595 2bbd d245 c23c b01f f13c 7cbe 43bd
00000350: 8906 9abc 1253 e6bb e1bc 623d f165 693d
00000360: 57a0 ce3d 6e2a a5bd c3d2 02bd 814a 6e3d
00000370: 979b 703d 6925 1cbd 9daf 9c3d 6c72 c33d
00000380: 9ecc ddbd 3b2d 963c 865a 27bd adf1 603d
00000390: d21a 0b3d 5348 92bd 9030 843d 6602 89bd
000003a0: 6c81 3e3a 2855 95bd 51f8 a13d 19bd 013c
000003b0: 0639 1e3d 58c9 7d3d 4d58 a33d 6bb9 a9bd
000003c0: fdd8 61bd fc16 3b3d 11ea 183d 5675 98bd
000003d0: 53cd e0bc d3de 99bd 6a88 28bd 6fd2 31ba
000003e0: 5693 3fbc cf9b a53d b6a8 87bc efb5 94bd
000003f0: ad04 95bd 49a3 f23c 7375 93bd 9447 a43c
0.053858023 -0.06475456 -0.018310262 0.027848898 0.064891286 -0.0108520575 -0.0527717 0.034529973
-0.06829016 0.056843325 0.035785697 -0.053650264 0.038488686 -0.07752777 -0.07124794 -0.07093643
0.013908126 -0.052918505 0.020262271 0.08280824 -0.023858467 -0.037886906 -0.03354482 -0.0011034821
0.044444107 -0.047458798 0.04874742 0.035247758 0.04988216 -0.06254194 0.061335366 0.038618196
0.02670902 0.04716109 -0.032155305 0.08530722 0.03927861 -0.008190794 0.06789274 -0.023701621
-0.052550543 -0.09573911 0.04708189 -0.002203576 0.07265322 -0.05123224 -0.046773117 0.022958491
-0.058375467 0.057100445 0.023201756 0.048085906 -0.028716965 0.068675496 0.03284764 -0.033465624
0.04497616 -0.012044191 -0.024714392 0.08131545 0.07656179 0.010335222 -0.03170343 -0.052394178
0.08660679 0.062184267 -0.065905854 -0.07566451 -0.05908287 0.06751243 0.02364607 -0.006704947
-0.09143803 -0.07148562 0.010839103 0.016762642 -0.07943113 0.056436613 0.03293179 0.06712388
0.08503023 0.041396137 0.074512266 0.014002332 0.10234469 -0.08340575 -0.087711565 -0.0023579213
-0.027748045 0.031297684 0.03895605 -0.0004865331 0.0692276 0.08748388 -0.009965795 0.0037165498
-0.03792291 -0.025218263 0.101358235 0.047856744 -0.01694013 0.022984503 0.03493656 -0.067633584
0.03569597 -0.09221136 -0.059363432 -0.021131711 0.023235952 -0.04238691 -0.096480034 -0.045368187
-0.011122933 -0.036893692 0.025264813 0.08828018 0.005535371 -0.04261174 -0.10195798 0.0003162413
-0.030255118 -0.03659208 0.056524906 0.015970074 -0.028556997 0.04573926 -0.07144074 -0.07340399
-0.04429025 -0.04590374 -0.078946166 -0.0127737 0.0649086 -0.0018899337 -0.047767397 -0.048259452
0.010717544 0.03982728 -0.081693605 0.07307458 0.054084 0.029483354 0.029804012 -0.09177438
0.057105996 -0.0649236 0.09326272 -0.071255736 0.08534563 -0.09557488 0.069982 0.008670435
-0.06605997 -0.08036373 -0.051280707 -0.0917462 0.09684792 -0.05594085 -0.034099262 -0.028993113
-0.039432403 0.09847275 -0.07926413 0.10170978 0.100626 0.008454638 0.085547976 0.04887718
0.06341021 0.09249506 0.017034411 0.045896325 0.0806294 0.07587803 -0.049653996 -0.08921143
-0.049593043 0.002083699 -0.01267278 -0.06263996 0.07588561 0.059669595 0.089715034 -0.09306516
-0.06822542 0.07571863 -0.033842005 -0.038930297 -0.023095533 0.058559604 0.020541621 -0.078936204
-0.080081485 0.067391634 -0.06747627 0.05430944 0.034292933 0.071072884 -0.06309642 0.044533584
-0.095083706 -0.073262066 0.03161044 0.05447586 0.0075005703 0.053366087 0.027910225 -0.060419466
-0.04189082 0.023714934 0.029434055 -0.047789082 -0.018801944 -0.0070289457 0.05535591 0.056981985
0.10089176 -0.080647334 -0.03193928 0.05817652 0.058742132 -0.038121615 0.07650683 0.095433086
-0.10830043 0.018332114 -0.040857814 0.05491798 0.033961125 -0.07142701 0.06454575 -0.066899106
0.000726721 -0.07291633 0.07908691 0.00791862 0.0386286 0.061959594 0.079758264 -0.08287319
-0.055138577 0.045676216 0.037332598 -0.07444255 -0.027441656 -0.075132035 -0.04114572 -0.0006783371
-0.0116928425 0.08086359 -0.01655994 -0.072612636 -0.072762825 0.029618876 -0.07200136 0.020053662

model.2.weight f4 [72, 512]
00000000: 5024 debc a7c0 b7bb 1df1 423c 9ce8 453d
00000010: 7ce3 a43a 6ccd f3bc 09ff 2c3d 6f85 4b3c
00000020: cab3 02bd 8ed0 98bc f072 10bd 78b2 adbb
00000030: 409a 8dbc 8f33 27bc 107b f3bb 4f8e 0c3c
00000040: 4dd0 b93c 5a27 7cba 5dd5 00bd 8de9 54bd
00000050: 997d 823c d243 c4bc 3299 633d b1ef 77bc
00000060: 7f23 233d d339 acba 211c e7bc 0580 cabc
00000070: a307 31bc ecae 943c 97ce d13c 42bb fa3b
00000080: 8cf9 adbb 49fa 0cbc 8d0c e9bc 2a91 1cbd
00000090: d98b ffbc 1fd4 47bd 6475 06bd 5893 4a3c
000000a0: da50 823c 33ca c83c 59c5 95bc f756 b3bc
000000b0: 5025 2bbd f900 ca3b 3af2 69bc 6240 26bc
000000c0: 4053 22bd 4c3c e93c 412f dabb 501b 133c
000000d0: 47ae 973c e092 063d 3171 4a3d df50 d7bb
000000e0: 555b 80bc 88b7 ff3c 2d74 443c 9f09 0e3b
000000f0: 3137 953c 994a 93bc a413 82bc b21b ebbc
00000100: 49f1 48ba c4ef edbc 5430 4fbc 354a aebc
00000110: be52 c5bc 7620 1c3c 1ee6 4ebd 3de5 11bd
00000120: 7f2e 9dbc baf9 32bd d13e 3fbc 780a 1cbd
00000130: 7737 72b8 a151 cf3c d71a c53b e841 99bc
00000140: e3e2 c6ba add0 96bc 14ea 36bd c3c8 0b3c
00000150: 5c41 9c3c 36b0 d3bb acf3 7d3b 019f 283b
00000160: 06a3 a43c d1e8 52bc 1090 12bd 4c3f f93c
00000170: 2b3e 57bc 9f0e 4f3c e716 123d 4689 6bba
00000180: e054 cb3c 422a b23c f87d 79bb d7ee c9bc
00000190: 24f3 8fba ceb1 05bd ca88 cebb 8864 73bd
000001a0: 8d0f a03c 0a15 803c a28f 5e3c bc24 33bc
000001b0: 862d ca3a cc9d 95bb e3c1 28bd 7e0c d83b
000001c0: 6330 3fbc dd6e 203d c9fe f13c e419 b53c
000001d0: 7fed bb38 6496 0e3c 628b 2bbc 411e 61bc
000001e0: 48be 623c 6f12 a63c e382 04bd a423 0fbd
000001f0: 1044 593c bbe6 533c 2ecc fb3c a490 203d
00000200: f575 a83c 87df eabc 6277 183c d69e 373c
00000210: afd8 1cbd 9b0c b33c d86a 26bc fa49 1d3d
00000220: ee6a c13c c0ef 3a3d d1bb d23c 3620 033d
00000230: 72e9 c9bc e726 4cbb b7d9 1ebc e4f7 30bd
00000240: 4704 12bd 944c 0d3c 279a ebbc 4e75 4bbc
00000250: 6748 163d 2031 0d3a 1ae3 29bd 60f9 ffbc
00000260: b45c c6bb ed7d 533c b0bf d83c ae92 00bd
00000270: d8c8 ae3c b6ca 73bc a4e8 39bd 5fe7 a13c
00000280: 64ea 103d db62 52bd 8380 463d 037d 93bc
00000290: 1075 0cbd 6978 de3c a469 0b3d 5e85 fabc
000002a0: 4d45 2bbd a55b e53c 34e0 11bd 719a 853c
000002b0: db82 05bd 5661 63bc d171 28bb 167f 093c
000002c0: cb31 fcba 0024 bdbc 0b72 d63c 192b 26bc
000002d0: 12b0 44bc 7a41 9fbb 02e4 4cbc f5bd ed3c
000002e0: 07bc a7bc b1b5 4bb9 cd2c 3a3c 2694 5cbc
000002f0: fc42 353b 2b67 d53c 3aa4 ef3c 2da7 4e3c
00000300: a645 48bc 2809 1dbd 7587 e3bc 03ce 3dbc
00000310: ccdf 90ba d248 3f3c b0d0 c4bc b1db be3c
00000320: 7901 663c cdec a2bc 8654 1ebd 00b4 b33c
00000330: b333 ba3b e925 c9ba c7e5 58bb 2e64 6aba
00000340: 3614 f73c 0ecc df3c cd9d ff3c a5f4 f93b
00000350: 20ad c1bc e635 a33b 0888 d73c 2126 1cbd
00000360: 08fe c4bc 9e0a 63bc 1ca7 4a3d 5439 313b
00000370: 4c0a 73bc 19ef 8abc ed94 20bd 807e 193c
00000380: 9cf6 733c a75a 07bd 98b7 dcbc ccee bebc
00000390: dc04 863b 0011 eebc 7aa1 17bd 02c6 c63b
000003a0: b690 41bc 89fe e3bc 5b38 a4bc a6f6 fdbc
000003b0: 4e93 35bd b5c9 0e3d 5124 00bc 04ed 2fbd
000003c0: 54e3 123d 0574 e7ba 2573 30bc 9b1d c13c
000003d0: f28b 8b3a a829 c73c b220 163d 4ed2 bf3c
000003e0: cc62 e4bc 1dd8 42bd 766f 3c3d 3a81 713c
000003f0: 600b febc 0498 d73b dde6 553c 57b1 6bbb
-0.027116925 -0.0056076827 0.011898306 0.048317537 0.0012580003 -0.029761039 0.042235408 0.01242195
-0.03190974 -0.018654134 -0.035265863 -0.005300816 -0.017285466 -0.010205164 -0.0074304417 0.008578851
0.022682333 -0.0009618901 -0.03145348 -0.051980544 0.01592903 -0.02395812 0.05556602 -0.0151328305
0.039828774 -0.0013139792 -0.028211655 -0.024719248 -0.010805043 0.018149815 0.025611205 0.0076517174
-0.0053092893 -0.0086045945 -0.028448367 -0.038224377 -0.031194614 -0.04878628 -0.032826796 0.012364231
0.015907694 0.024510479 -0.01828258 -0.021892054 -0.04178363 0.0061646667 -0.014278943 -0.010147186
-0.039630175 0.028471135 -0.006658465 0.00897868 0.01851572 0.032854915 0.049424354 -0.00657092
-0.01566855 0.031215444 0.011990589 0.0021673215 0.018214794 -0.017979907 -0.015878506 -0.02869973
-0.0007665349 -0.029044993 -0.0126458 -0.021275619 -0.024087306 0.009529224 -0.050512426 -0.03561901
-0.01918721 -0.04369519 -0.011672691 -0.03809592 -5.774895e-05 0.025307478 0.0060151624 -0.018708184
-0.0015173819 -0.018410051 -0.044656828 0.008531752 0.019074135 -0.006460215 0.0038749976 0.002572954
0.020097267 -0.012872891 -0.03578192 0.03042569 -0.013137381 0.012637763 0.035666373 -0.0008984994
0.024820745 0.021748666 -0.0038069468 -0.02465002 -0.0010982496 -0.03264027 -0.0063029276 -0.059422046
0.019538665 0.015635032 0.013584049 -0.010934051 0.0015424944 -0.00456593 -0.04120053 0.006593286
-0.011669251 0.039168227 0.029540436 0.022107072 8.961092e-05 0.008702848 -0.010470243 -0.013740123
0.013839312 0.020272462 -0.032351386 -0.0349461 0.013260856 0.012933428 0.030737009 0.03920044
0.020564059 -0.02867104 0.009305807 0.011207303 -0.038292583 0.021856597 -0.0101573095 0.038400628
0.023610558 0.0456388 0.025724323 0.03201314 -0.024647448 -0.0031151117 -0.009695462 -0.043205157
-0.03564861 0.008624215 -0.028760029 -0.012418104 0.036690142 0.00053860433 -0.041476347 -0.031246841
-0.0060535315 0.012908441 0.026458591 -0.031389885 0.021336004 -0.014879873 -0.04538788 0.019763647
0.035379782 -0.051363807 0.048462402 -0.018003946 -0.034291327 0.027157025 0.034036294 -0.030581173
-0.041814137 0.027997801 -0.035614207 0.016308995 -0.032595497 -0.013878187 -0.0025702605 0.008392116
-0.0019240914 -0.023088455 0.026177427 -0.010142111 -0.012004869 -0.0048601003 -0.012505533 0.029021243
-0.0204754 -0.00019427274 0.01136322 -0.013463056 0.0027658334 0.02605017 0.029253114 0.0126131
-0.012223637 -0.03833881 -0.027774552 -0.011584762 -0.0011053025 0.011675077 -0.024025291 0.023298116
0.014038437 -0.019888306 -0.038654827 0.021936417 0.0056824326 -0.0015346381 -0.0033095942 -0.00089413195
0.030161005 0.02731898 0.031203175 0.007628041 -0.023642123 0.0049807904 0.026309982 -0.0381223
-0.024046913 -0.013857512 0.049475774 0.0027042227 -0.014833998 -0.016959714 -0.039204527 0.009368539
0.014890339 -0.033045437 -0.026943013 -0.023307227 0.0040899348 -0.02906084 -0.03701923 0.006066085
-0.011814287 -0.027831333 -0.020046404 -0.0310014 -0.044329934 0.03486033 -0.0078211585 -0.042950645
0.03586133 -0.0017658478 -0.01076964 0.023573687 0.0010646565 0.024311855 0.036652274 0.02341571
-0.027879141 -0.047569383 0.046004735 0.014740283 -0.031011283 0.006579401 0.01305553 -0.0035963857

model.2.bias f4 [72]
00000000: 40e4 ae3c b618 0e3d 4cfe f43c 7bef b6bc
00000010: c0fe a9bc f747 1c3b 5059 90bb 8994 1a3a
00000020: 2af1 283d 93bb 9c3c 5caf d83c a144 0a3d
00000030: 5254 dd3b a431 3ebc 928f a5bc ec44 793c
00000040: e94b df3c 8a9b c8bc 79bc af3c 7ac1 2dbc
00000050: 4cef c9bb dbc8 84ba 2c4c 453d b8d5 f6bc
00000060: 98dc 6bba b404 dd3c a3b1 b93b 63fc 523b
00000070: 2556 4f3c fa4d 3ebc 954f 7bb9 8b1c 03bc
00000080: b0d8 88bc 5814 893c 6ed8 2d3d 26d2 de3c
00000090: 2a4e 5abc d913 8b3c c59a a6bb 2655 07bc
000000a0: fa41 d2bb d0fc 9dbc 8fc9 413d a3b8 a4bc
000000b0: ec92 823b f71e a6bc 9a04 eab9 4987 fb3b
000000c0: 0d0f 0b3c 2fc7 8a3c f232 6ebc 19f0 853c
000000d0: 43b9 a23c 5e76 66bc 93e6 983c 469c b43c
000000e0: c2c8 9939 539f 483c ad6d 71bb 2b61 11bd
000000f0: 5c14 c63c a832 f83c d0b4 503d 8cdb 163d
00000100: 0c31 9b3c c5be e1ba acad a73c 8be4 a43c
00000110: b875 e73c 3f5b 103c e8a4 273c 8627 e7bc
0.021349072 0.034691535 0.029906414 -0.02233099 -0.020751357 0.0023846605 -0.004405178 0.0005896767
0.041245617 0.019132411 0.026450805 0.033756856 0.0067544365 -0.011608515 -0.020210061 0.015214186
0.027257876 -0.02448823 0.021452175 -0.01060521 -0.0061625596 -0.001013066 0.048168346 -0.030131206
-0.00089974096 0.026979782 0.005666928 0.0032193891 0.012654816 -0.011615271 -0.00023966872 -0.008002411
-0.016704887 0.016733333 0.04244273 0.027199816 -0.0133243 0.016977238 -0.005084368 -0.008260047
-0.0064165564 -0.01928559 0.047311362 -0.020107573 0.0039847996 -0.020278437 -0.00044635386 0.0076760394
0.008487475 0.016940681 -0.0145385135 0.016349839 0.01986373 -0.014066307 0.018664634 0.022047173
0.0002933201 0.012245017 -0.0036839054 -0.035493057 0.02417963 0.030297592 0.050953686 0.03683047
0.018944286 -0.0017222991 0.020468555 0.020128509 0.028254375 0.008810817 0.010232188 -0.028217088
