checkpoints/test1_CycleNet_solar_data_bs16_ftMS_sl96_ll48_pl24/checkpoint.pth (torch, 251495 bytes, 5 tensors)

cycleQueue.data f4 [24, 12]
00000000: 0000 0000 0000 0000 0000 0000 0000 0000
00000010: 0000 0000 0000 0000 0000 0000 0000 0000
00000020: 0000 0000 0000 0000 0000 0000 867f b0bc
00000030: 0000 0000 0000 0000 0000 0000 0000 0000
00000040: 0000 0000 0000 0000 0000 0000 0000 0000
00000050: 0000 0000 0000 0000 0000 0000 bb14 4dbc
00000060: 0000 0000 0000 0000 0000 0000 0000 0000
00000070: 0000 0000 0000 0000 0000 0000 0000 0000
00000080: 0000 0000 0000 0000 0000 0000 af5e 453c
00000090: 0000 0000 0000 0000 0000 0000 0000 0000
000000a0: 0000 0000 0000 0000 0000 0000 0000 0000
000000b0: 0000 0000 0000 0000 0000 0000 f4d6 163d
000000c0: 0000 0000 0000 0000 0000 0000 0000 0000
000000d0: 0000 0000 0000 0000 0000 0000 0000 0000
000000e0: 0000 0000 0000 0000 0000 0000 fa49 133d
000000f0: 0000 0000 0000 0000 0000 0000 0000 0000
00000100: 0000 0000 0000 0000 0000 0000 0000 0000
00000110: 0000 0000 0000 0000 0000 0000 3281 e8bc
00000120: 0000 0000 0000 0000 0000 0000 0000 0000
00000130: 0000 0000 0000 0000 0000 0000 0000 0000
00000140: 0000 0000 0000 0000 0000 0000 0b22 83bd
00000150: 0000 0000 0000 0000 0000 0000 0000 0000
00000160: 0000 0000 0000 0000 0000 0000 0000 0000
00000170: 0000 0000 0000 0000 0000 0000 1632 ecbc
00000180: 0000 0000 0000 0000 0000 0000 0000 0000
00000190: 0000 0000 0000 0000 0000 0000 0000 0000
000001a0: 0000 0000 0000 0000 0000 0000 cd9d 3c3d
000001b0: 0000 0000 0000 0000 0000 0000 0000 0000
000001c0: 0000 0000 0000 0000 0000 0000 0000 0000
000001d0: 0000 0000 0000 0000 0000 0000 3d14 1d3d
000001e0: 0000 0000 0000 0000 0000 0000 0000 0000
000001f0: 0000 0000 0000 0000 0000 0000 0000 0000
00000200: 0000 0000 0000 0000 0000 0000 fdfa 493b
00000210: 0000 0000 0000 0000 0000 0000 0000 0000
00000220: 0000 0000 0000 0000 0000 0000 0000 0000
00000230: 0000 0000 0000 0000 0000 0000 e515 0b3d
00000240: 0000 0000 0000 0000 0000 0000 0000 0000
00000250: 0000 0000 0000 0000 0000 0000 0000 0000
00000260: 0000 0000 0000 0000 0000 0000 a90b 9f3c
00000270: 0000 0000 0000 0000 0000 0000 0000 0000
00000280: 0000 0000 0000 0000 0000 0000 0000 0000
00000290: 0000 0000 0000 0000 0000 0000 19b9 39ba
000002a0: 0000 0000 0000 0000 0000 0000 0000 0000
000002b0: 0000 0000 0000 0000 0000 0000 0000 0000
000002c0: 0000 0000 0000 0000 0000 0000 14b7 103d
000002d0: 0000 0000 0000 0000 0000 0000 0000 0000
000002e0: 0000 0000 0000 0000 0000 0000 0000 0000
000002f0: 0000 0000 0000 0000 0000 0000 06a0 273d
00000300: 0000 0000 0000 0000 0000 0000 0000 0000
00000310: 0000 0000 0000 0000 0000 0000 0000 0000
00000320: 0000 0000 0000 0000 0000 0000 a3a6 abbc
00000330: 0000 0000 0000 0000 0000 0000 0000 0000
00000340: 0000 0000 0000 0000 0000 0000 0000 0000
00000350: 0000 0000 0000 0000 0000 0000 f088 57bd
00000360: 0000 0000 0000 0000 0000 0000 0000 0000
00000370: 0000 0000 0000 0000 0000 0000 0000 0000
00000380: 0000 0000 0000 0000 0000 0000 eba8 a1bc
00000390: 0000 0000 0000 0000 0000 0000 0000 0000
000003a0: 0000 0000 0000 0000 0000 0000 0000 0000
000003b0: 0000 0000 0000 0000 0000 0000 0f9f 223d
000003c0: 0000 0000 0000 0000 0000 0000 0000 0000
000003d0: 0000 0000 0000 0000 0000 0000 0000 0000
000003e0: 0000 0000 0000 0000 0000 0000 0efe 353d
000003f0: 0000 0000 0000 0000 0000 0000 0000 0000
0.0 0.0 0.0 0.0 0.0 0.0 0.0 0.0
0.0 0.0 0.0 -0.021545183 0.0 0.0 0.0 0.0
0.0 0.0 0.0 0.0 0.0 0.0 0.0 -0.01251715
0.0 0.0 0.0 0.0 0.0 0.0 0.0 0.0
0.0 0.0 0.0 0.0120465 0.0 0.0 0.0 0.0
0.0 0.0 0.0 0.0 0.0 0.0 0.0 0.03682609
0.0 0.0 0.0 0.0 0.0 0.0 0.0 0.0
0.0 0.0 0.0 0.03595922 0.0 0.0 0.0 0.0
0.0 0.0 0.0 0.0 0.0 0.0 0.0 -0.028381918
0.0 0.0 0.0 0.0 0.0 0.0 0.0 0.0
0.0 0.0 0.0 -0.064029776 0.0 0.0 0.0 0.0
0.0 0.0 0.0 0.0 0.0 0.0 0.0 -0.028832477
0.0 0.0 0.0 0.0 0.0 0.0 0.0 0.0
0.0 0.0 0.0 0.046048928 0.0 0.0 0.0 0.0
0.0 0.0 0.0 0.0 0.0 0.0 0.0 0.03834938
0.0 0.0 0.0 0.0 0.0 0.0 0.0 0.0
0.0 0.0 0.0 0.0030819767 0.0 0.0 0.0 0.0
0.0 0.0 0.0 0.0 0.0 0.0 0.0 0.033956427
0.0 0.0 0.0 0.0 0.0 0.0 0.0 0.0
0.0 0.0 0.0 0.01941474 0.0 0.0 0.0 0.0
0.0 0.0 0.0 0.0 0.0 0.0 0.0 -0.00070847716
0.0 0.0 0.0 0.0 0.0 0.0 0.0 0.0
0.0 0.0 0.0 0.035330847 0.0 0.0 0.0 0.0
0.0 0.0 0.0 0.0 0.0 0.0 0.0 0.040924095
0.0 0.0 0.0 0.0 0.0 0.0 0.0 0.0
0.0 0.0 0.0 -0.020953482 0.0 0.0 0.0 0.0
0.0 0.0 0.0 0.0 0.0 0.0 0.0 -0.05262083
0.0 0.0 0.0 0.0 0.0 0.0 0.0 0.0
0.0 0.0 0.0 -0.019733867 0.0 0.0 0.0 0.0
0.0 0.0 0.0 0.0 0.0 0.0 0.0 0.03970247
0.0 0.0 0.0 0.0 0.0 0.0 0.0 0.0
0.0 0.0 0.0 0.04443174 0.0 0.0 0.0 0.0

model.0.weight f4 [512, 96]
00000000: 0f60 e1bd 33b6 153d 6f88 81bc 4323 1dbc
00000010: ab05 0ebd c672 babd e8eb a9bd 9ac4 d4bd
00000020: 009d 6bbd f6c0 0bbc 1527 993d 7866 7ebc
00000030: cbf6 383c d7b7 95bd c342 a03d 9f9a afbd
00000040: 0ca1 133d 1a5b 803d b8fd 18bb 17a5 8c3d
00000050: defd 5dbd 7886 f63c 4d03 ba3b 3c15 caba
00000060: c9f0 043d b88b 58bd 3a54 233c 428f 993d
00000070: b82d 3fbc 8d5f c33d f570 3a3d b1eb 0abc
00000080: 1a67 8e3d b05c 643d d4fc 993d 936b 88bd
00000090: 8aa1 78bd 41ae 463c 6f8b 6cbd 319c 3c3c
000000a0: c3c4 3dbd 5dfe 9bbd 8971 20bd 4d0a d0bc
000000b0: 26b5 1abc 8908 46bd 0ed4 2b3d e10a d4bd
000000c0: c882 0fbd f9f3 acbd 2f15 21bd dec0 ba3b
000000d0: 4f22 463d a1a8 f33c 9837 95bb aded 6ebb
000000e0: dbbc f0bc 9f1d 3cbd 99f4 c4bc b5b8 a33d
000000f0: 635f df3d 8d32 2b3c 645a d1bc 9dcc b43d
00000100: a4d6 893c 04b1 cc3d 8604 3bbd a8d2 d1bd
00000110: 2a89 513d 45b5 ccbd 41ca 563c 063f 4bbd
00000120: f638 64bd c0da d63c ccad b5bd 6a04 c33d
00000130: 837c 18bc 9779 a3bb 4e41 273d 6421 18bd
00000140: 8354 8c3d e107 9fbc acc7 123c 434c abbd
00000150: da4b c73d c04a 4d3d 7f8a 7d3c beda 3e3d
00000160: d566 d63d 3b2e ad3d c91d 413d cd36 57bc
00000170: 4694 5fbd 422a bc3c dea7 8dbc 20e5 c3bd
00000180: cc04 1a3d c120 b93d 8838 1c3c 8574 97bd
00000190: c320 49bd cfd1 87bd a828 62bc 12fb 953d
000001a0: 46df d13b 6920 d5bd 9c86 ad3c 8570 b6bc
000001b0: 9852 aebd 1451 c43d 4f1c 69bd 9654 8f3d
000001c0: 4aed 97bd 0346 053d fd38 e53d 76f5 25bd
000001d0: 611b 9cbd 164a 80bb 192a 72bd 50ec e4bc
000001e0: 291c 253d d50d b73d 4cc0 a0bc 85c8 e3bd
000001f0: 5fc9 8ebd 4ad7 0bbc a3f7 69bd 0d72 85bd
00000200: 8fe3 c1bc d681 b4bc a8fe c53c 2d18 853c
00000210: 6e13 0dbd 2afd 00bd fe2e aabd 4b44 80bb
00000220: 9090 b5bd 45f6 963c 0e7d 963d f41a 1abd
00000230: 3534 773d df98 68bd eecf 56bd eb3e b73c
00000240: 220d 5b3d 826d c93c 78b8 e0bd f37b 59bd
00000250: 0e71 10bc ec05 7d3c 5c5d 513b 97a3 4b3d
00000260: f4da 313d cd78 c9bd c106 b33d 9a76 2e3d
00000270: 72af 683d 8efe cb3d 4565 a7bd cc21 f83c
00000280: 0fd5 3b3d 42b2 5cbd 773a 07bc 8117 75bd
00000290: f424 c13d a3c3 9c3d 9494 9e3d 99bd cbbd
000002a0: 5461 5abb e668 9e3d a3ec f2bc 3a74 eb3c
000002b0: 9e51 e33c cfe6 223d b256 78bd af11 a3bd
000002c0: 1b50 3cbc 0e4f d33c 76b7 a1bc 5a28 a83d
000002d0: 8aac 513d e9bc 37bd c7df a33d 34a6 89bb
000002e0: eda3 d03d 272b a33b 0fee 9b3d 1481 4e3d
000002f0: 4c67 8b3d 1750 8b3c af7c 9f3d f8ee a8bd
00000300: a8c4 213c f116 c93d 8f3e 54bd b1b8 d33d
00000310: f5df 533d 7f52 bdbd 3523 5b3d 2989 c13d
00000320: 558c 553d 520d cf3c 3739 d4bd 3026 64bd
00000330: aef1 943b 0452 3ebd 06d7 163d 5ae8 18bb
00000340: e463 883d b9a3 46bd c4f5 993d 3e80 363d
00000350: c4cb 573d eb76 99bd 3231 8d3d f483 13bd
00000360: eed0 a6bd b47d c53d 0472 b4bd a9bc 933d
00000370: 863d 9c3d 53b3 3b3d 2139 2e3d 9701 dbbd
00000380: 7eee 8c3d dd2f 16bd 3db2 adbd 5fb2 a43d
00000390: 7011 81bd d9d1 a53d 6fcc 563d bc83 c83c
000003a0: 1dd0 6dbd 76d2 67bd 8464 f1bc d4d4 c5bc
000003b0: 5235 68bc fa1d f33b 37d3 1cbc 212a 0a3d
000003c0: 1fb6 e8bc bdf1 353d a912 90bc c13f 9c3d
000003d0: cbbc 2abd ed3d 9ebd e187 843d c716 cdbd
000003e0: 1752 443b 060f d8bc 0f91 1c3d f4cb a63c
000003f0: d8ef 843d b48f 81bc 98e9 81bd 1f48 82bb
-0.1100465 0.03655071 -0.015812127 -0.009590927 -0.034673374 -0.091039225 -0.08296949 -0.10389061
-0.057522774 -0.008529892 0.074781574 -0.01552736 0.011289309 -0.07310455 0.07825234 -0.085744135
0.03604226 0.06267376 -0.0023344588 0.06867426 -0.054197185 0.030093417 0.005676663 -0.0015417705
0.032456193 -0.05286762 0.009968812 0.074980274 -0.011668615 0.09539709 0.04551788 -0.008479045
0.06953259 0.055752456 0.07518926 -0.06661143 -0.06070093 0.012126506 -0.05775016 0.011511848
-0.046330225 -0.07616875 -0.039170776 -0.025395537 -0.009442603 -0.048347984 0.041950278 -0.103536375
-0.035036832 -0.084449716 -0.039326843 0.005699261 0.048372563 0.029743494 -0.0045537464 -0.0036457584
-0.029386928 -0.045926686 -0.024042415 0.079942144 0.109068654 0.010449064 -0.025555797 0.088280894
0.016825981 0.099947006 -0.04565861 -0.102452576 0.0511562 -0.09995512 0.0131097445 -0.04962065
-0.055718385 0.026227355 -0.0887104 0.09522326 -0.00930703 -0.00498886 0.040833764 -0.03714122
0.06852057 -0.019412937 0.008958738 -0.08364155 0.097312644 0.050120115 0.015474915 0.046595328
0.104688324 0.084560834 0.047147546 -0.013135624 -0.054584764 0.022969369 -0.01729196 -0.095651865
0.03760223 0.090394504 0.0095349625 -0.07395271 -0.04910351 -0.06631815 -0.0138036385 0.073232785
0.00640479 -0.10406572 0.02118235 -0.02227045 -0.08511847 0.09585777 -0.056911763 0.06998555
-0.07418306 0.03253747 0.1119251 -0.040517293 -0.076224096 -0.0039150817 -0.05912218 -0.027944714
0.04031006 0.08938185 -0.019622944 -0.111222304 -0.06972002 -0.008535216 -0.05712093 -0.06515894
-0.023668079 -0.022034567 0.024169281 0.01624688 -0.034442358 -0.031491436 -0.08309744 -0.003914391
-0.08865464 0.018427977 0.07348071 -0.03762336 0.060352523 -0.056786414 -0.05244439 0.022368869
0.05347932 0.02458835 -0.109726846 -0.053096723 -0.008816017 0.015443306 0.0031946516 0.04971656
0.0434217 -0.09837494 0.087415226 0.042593576 0.056807943 0.09960662 -0.081736125 0.030289553
0.045857485 -0.053880937 -0.008253685 -0.05983687 0.094308764 0.07654502 0.07743183 -0.09948272
-0.0033322172 0.077348515 -0.029653853 0.028741945 0.027748879 0.039770897 -0.060629554 -0.07962357
-0.011493708 0.025794532 -0.019740801 0.082108214 0.051189937 -0.044857893 0.080016665 -0.004200721
0.10187516 0.0049795094 0.076137654 0.050416067 0.06806812 0.017005963 0.077874534 -0.08248705
0.009873547 0.09818829 -0.051817473 0.103379615 0.051727254 -0.092442505 0.053500373 0.09449989
0.052135784 0.025274906 -0.10362475 -0.05570048 0.004545412 -0.046464935 0.036826156 -0.0023331852
0.066596776 -0.04849598 0.07517579 0.044555895 0.05268456 -0.07493385 0.06894149 -0.036014512
-0.08145319 0.096431166 -0.08810809 0.072137184 0.07628922 0.045825314 0.04253495 -0.106936626
0.06881426 -0.03666674 -0.08481262 0.08041834 -0.06302154 0.08096666 0.052441057 0.024476878
-0.0580598 -0.056597196 -0.029466875 -0.024149336 -0.014172869 0.007419345 -0.009571842 0.033731584
-0.028407155 0.044419993 -0.017587023 0.076293476 -0.041683953 -0.07726655 0.06471229 -0.1001411
0.0029956156 -0.026374351 0.038224276 0.020360924 0.06491059 -0.015815593 -0.063433826 -0.0039758827

model.0.bias f4 [512]
00000000: 8b8e 1cbd b309 38bd 9d7d 5d3d 49c1 713d
00000010: b959 a03d 7080 8a3d 5621 fb3b a791 b8bc
00000020: 8d8a b9bc 04dd 193d a5f6 e5bc 2d58 e0bc
00000030: 26a5 b6bd 88c7 24bd fbcd 5bbc 8ac3 3a3d
00000040: 384d e1bd d4d6 52bd 34f4 e43c c1bd 93bd
00000050: 0b1a 693d 65e1 373d 555f f73c 2f20 a33c
00000060: be11 9bbd 9fae 35bd 0bfd 7fbd ae5f 26bd
00000070: fb01 73bd f166 693d 996e 773a 7a8d f5bb
00000080: b4d9 81bd e319 c13d e900 233d c990 64bd
00000090: 0d01 c3bd d1bf b3bd b515 d43b 6ead b13d
000000a0: d5f1 073d 73e5 ee3c 558e 03bd f641 423d
000000b0: 37e4 8a3d c0f0 cd3d 246a 693d 454c 31bd
000000c0: 1d9c 89bd 6197 833d 3935 d63a f43d da3c
000000d0: bcab 7f3d df94 4bbd a93e bdbd 7336 a83d
000000e0: 8ecd 9f3d a52e 393d d6c1 06bd 25ba eabb
000000f0: da64 03bd fb7c 27bb 1cfa 783d 9b66 80bd
00000100: 2970 83bc 7b44 e4bc ada6 5f3d dc83 1b3d
00000110: 3283 033d c3d1 853c f9d7 a5bd 2479 9dbd
00000120: 3547 b0bd 587d a43c 7a51 8f3d 5247 6bbb
00000130: 3351 533d d7f3 a43c 631a 8abc cf96 6b3c
00000140: d84b 66bd a567 c0bd 626a c3bc 0f39 ba3c
00000150: 86d5 013d 03c2 82bd 07ac 62bd bdc7 92bd
00000160: fc19 8fbc 95ff bb3d 0bf5 14bd d2d1 edbc
00000170: 8300 733c 69f2 af3d 10a1 84bd 73eb 4c3d
00000180: daba a6bc 45ff 47bd 6266 20bd af02 54bb
00000190: 0b6d b73d 2425 d2bb 9a2f aabd 7416 843d
000001a0: 050f 94bc 821c c33d bed0 bcbc bd88 053d
000001b0: 339d 853d 0a1b a438 f9d4 2b3c 24f1 093b
000001c0: 90bf c8bc 5fa5 543d 19a0 48bc dc1d c9bd
000001d0: 70b5 ad3b 468a e5bc 3f8e eb3c 2fdf 7d3d
000001e0: 70fc c93c 81b6 f6bc 809b 293d 9706 b83d
000001f0: a911 c73d e294 113d bb6d bebd 144c a83d
00000200: e3f3 1c3d fe33 d1bd d169 9b3d d809 5abd
00000210: aecf a63d 6a20 19bd d1e3 1ebc fcbd 3cbd
00000220: 33fc 483d c24c 4b3a db87 9cbd f604 ec3c
00000230: d898 6abd 71aa c3bb edb4 f13b b94a 743d
00000240: 08d1 2bbd b103 a8bd 9f7d 38bc 96ff 54bd
00000250: d3b7 253d 84b7 b5bd 196b d43d e068 823d
00000260: 6f36 fb3c d198 ee3c 7a96 813d f781 cabc
00000270: 23ca 473d 8990 313d d614 3f3c 6110 45bd
00000280: 63e1 d3bb bbce a43c 4915 553c 47de 89bd
00000290: 2a40 d73d 64ac 3a3d 1ee2 943d d79c 99bd
000002a0: 3384 eebc ced7 d23d 98a5 2d3d 6c68 923d
000002b0: 931f fcbc c5a1 be3d 7501 eabd 72c3 303d
000002c0: ecfd 463d b71c 383d 9378 9f3d de83 b93d
000002d0: e276 383d 1fe2 8cbd 65b4 7b3c f9b7 40bd
000002e0: 3662 eebb 3a20 9f3d 60ad edbc 57c4 353c
000002f0: b6c0 553d 6b93 073d aa40 ca3d a291 8ebd
00000300: cf50 9b3d 8fde 5fbd 333d 8d3d 7149 283c
00000310: ef16 afbd 7bc9 3e3d 6051 b53d 64b4 9cbc
00000320: 4a23 77bc 3873 b1bc 95a8 33bc c6de 40bd
00000330: e21d ba3d b145 3f3c fb7f 383d b8ac 983d
00000340: 3ac1 15bd 4a2e cdbc 08ef a63d 2b69 d43a
00000350: 9836 d93d b349 cbbd e4e7 f53c 0cc3 a93d
00000360: adc0 7bbd 22e6 22bd 71bd b43d c9be bbbc
00000370: a87d 90bd 66e2 2ebc 1732 0a3c 3af1 9b3d
00000380: cb2a 653a 0f4e 103d 681a 783d d36b 583d
00000390: 61bb 503d b917 a6bd 71d9 cd3d 9c0b 2d3d
000003a0: 7fcf 15bc 4df3 803d 9aa1 a53c aa80 cdbc
000003b0: 6f4a 65bd 4e61 91bd bc40 173d fb9a 283b
000003c0: 0e1e 023c 4060 9a3b 7d9b 873d ce32 bdbd
000003d0: 9a15 ddbb 09dc 7bbd a21e acbc 3ee2 6c3d
000003e0: 4daa 8f3d c274 70bd a322 863d 1619 023c
000003f0: e4ec 463d 98f3 d93d baf6 893d d5d2 863d
-0.038221877 -0.044931125 0.054074872 0.05902222 0.07829613 0.06762779 0.007663886 -0.02253039
-0.022649074 0.037564293 -0.02807171 -0.027385795 -0.08918218 -0.04022935 -0.013415809 0.045596637
-0.110010564 -0.051474407 0.027948476 -0.07213927 0.056909602 0.044892687 0.030196825 0.019912807
-0.075717434 -0.044355985 -0.06249718 -0.04061859 -0.05932806 0.05698294 0.00094387826 -0.007493672
-0.06340352 0.094287656 0.03979579 -0.05580214 -0.09521685 -0.087768205 0.0064723142 0.08675657
0.033189613 0.029162144 -0.03211816 0.047426187 0.0678181 0.10055685 0.05698599 -0.043285627
-0.06719229 0.064253576 0.0016342766 0.02664087 0.062419638 -0.04970252 -0.09240467 0.0821351
0.07802878 0.0452105 -0.0328997 -0.0071633034 -0.0320786 -0.0025556672 0.060785398 -0.062695704
-0.016044693 -0.027864685 0.054602314 0.037967548 0.03210754 0.016335374 -0.08097834 -0.07689121
-0.08607332 0.0200793 0.06997962 -0.0035900665 0.05159111 0.020135803 -0.016858285 0.014379217
-0.056224674 -0.093947686 -0.023854438 0.022732286 0.031697772 -0.06384661 -0.05533984 -0.07167003
-0.017468445 0.09179608 -0.036366504 -0.029030714 0.014831665 0.08591158 -0.06476033 0.05002923
-0.02035277 -0.04882743 -0.03916014 -0.0032350232 0.08956345 -0.006413119 -0.083098605 0.06449595
-0.018073568 0.09526922 -0.023048755 0.032601107 0.06524124 7.825166e-05 0.010487788 0.0021048272
-0.024505407 0.051915523 -0.0122452015 -0.09820148 0.00530117 -0.028020035 0.028754352 0.061980423
0.024656504 -0.030116322 0.041408062 0.08985632 0.09720165 0.035542376 -0.09298273 0.08217636
0.038318526 -0.10214995 0.07588542 -0.053232044 0.081450805 -0.037384428 -0.00969787 -0.04607962
0.04906864 0.0007755273 -0.076431 0.02881096 -0.05727467 -0.005971246 0.0073763044 0.059641574
-0.041947395 -0.08203829 -0.011260419 -0.05200156 0.04045851 -0.088728935 0.1037199 0.063676596
0.030665604 0.029125603 0.06327529 -0.024720175 0.048776757 0.04335073 0.0116626825 -0.048111323
-0.006466077 0.020118108 0.013005563 -0.06731849 0.10510285 0.04557456 0.07269691 -0.07500618
-0.029115772 0.10295068 0.04239425 0.07148823 -0.030776775 0.09308199 -0.11426059 0.04315514
0.048582003 0.04494926 0.077866696 0.09058355 0.04503525 -0.06879067 0.015362834 -0.04705045
-0.0072748912 0.077698186 -0.029013336 0.011094174 0.052185737 0.033099573 0.09875615 -0.06961371
0.075837724 -0.054655608 0.068964384 0.010271416 -0.08549296 0.046578865 0.08853412 -0.019128986
-0.015084097 -0.021661386 -0.010965486 -0.047087453 0.09087731 0.011674331 0.045043927 0.074548185
-0.03656123 -0.025046486 0.0815106 0.0016205659 0.10606116 -0.099261664 0.0300178 0.08289155
-0.061463047 -0.039770253 0.088251956 -0.022918122 -0.07055217 -0.010674095 0.008434794 0.0761437
0.00087420334 0.035230692 0.060572058 0.052837204 0.05095995 -0.081099935 0.10051239 0.0422474
-0.009143709 0.06296406 0.02021866 -0.025085766 -0.05597919 -0.070986375 0.03692697 0.0025727141
0.007941736 0.004711181 0.06621454 -0.09238206 -0.00674696 -0.06148914 -0.0210107 0.05783295
0.07014904 -0.0587051 0.06549575 0.007940551 0.04856576 0.10642165 0.067365125 0.06583182

model.2.weight f4 [24, 512]
00000000: 2323 d3bc 652b e0bb 6334 2dbc 25de 3e3d
00000010: 49eb b0bb 59e0 263d 9b40 133c 695e be3c
00000020: 536c 963a e676 123d 2e4e bb3b 8a66 a73b
00000030: 7a87 043d 8085 b33c e8ff 23bd c0af 433d
00000040: ab70 e03c 599c 263d bc5c 0cbd 0f6b 28bc
00000050: 15af eebc 0b20 683c b208 84bb 5941 323d
00000060: 1a88 07bb 078e 0dbd e5e0 493d dc54 7d3c
00000070: 3dda 19bb 14c2 3b3d e5d9 5c3b be25 873c
00000080: e904 c7bc 74d8 49bb 28e3 363b 7fa0 1b3d
00000090: 9a79 45bc fd72 fb3c 0a89 4b3d 5522 bc3c
000000a0: c5dc a2bc be3b 0a3d d4b2 19bd 5f8c 353d
000000b0: bc28 5fbd ef1d 593b 0ca1 f13c 92e7 88bc
000000c0: dcda 81bc d294 b9bc 5ff8 063d 3f3d c6bb
000000d0: 01fb 203d 9fb3 1fbd 76ef cabc 7d26 debc
000000e0: 4de6 16bc 9d57 96bc 38b9 a53c 8754 a03c
000000f0: f68e aebc 7660 cebc 58ca 0b3d 926f 4bbd
00000100: 0345 8aba 349a d83c b493 c83c 33f2 cabc
00000110: 773d 5bbb ce00 2e3b 659e e1bc 5398 28bd
00000120: 64d2 973a e949 27bd 81e7 00bc 290a 27bd
00000130: 7102 bdbc 23f0 52bc 3ad4 57bb cfec 1b3d
00000140: 0b93 6f3c 0639 d73c 382c 6a3d bc60 a2bc
00000150: 45ea 8bba dcb2 1fbc 328b 0cbd 857c 8cbc
00000160: b358 0c3d aaec e63c 4b87 37bd 1602 c4bc
00000170: bf6c 02bc e13a ab3b 6f9d a2bb 074e c43c
00000180: 55cf 8abb 521b de3b 89ba 023d c84a d5ba
00000190: 214b 38bc accd 68bc 1b4d 0d3d ec31 36bc
000001a0: 1412 163d e8dd 6b3c 0024 f7bc d06d 413c
000001b0: 5644 2bbb 483e 613c 417a 1a3d a667 09bc
000001c0: 3a40 603d dbc1 e83c 422b 043b 6d10 9f3c
000001d0: dcdc c13c 0f02 473d 4d68 1d3c df5d 203d
000001e0: 1150 ca3c 5dd6 daba 2876 51ba df4a e3bc
000001f0: 9abe b63c 6f45 073d d7a7 4c3d 83f1 463d
00000200: 5719 a83b 235e 0f3d 59bb e4ba cd84 44bc
00000210: c310 dabc ad6c 12bd 919a d83b 7451 c4bc
00000220: c834 30bd ad81 1f3c 9b6b 153c 32ad 5a3c
00000230: 3b4a fcbc e1ae 75bd 36b2 1fbd 9b6c 1ebd
00000240: e6cc d9bc 08e7 99bc b553 ffbb 0ae9 d1bc
00000250: 4cec 2b3c a38b 043a f740 9bbc 28fa b23b
00000260: 0da1 aebc 67e6 5d3d d01a ba3a 574b 2b3c
00000270: 258f 25ba d1e0 cdbc 5fb4 173c 84d8 f539
00000280: 1a8a ddbc 3f6f dcbc b165 d83c 5945 0abd
00000290: 5c3e 1fbd 1165 843b ae72 303b 798e 90bc
000002a0: b609 bfbc b8cf 3d3c 8b7d 8a3c 7a35 213d
000002b0: 161d 593c a435 113d fd5f 0dbd d84d f0bc
000002c0: 40f7 63bc fd04 353c aeab c6bc e4c8 e9bc
000002d0: 1ed3 b8bc ce61 bcbc 21fa 453d 7a8b 243d
000002e0: db49 b23b 7ca8 663b 199b 8a3c 7516 103a
000002f0: 396b a9bc 222e d2bc 7ea0 cebb ec46 993b
00000300: f905 ecbc 8a7c 14bd e9c4 8839 7851 ebbc
00000310: 7954 3d3d 110e 07bd da31 9ebc 72f3 4ebc
00000320: f98f 4a3d dd11 f1bc b072 c73c 8481 a83c
00000330: 37d7 1a3d 5bc7 083c aa87 c7bc f413 d5bc
00000340: 1771 aabc 3524 fd3c 1687 0e3d 1c64 573c
00000350: 2921 2fbb b9c0 51bc ef9c 1c3c 729c 8f3b
00000360: 7f95 e0bc a747 4dbc 5b75 36bd 30f0 1fbc
00000370: 7b73 6cbd 6fa2 cf3b 48a0 b4bc 0a6a 09bd
00000380: b8b7 ef3c ad6c 67bb c484 213c 75a4 50bd
00000390: 32bc 283d 90b2 bdbc e456 8c3c 8159 843c
000003a0: d443 b03c 1acd a63b 6455 16bc e0e5 7ebd
000003b0: c04c f0bc 4074 b33a 008c 303d 1695 bd3c
000003c0: 63bd 213d cb77 e4bc c210 85bc 5309 27bd
000003d0: a41c 10bd 7b26 1dbb e568 09bc 81b3 093d
000003e0: 2381 f3bc d446 03bd 7b36 5cbc e339 f83c
000003f0: c3d0 a8bc 41cd d239 79cd 013d 75cc 073d
-0.02577359 -0.0068411105 -0.010571572 0.046598572 -0.005399142 0.0407413 0.008987571 0.023238378
0.0011476375 0.03575792 0.005716107 0.005108659 0.032355763 0.021914244 -0.040038973 0.04777503
0.027397474 0.04067645 -0.034268126 -0.010279431 -0.02913622 0.014167796 -0.004029357 0.04351935
-0.0020680488 -0.034559276 0.04928674 0.015462127 -0.0023476027 0.045839384 0.0033699211 0.016497489
-0.024294334 -0.0030799182 0.0027906392 0.037994858 -0.012052918 0.03069448 0.049691238 0.02296559
-0.019880662 0.03374838 -0.03752406 0.04432332 -0.054482207 0.0033129414 0.029495738 -0.016711984
-0.01585143 -0.02265397 0.03295171 -0.0060497816 0.039301876 -0.03898966 -0.024772387 -0.027117962
-0.009210181 -0.018352324 0.02022992 0.019571556 -0.021308403 -0.02519248 0.034128517 -0.04966695
-0.0010549132 0.026440717 0.024484493 -0.024773693 -0.0033453384 0.0026550773 -0.027541349 -0.041160893
0.0011583087 -0.04084197 -0.007867695 -0.040781174 -0.023072453 -0.012874636 -0.0032932893 0.038067635
0.01462246 0.026272308 0.057171077 -0.019821517 -0.0010674676 -0.009747233 -0.034312434 -0.01714922
0.034264278 0.028189022 -0.04480676 -0.023926776 -0.007960497 0.005225525 -0.004962615 0.023962988
-0.0042361417 0.006778159 0.031916175 -0.0016272897 -0.011248381 -0.014209192 0.03449736 -0.011120301
0.036638334 0.014396168 -0.030168533 0.0118059665 -0.002613326 0.013747759 0.037714247 -0.008386528
0.05474875 0.02841275 0.0020167385 0.019417012 0.023664884 0.048585948 0.009607387 0.039152022
0.024696382 -0.0016695965 -0.0007990324 -0.027745662 0.022307683 0.0330252 0.049964752 0.048570167
0.005129974 0.035001885 -0.0017450853 -0.011994553 -0.02661932 -0.035748173 0.0066102226 -0.023964621
-0.043019086 0.009735507 0.009119893 0.013346957 -0.030797115 -0.05998123 -0.038988315 -0.038677793
-0.026586961 -0.018786922 -0.007791961 -0.025623817 0.010493349 0.0005056208 -0.018951876 0.00546195
-0.02131703 0.054174807 0.0014198665 0.010454974 -0.00063155807 -0.025131615 0.009259312 0.00046891358
-0.027043391 -0.026908515 0.026415678 -0.03375754 -0.03887783 0.0040403684 0.0026923823 -0.017646061
-0.02332006 0.011585169 0.016905567 0.03935764 0.0132515635 0.035451546 -0.03451537 -0.029333994
-0.013913929 0.011048553 -0.024251785 -0.028538175 -0.022561606 -0.022995856 0.048334245 0.040172078
0.005440933 0.003519564 0.01691966 0.00054965104 -0.02068101 -0.025656763 -0.0063057533 0.004677644
-0.028811442 -0.036251582 0.0002608665 -0.02872537 0.046223138 -0.0329724 -0.01931088 -0.012631284
0.04945371 -0.029427463 0.02434668 0.02056957 0.0378029 0.008348311 -0.024356682 -0.026010491
-0.020805879 0.030901054 0.034796797 0.0131464265 -0.0026722646 -0.012802296 0.0095589 0.0043826634
-0.027415035 -0.01252929 -0.044545513 -0.009761855 -0.05772732 0.0063365023 -0.022049084 -0.033548392
0.029262409 -0.0035312579 0.009858314 -0.05093809 0.041195102 -0.023156434 0.017131276 0.01615596
0.021516718 0.005090368 -0.009175632 -0.062230945 -0.029333472 0.0013691261 0.043102264 0.023142379
0.039487254 -0.027889153 -0.016243342 -0.040780377 -0.035183564 -0.0023979235 -0.008386825 0.033618454
-0.029724663 -0.03204997 -0.0134407235 0.03030104 -0.020607358 0.00040207247 0.031690095 0.03315397

model.2.bias f4 [24]
00000000: be43 68bc 5bb9 403d 9604 033c e140 ccbc
00000010: 2ac5 0d3d fb0e 88bb 6129 8b3c 68d3 3e3d
00000020: bfe7 9c3c 6237 ebbc 0f8a faba 7d1c b6bc
00000030: 6f78 94bc 28bf b63a 18ab af3b 10d2 0e3d
00000040: cf06 173c 93bd 27bc a579 7dbc cf9f 2a3d
00000050: 9d5c 96bc d584 213c e921 0cbc 296c 8439
-0.014176307 0.04705177 0.007996699 -0.02493328 0.03461186 -0.0041521764 0.016987504 0.04658833
0.019153474 -0.028712932 -0.0019114631 -0.022230381 -0.018123833 0.0013942467 0.005360972 0.0348683
0.009217932 -0.010238069 -0.015470897 0.04165631 -0.018354708 0.00985833 -0.008553007 0.00025257588
