checkpoints/test1_CycleNet_solar_data_bs16_ftMS_sl192_ll48_pl72/checkpoint.pth (torch, 546599 bytes, 5 tensors)

cycleQueue.data f4 [24, 12]
0.0 0.0 0.0 0.0 0.0 0.0 0.0 0.0
0.0 0.0 0.0 -0.0057487795 0.0 0.0 0.0 0.0
0.0 0.0 0.0 0.0 0.0 0.0 0.0 -0.00026648032
0.0 0.0 0.0 0.0 0.0 0.0 0.0 0.0
0.0 0.0 0.0 0.0071396786 0.0 0.0 0.0 0.0
0.0 0.0 0.0 0.0 0.0 0.0 0.0 0.014473354
0.0 0.0 0.0 0.0 0.0 0.0 0.0 0.0
0.0 0.0 0.0 0.0041152597 0.0 0.0 0.0 0.0
0.0 0.0 0.0 0.0 0.0 0.0 0.0 -0.047241632
0.0 0.0 0.0 0.0 0.0 0.0 0.0 0.0
0.0 0.0 0.0 -0.06937067 0.0 0.0 0.0 0.0
0.0 0.0 0.0 0.0 0.0 0.0 0.0 -0.024595477
0.0 0.0 0.0 0.0 0.0 0.0 0.0 0.0
0.0 0.0 0.0 0.040509578 0.0 0.0 0.0 0.0
0.0 0.0 0.0 0.0 0.0 0.0 0.0 0.042803556
0.0 0.0 0.0 0.0 0.0 0.0 0.0 0.0
0.0 0.0 0.0 0.019553283 0.0 0.0 0.0 0.0
0.0 0.0 0.0 0.0 0.0 0.0 0.0 0.03494573
0.0 0.0 0.0 0.0 0.0 0.0 0.0 0.0
0.0 0.0 0.0 0.018052323 0.0 0.0 0.0 0.0
0.0 0.0 0.0 0.0 0.0 0.0 0.0 0.0027692863
0.0 0.0 0.0 0.0 0.0 0.0 0.0 0.0
0.0 0.0 0.0 0.033761203 0.0 0.0 0.0 0.0
0.0 0.0 0.0 0.0 0.0 0.0 0.0 0.039287776
0.0 0.0 0.0 0.0 0.0 0.0 0.0 0.0
0.0 0.0 0.0 -0.014842957 0.0 0.0 0.0 0.0
0.0 0.0 0.0 0.0 0.0 0.0 0.0 -0.054635104
0.0 0.0 0.0 0.0 0.0 0.0 0.0 0.0
0.0 0.0 0.0 -0.042556822 0.0 0.0 0.0 0.0
0.0 0.0 0.0 0.0 0.0 0.0 0.0 0.0010592799
0.0 0.0 0.0 0.0 0.0 0.0 0.0 0.0
0.0 0.0 0.0 0.016033558 0.0 0.0 0.0 0.0
00000000: 0000 0000 0000 0000 0000 0000 0000 0000
00000010: 0000 0000 0000 0000 0000 0000 0000 0000
00000020: 0000 0000 0000 0000 0000 0000 4260 bcbb
00000030: 0000 0000 0000 0000 0000 0000 0000 0000
00000040: 0000 0000 0000 0000 0000 0000 0000 0000
00000050: 0000 0000 0000 0000 0000 0000 62b6 8bb9
00000060: 0000 0000 0000 0000 0000 0000 0000 0000
00000070: 0000 0000 0000 0000 0000 0000 0000 0000
00000080: 0000 0000 0000 0000 0000 0000 f7f3 e93b
00000090: 0000 0000 0000 0000 0000 0000 0000 0000
000000a0: 0000 0000 0000 0000 0000 0000 0000 0000
000000b0: 0000 0000 0000 0000 0000 0000 a621 6d3c
000000c0: 0000 0000 0000 0000 0000 0000 0000 0000
000000d0: 0000 0000 0000 0000 0000 0000 0000 0000
000000e0: 0000 0000 0000 0000 0000 0000 4dd9 863b
000000f0: 0000 0000 0000 0000 0000 0000 0000 0000
00000100: 0000 0000 0000 0000 0000 0000 0000 0000
00000110: 0000 0000 0000 0000 0000 0000 7180 41bd
00000120: 0000 0000 0000 0000 0000 0000 0000 0000
00000130: 0000 0000 0000 0000 0000 0000 0000 0000
00000140: 0000 0000 0000 0000 0000 0000 3612 8ebd
00000150: 0000 0000 0000 0000 0000 0000 0000 0000
00000160: 0000 0000 0000 0000 0000 0000 0000 0000
00000170: 0000 0000 0000 0000 0000 0000 747c c9bc
00000180: 0000 0000 0000 0000 0000 0000 0000 0000
00000190: 0000 0000 0000 0000 0000 0000 0000 0000
000001a0: 0000 0000 0000 0000 0000 0000 5fed 253d
000001b0: 0000 0000 0000 0000 0000 0000 0000 0000
000001c0: 0000 0000 0000 0000 0000 0000 0000 0000
000001d0: 0000 0000 0000 0000 0000 0000 c852 2f3d
000001e0: 0000 0000 0000 0000 0000 0000 0000 0000
000001f0: 0000 0000 0000 0000 0000 0000 0000 0000
00000200: 0000 0000 0000 0000 0000 0000 352e a03c
00000210: 0000 0000 0000 0000 0000 0000 0000 0000
00000220: 0000 0000 0000 0000 0000 0000 0000 0000
00000230: 0000 0000 0000 0000 0000 0000 4123 0f3d
00000240: 0000 0000 0000 0000 0000 0000 0000 0000
00000250: 0000 0000 0000 0000 0000 0000 0000 0000
00000260: 0000 0000 0000 0000 0000 0000 77e2 933c
00000270: 0000 0000 0000 0000 0000 0000 0000 0000
00000280: 0000 0000 0000 0000 0000 0000 0000 0000
00000290: 0000 0000 0000 0000 0000 0000 ea7c 353b
000002a0: 0000 0000 0000 0000 0000 0000 0000 0000
000002b0: 0000 0000 0000 0000 0000 0000 0000 0000
000002c0: 0000 0000 0000 0000 0000 0000 3049 0a3d
000002d0: 0000 0000 0000 0000 0000 0000 0000 0000
000002e0: 0000 0000 0000 0000 0000 0000 0000 0000
000002f0: 0000 0000 0000 0000 0000 0000 38ec 203d
00000300: 0000 0000 0000 0000 0000 0000 0000 0000
00000310: 0000 0000 0000 0000 0000 0000 0000 0000
00000320: 0000 0000 0000 0000 0000 0000 e02f 73bc
00000330: 0000 0000 0000 0000 0000 0000 0000 0000
00000340: 0000 0000 0000 0000 0000 0000 0000 0000
00000350: 0000 0000 0000 0000 0000 0000 0fc9 5fbd
00000360: 0000 0000 0000 0000 0000 0000 0000 0000
00000370: 0000 0000 0000 0000 0000 0000 0000 0000
00000380: 0000 0000 0000 0000 0000 0000 1050 2ebd
00000390: 0000 0000 0000 0000 0000 0000 0000 0000
000003a0: 0000 0000 0000 0000 0000 0000 0000 0000
000003b0: 0000 0000 0000 0000 0000 0000 89d7 8a3a
000003c0: 0000 0000 0000 0000 0000 0000 0000 0000
000003d0: 0000 0000 0000 0000 0000 0000 0000 0000
000003e0: 0000 0000 0000 0000 0000 0000 cf58 833c
000003f0: 0000 0000 0000 0000 0000 0000 0000 0000

model.0.weight f4 [512, 192]
0.02132903 -0.054377 -0.018978229 0.021162396 0.04251825 -0.01294001 -0.045063473 0.023705695
-0.05688923 0.030157391 0.034698617 -0.035104785 0.026187966 -0.05739162 -0.0598781 -0.05334782
0.0040746117 -0.03003795 0.005471722 0.056196254 -0.016412074 -0.019486101 -0.034090217 0.0030126974
0.021730805 -0.036661565 0.033037722 0.022364214 0.043571223 -0.035150144 0.047643438 0.040863514
0.022215929 0.025506712 -0.023528276 0.0645887 0.039363384 -0.012524627 0.033997446 -0.023989499
-0.042242974 -0.06492259 0.03204298 -0.0091054635 0.03819854 -0.052197564 -0.03952712 0.007665626
-0.049323317 0.028557582 0.023151359 0.038922258 -0.0047807856 0.06061288 0.022915235 -0.017729731
0.042809796 -0.0041829 -0.007904866 0.0678105 0.050685793 0.00816811 -0.031234847 -0.031503655
0.062209174 0.04720187 -0.053468507 -0.055209182 -0.031590756 0.044666097 0.022847934 -0.014742974
-0.07372208 -0.061536934 0.012789446 0.020832017 -0.05816302 0.04547629 0.01879047 0.03516652
0.056323342 0.03250098 0.04405006 0.005572426 0.071784355 -0.060124684 -0.06491193 -0.0034791238
-0.025084969 0.024812328 0.03094639 0.008321097 0.061876096 0.060596302 0.0026548633 0.015536067
-0.033602506 -0.017249353 0.063410096 0.023834428 -0.0036493337 0.010769571 0.036150303 -0.04522056
0.01915312 -0.0724598 -0.030145176 -0.0019878238 0.02356722 -0.03775784 -0.07086519 -0.039238516
-0.020532828 -0.024802467 0.012413542 0.056939647 0.0038665265 -0.014855989 -0.056544036 0.008904643
-0.01723079 -0.03733671 0.035465218 0.0022185314 -0.021935577 0.045845218 -0.047714416 -0.04993797
-0.035299595 -0.030227983 -0.056951717 0.0025470506 0.059808068 0.011589564 -0.025927551 -0.049056385
-0.0030147189 0.027333269 -0.052703794 0.046285912 0.03512838 0.016853334 0.021435946 -0.06289919
0.02069721 -0.048043877 0.0715446 -0.05360207 0.07266788 -0.05204689 0.055156145 0.008728966
-0.04415087 -0.06559243 -0.04365498 -0.06805132 0.06427134 -0.047097266 -0.040373128 -0.031138545
-0.033474896 0.060487203 -0.06508937 0.07263112 0.06727644 0.010320935 0.060180843 0.024725888
0.03217916 0.048836928 0.009392887 0.030309984 0.056840442 0.052493576 -0.0351978 -0.0526977
-0.026646161 -0.0022696804 -0.010154304 -0.032757815 0.059175823 0.04157264 0.06338337 -0.06899497
-0.059634574 0.059419822 -0.029335098 -0.025777383 -0.019482994 0.04494934 0.013266681 -0.068452135
-0.051747877 0.06326776 -0.04587568 0.04249733 0.032373648 0.052472442 -0.044554833 0.029711446
-0.066753946 -0.056576185 0.018808285 0.03514082 -0.0034787057 0.03462585 0.0153904995 -0.052749008
-0.04106275 0.020473273 0.020222863 -0.03131395 -0.007276737 0.0017957755 0.037205987 0.0337085
0.07500311 -0.0537118 -0.025852446 0.035487406 0.03277704 -0.029819299 0.048580464 0.061539292
-0.069749214 0.009952363 -0.035909764 0.04086054 0.020484252 -0.04439286 0.03346533 -0.050678518
-0.007956494 -0.064281166 0.049072713 0.004651995 0.031019572 0.03577004 0.06082877 -0.0646543
-0.042926442 0.028357029 0.025044676 -0.054098483 -0.017411714 -0.05428757 -0.016673842 0.0034327356
-0.009617228 0.058208454 -0.00993712 -0.055723466 -0.06271097 0.009493983 -0.06080656 0.0012288201
00000000: 38ba ae3c 6bba 5ebd 3b78 9bbc c35c ad3c
00000010: 9e27 2e3d 5602 54bc 7a94 38bd 7232 c23c
00000020: ae04 69bd a20c f73c 2320 0e3d 09ca 0fbd
00000030: 2588 d63c 7a13 6bbd bd42 75bd 3e83 5abd
00000040: 5284 853b 2612 f6bc 224c b33b 0b2e 663d
00000050: 9d72 86bc 51a1 9fbc 2fa2 0bbd ad70 453b
00000060: cd04 b23c 702a 16bd 9052 073d 2835 b73c
00000070: bd77 323d 99f9 0fbd c425 433d 8060 273d
00000080: 2efe b53c 74f3 d03c 5fbe c0bc 1547 843d
00000090: 803b 213d 1834 4dbc e840 0b3d a085 c4bc
000000a0: f806 2dbd 23f6 84bd 803f 033d 152f 15bc
000000b0: 1376 1c3d 1dcd 55bd 30e7 21bd ee2f fb3b
000000c0: 3f07 4abd 97f1 e93c eba7 bd3c f26c 1f3d
000000d0: 23a8 9cbb 3645 783d bbb8 bb3c f13d 91bc
000000e0: 5359 2f3d b510 89bb 6983 01bc 3be0 8a3d
000000f0: e89b 4f3d 89d3 053c 39e0 ffbc fa09 01bd
00000100: 0ccf 7e3d bf56 413d cb01 5bbd 0623 62bd
00000110: 4f65 01bd ccf3 363d 972b bb3c 848c 71bc
00000120: 9afb 96bd 270e 7cbd d38a 513c e8a7 aa3c
00000130: 593c 6ebd 5945 3a3d 79ee 993c c50a 103d
00000140: 4eb3 663d bf1f 053d d66d 343d e698 b63b
00000150: ad03 933d 4d45 76bd 8cf0 84bd 0302 64bb
00000160: fe7e cdbc 3943 cb3c 4983 fd3c 3655 083c
00000170: ca71 7d3d d433 783d 37fd 2d3b fd8a 7e3c
00000180: c8a2 09bd 844e 8dbc 27dd 813d 6b40 c33c
00000190: a929 6fbb db72 303c 5712 143d 3239 39bd
000001a0: 01e7 9c3c ce65 94bd 04f3 f6bc 2646 02bb
000001b0: 0b10 c13c f7a7 1abd c521 91bd 91b8 20bd
000001c0: 7634 a8bc 8b2e cbbc 2b62 4b3c 8c39 693d
000001d0: 8d65 7d3b 8966 73bc b89a 67bd c8e4 113c
000001e0: 9627 8dbc 61ee 18bd fa43 113d c864 113b
000001f0: 3db2 b3bc 32c8 3b3d 3170 43bd c28b 4cbd
00000200: 4f96 10bd ada0 f7bc 3446 69bd 6bec 263b
00000210: 4ef9 743d 28e2 3d3c 0466 d4bc 59ef 48bd
00000220: 9792 45bb 05ea df3c efdf 57bd 4c96 3d3d
00000230: c7e2 0f3d 0110 8a3c 709a af3c 4ad1 80bd
00000240: 328d a93c a8c9 44bd fa85 923d d88d 5bbd
00000250: e6d2 943d 1f2f 55bd 69eb 613d f003 0f3c
00000260: 8bd7 34bd 5355 86bd 90cf 32bd 7e5e 8bbd
00000270: b1a0 833d 10e9 40bd 4b5e 25bd 4316 ffbc
00000280: f91c 09bd 6ec1 773d 934d 85bd a0bf 943d
00000290: 3bc8 893d 2419 293c 3080 763d f28d ca3c
000002a0: 4bce 033d 3b09 483d a0e4 193c a54c f83c
000002b0: 86d1 683d 8103 573d 912b 10bd 8bd9 57bd
000002c0: 0d49 dabc ebbe 14bb 3d5e 26bc 0f2d 06bd
000002d0: 5962 723d 1348 2a3d 24cf 813d 3c4d 8dbd
000002e0: 6243 74bd 3362 733d 2950 f0bc 172b d3bc
000002f0: cd9a 9fbc cd1c 383d 7e5c 593c a230 8cbd
00000300: 95f5 53bd 8792 813d 23e8 3bbd ae11 2e3d
00000310: 3b9a 043d 58ed 563d 217f 36bd 6b65 f33c
00000320: 4bb6 88bd 6ebc 67bd d513 9a3c d2ef 0f3d
00000330: fffa 63bb d6d3 0d3d 6f28 7c3c 580f 58bd
00000340: 6a31 28bd 91b7 a73c 6baa a53c 0e43 00bd
00000350: b271 eebb 3a60 eb3a 4e65 183d ed11 0a3d
00000360: 3b9b 993d e800 5cbd 82c8 d3bc 3e5b 113d
00000370: 3841 063d 9a47 f4bc 4ffc 463d a010 7c3d
00000380: add8 8ebd 3c0f 233c 1e16 13bd 625d 273d
00000390: 97ce a73c 4ad5 35bd f112 093d 4794 4fbd
000003a0: f45b 02bc d8a5 83bd 7800 493d c36f 983b
000003b0: c21c fe3c 9b83 123d 9727 793d 7969 84bd
000003c0: a3d3 2fbd 004d e83c 7e2a cd3c 5f96 5dbd
000003d0: 03a3 8ebc a55c 5ebd 9597 88bc bff7 603b
000003e0: 9491 1dbc fd6b 6e3d 4dcf 22bc 4a3e 64bd
000003f0: 9c6e 80bd a78c 1b3c 4d10 79bd 5c10 a13a

model.0.bias f4 [512]
0.023849562 -0.07564723 -0.041053675 0.003332713 0.04953243 -0.04451046 0.063023396 0.057699196
0.06339303 0.048034202 -0.03560605 -0.029814998 0.06502082 -0.01803201 0.03878137 -0.07723577
-0.047239628 -0.075063236 0.026371064 -0.014653515 -0.013154741 -0.026078366 -0.017669342 0.0034345004
0.06480128 0.03439522 -0.052477043 -0.052943733 -0.014414852 0.031070527 0.025336761 0.057504658
0.014996034 0.018176645 -0.0038936757 -0.049422845 -0.047417898 0.05242358 0.058308195 -0.05722597
0.033946015 -0.027027138 -0.044320755 0.041635983 0.013842844 -0.058065064 -0.08126687 -0.045958374
0.0033252668 0.04403819 0.061473746 0.013130566 -0.01820416 -0.06226926 -0.039546046 -0.024098873
0.04962191 -0.023044387 -0.025668263 0.06124687 -0.03196357 0.009060138 0.01650398 -0.05049836
0.013599245 -0.0071869562 0.051696602 0.014959976 -0.002965931 -0.02088887 0.022265293 -0.0032046896
0.071195826 0.045311276 -0.06356458 0.046932366 0.020980597 -0.058023114 0.03259866 -0.03761407
-0.05844456 0.033846557 -0.017510103 -0.08666965 0.012286406 -0.0005066482 0.016625864 -0.0061764675
0.06150634 0.011425351 -0.009798909 0.05605937 0.056108747 0.053303827 -0.038820304 -0.044645555
0.0354993 -0.011324113 0.042934712 -0.04787953 0.0051267347 -0.023544824 -0.048132595 0.06532838
0.033854768 0.048100114 -0.06813112 0.0053292573 -0.00027524016 0.022577582 -0.00012109432 -0.013823248
-0.0044358578 -0.051466417 0.028554449 -0.038256858 0.016866682 0.024396148 0.02704454 0.06458345
-0.023555161 -0.026456669 0.009775678 -0.007986727 -0.06006198 -0.04963491 0.023804659 0.0205123
-0.039602723 -0.0551065 -0.03311413 0.0012972351 -0.028484667 0.05527551 0.028646305 -0.032917872
-0.0015629958 -0.012003183 -0.020809576 0.037726104 0.02613763 0.050990522 -0.0154217705 -0.0056635933
0.033709213 -0.03215298 -0.006625043 3.0572133e-05 -0.029036716 0.012416079 0.016950594 0.018408695
0.038352292 0.005813462 -0.05959364 -0.04024005 -0.029330391 0.0014548728 -0.019160513 -0.03122893
-0.009092136 0.0487639 -0.018364845 -0.053077474 -0.013625077 -0.0038635049 -0.07051485 0.057666678
0.027571257 -0.058662016 -0.00639868 0.052732248 -0.058040507 -0.004679571 0.05117732 -0.0651157
-0.059180822 -0.044910785 -0.024325643 0.04656597 0.055830475 0.06490445 -0.0012790376 -0.030354025
-0.0036267622 0.079140596 -0.035516117 -0.046921052 0.03895864 0.004742947 -0.016230904 -0.06276777
-0.073540226 -0.044150386 -0.0039026802 -0.019597901 -0.020771407 -0.046650805 0.025309494 -0.010564513
-0.011728013 -0.014105188 -0.00925186 -0.022512728 -0.0025586402 0.040243823 -0.039533857 -0.043828003
-0.01854601 -0.016650278 0.043606125 -0.055796925 0.05163473 -0.039296787 0.022061417 0.03726962
0.050144017 -0.01806416 -0.011552792 0.0011394506 0.056930333 -0.0003737187 -0.018653052 -0.016933901
0.016210329 0.009297811 0.008591285 -0.06380465 -0.05381795 0.05539632 -0.042468186 -0.06162602
-0.008115379 -0.043304395 -0.014025924 -0.02320535 0.03175669 -0.032717958 -0.08461304 -0.044297405
-0.019227099 -0.0049276273 0.056555804 0.005885441 -0.03559536 -0.002793841 0.06558867 0.04293407
0.0050823274 -0.0014478973 -0.03701879 0.012452277 -0.0011931438 0.043166548 0.031121755 -0.0114289485
00000000: 2860 c33c efec 9abd e627 28bd a569 5a3b
00000010: 84e2 4a3d 9a50 36bd 6912 813d fe55 6c3d
00000020: 34d4 813d 83bf 443d a6d7 11bd 953e f4bc
00000030: a329 853d deb7 93bc 37d9 1e3d ca2d 9ebd
00000040: 577e 41bd c1ba 99bd 2108 d83c 4c15 70bc
00000050: fc86 57bc 4ca2 d5bc 4cbf 90bc 5b15 613b
00000060: 89b6 843d 01e2 0c3d 2bf2 56bd 87db 58bd
00000070: 452c 6cbc 9e87 fe3c 0a8f cf3c 018a 6b3d
00000080: edb1 753c 30e7 943c 0a2d 7fbb 9c6f 4abd
00000090: 4539 42bd 1cba 563d 93d4 6e3d c765 6abd
000000a0: fa0a 0b3d 0468 ddbc ae89 35bd 7e8a 2a3d
000000b0: 19cd 623c a2d5 6dbd 3f6f a6bd d93e 3cbd
000000c0: b8ec 593b 6461 343d e5cb 7b3d 9621 573c
000000d0: e420 95bc 0d0e 7fbd 09fb 21bd 006b c5bc
000000e0: 5840 4b3d 95c7 bcbc 4046 d2bc ffdd 7a3d
000000f0: 3bec 02bd f970 143c 5b33 873c 5ed7 4ebd
00000100: 5ecf 5e3c 8f80 ebbb d1bf 533d b01a 753c
00000110: 1160 42bb 231f abbc b465 b63c c505 52bb
00000120: 1ecf 913d 5198 393d 262e 82bd 273c 403d
00000130: 80df ab3c a5a9 6dbd 2c86 053d 3611 1abd
00000140: 9063 6fbd b0a2 0a3d 5971 8fbc dc7f b1bd
00000150: ec4c 493c 96d0 04ba f732 883c f763 cabb
00000160: 12ee 7b3d 6531 3b3c 9a8b 20bc 839e 653d
00000170: 49d2 653d 1d55 5a3d 0a02 1fbd 42de 36bd
00000180: b767 113d c688 39bc 4fdc 2f3d 531d 44bd
00000190: 2bfe a73b 13e1 c0bc af26 45bd e3ca 853d
000001a0: 4cab 0a3d a004 453d 5488 8bbd 0da1 ae3b
000001b0: 1c4e 90b9 9ff4 b83c 05f4 fdb8 e87a 62bc
000001c0: ac5a 91bb 73ce 52bd 05eb e93c 39b3 1cbd
000001d0: ff2b 8a3c 6eda c73c 838c dd3c 5444 843d
000001e0: c1f6 c0bc a8bb d8bc 2a2a 203c c3da 02bc
000001f0: 8d03 76bd fa4d 4bbd fd01 c33c 6909 a83c
00000200: 7736 22bd 5ab7 61bd afa2 07bd fd07 aa3a
00000210: ad58 e9bc 9368 623d a8ab ea3c e4d4 06bd
00000220: 70dd ccba 00a9 44bc d878 aabc b086 1a3d
00000230: 951e d63c 70db 503d 98ab 7cbc aa95 b9bb
00000240: ac12 0a3d d8b2 03bd e416 d9bb 943a 0038
00000250: 68de edbc cf6c 4b3c f9db 8a3c d5cd 963c
00000260: 4b17 1d3d db7e be3b 7618 74bd c0d2 24bd
00000270: 4a46 f0bc 6eb1 be3a 82f6 9cbc d0d3 ffbc
00000280: 2ff7 14bc a8bc 473d df71 96bc c467 59bd
00000290: b73b 5fbc db32 7dbb 176a 90bd e533 6c3d
000002a0: 1edd e13c 9547 70bd 05ac d1bb c5fd 573d
000002b0: e2bb 6dbd 1657 99bb 4f9f 513d 615b 85bd
000002c0: 9767 72bd 5ff4 37bd 9246 c7bc f5bb 3e3d
000002d0: 7fae 643d a0ec 843d 61a5 a7ba 01a9 f8bc
000002e0: f9ae 6dbb 7714 a23d 5979 11bd 4a30 40bd
000002f0: 1893 1f3d b96a 9b3b acf6 84bc 638c 80bd
00000300: 429c 96bd 09d7 34bd 1cc4 7fbb c78b a0bc
00000310: cc28 aabc ea14 3fbd db55 cf3c c716 2dbc
00000320: da26 40bc 7219 67bc 1d95 17bc 9d6c b8bc
00000330: dcae 27bb b5d6 243d 41ee 21bd fe84 33bd
00000340: cded 97bc 2a66 88bc 569c 323d 518b 64bd
00000350: f07e 533d abf5 20bd 25ba b43c 07a8 183d
00000360: d063 4d3d 4afb 93bc ec47 3dbc 9e59 953a
00000370: c82f 693d adef c3b9 49ce 98bc f7b8 8abc
00000380: 86cb 843c d955 183c 76c2 0c3c 03ac 82bd
00000390: 3670 5cbd 40e7 623d 1ff3 2dbd 916b 7cbd
000003a0: 5ef6 04bc f35f 31bd fdcc 65bc 2519 bebc
000003b0: 4e13 023d 4403 06bd 9a49 adbd 3271 35bd
000003c0: 2682 9dbc ef77 a1bb 0fa7 673d a8da c03b
000003d0: 71cc 11bd e018 37bb 5a53 863d a3db 2f3d
000003e0: a789 a63b 5fc7 bdba 04a1 17bd a304 4c3c
000003f0: 4363 9cba 68cf 303d 0df3 fe3c 7c40 3bbc

model.2.weight f4 [72, 512]
-0.04181462 -0.025839578 0.028000697 0.036248554 -0.029604524 0.037504565 0.036826786 0.005029967
-0.038399372 0.023880128 -0.010902087 -0.048414197 -0.044855915 -0.0073839873 0.025673512 0.01915502
-0.024368977 -0.023062922 -0.033598743 -0.0059995065 -0.039190646 -0.0066168024 0.015545828 -0.0025372247
-0.016491128 -0.014768934 0.035668854 0.03861111 -0.017677454 -0.044082362 -0.018118398 -0.0019833618
-0.01086959 -0.017910747 0.039063964 -0.048060298 0.015970454 0.041300338 0.026599923 0.037081365
-0.024445431 0.008452366 0.008063554 0.024245607 0.037790474 -0.031592865 -0.021488791 -0.022768024
0.023513354 0.021163888 -0.0054065688 -0.013284122 0.0013561376 -0.031190291 -0.002410127 0.025698282
-0.025118588 -0.02036476 0.02585331 0.0010146694 0.016423093 -0.028604098 0.0329337 0.02315894
-0.04456798 0.031614378 -0.008387894 -0.051554676 0.017857553 0.01695921 -0.014820675 0.03708261
-0.015189176 0.014396733 0.0028190662 -0.031058298 0.0073748906 0.00533383 -0.020722425 0.018892817
0.0220265 0.019725567 -0.014931145 0.02789058 0.006454938 -0.01980317 -0.004222395 0.00015935912
-0.04484723 -0.021480694 -0.0033828064 0.011459846 -0.04845136 -0.011955357 0.022797003 0.0020087238
0.018545158 0.034264125 -0.01706119 -0.03122224 -0.0468894 0.010975309 0.010150601 0.0026170975
-0.016531266 0.013026469 -0.0037637104 -0.028618827 -0.037835512 0.013289526 -0.031152375 -0.008445439
0.029339401 -0.0038500107 -0.011857199 -0.010243835 -0.039595176 -0.02298932 -0.011391293 0.014329494
-0.0054993513 0.04001502 0.034749486 0.011580414 0.010431759 -0.019493775 -0.046682086 0.0041975384
0.036823228 -0.009920164 0.061212003 0.014839676 -0.030048411 -0.021859506 -0.000854127 0.001055459
0.017557643 0.02366342 0.020917125 -0.034833312 -0.027433136 -0.007143838 -0.009428919 0.017565345
-0.034105483 -0.017556923 -0.00023584979 -0.0028135339 0.012843156 0.028666476 0.018237542 -0.00055975514
0.027211798 0.014786028 -0.026091097 0.025694365 0.0013547582 0.029643515 0.0026875439 0.010895877
-0.020575492 -0.02795094 0.042510804 -0.03785197 0.021337444 0.01759708 -0.028734056 -0.025226785
-0.03598536 -0.019597275 -0.031004531 -0.03838917 -0.042225704 0.0072700502 -0.0032571992 0.008202757
-0.02441229 -0.022186661 0.0204076 -0.030409168 0.03504707 -0.019090284 -0.00969838 0.005560502
0.021486038 -0.012960698 0.027148107 0.027935114 0.030430578 -0.016816974 0.035373386 -0.0072337184
0.030765967 0.026804568 -0.029755488 0.031242307 -0.027061978 0.03864206 0.0009955566 -0.004558552
0.046854608 -0.012378684 -0.032638267 0.0014711065 -0.004567755 0.0010581269 0.043598928 -0.015909174
0.024468914 -0.021022387 0.024395581 -0.0059527624 0.02962835 -0.025421416 0.018261103 0.041929845
-0.027261805 0.043175645 0.0034222433 -0.028917046 0.010651193 0.007722758 -0.028087981 -0.020631934
0.034337204 -0.012979719 -0.021816475 0.010328984 -0.03122219 -0.010921903 0.0039917976 0.038455006
0.011612403 -0.009433159 -0.027356496 -0.02434401 0.023594517 -0.01408463 -0.03407253 -0.042369004
0.027620528 -0.016246028 0.014797879 -0.024421677 0.028940933 0.024953851 -0.020182462 0.01868835
0.050898734 -0.041046277 -0.027991366 0.0103376005 0.0034467138 0.017075948 0.04687547 -0.0335025
00000000: cf45 2bbd 86ad d3bc b861 e53c 5d79 143d
00000010: 3085 f2bc 639e 193d afd7 163d 6cd2 a43b
00000020: a948 1dbd 42a0 c33c ab9e 32bc f74d 46bd
00000030: d6ba 37bd 60f5 f1bb 4251 d23c fdea 9c3c
00000040: 73a1 c7bc 74ee bcbc d69e 09bd 8297 c4bb
00000050: 5f86 20bd c3d1 d8bb eeb3 7e3c 9147 26bb
00000060: 6718 87bc 66f9 71bc 8119 123d af26 1e3d
00000070: 4fd0 90bc b58f 34bd 096d 94bc 4afb 01bb
00000080: 5d16 32bc 8fb9 92bc 8901 203d e0da 44bd
00000090: 78d4 823c 8b2a 293d 15e8 d93c a1e2 173d
000000a0: c941 c8bc cb7b 0a3c ff1c 043c b99e c63c
000000b0: 2fca 1a3d 8567 01bd 4309 b0bc 0284 babc
000000c0: 149f c03c e45f ad3c 9629 b1bb a5a5 59bc
000000d0: 6dc0 b13a c882 ffbc 39f3 1dbb 3485 d23c
000000e0: 7fc5 cdbc ffd3 a6bc 52ca d33c a8fe 843a
000000f0: b989 863c 2453 eabc 7de5 063d d1b7 bd3c
00000100: ea8c 36bd 147e 013d 616d 09bc ff2a 53bd
00000110: 014a 923c 0bee 8a3c 6bd2 72bc efe3 173d
00000120: 06dc 78bc 46e0 6b3c 15c0 383b f96d febc
00000130: 11a9 f13b 69c7 ae3b 13c2 a9bc 1cc5 9a3c
00000140: eb70 b43c 8397 a13c c3a1 74bc c97a e43c
00000150: f283 d33b 423a a2bc 045c 8abb a319 2739
00000160: bbb1 37bd 48f8 afbc 13b2 5dbb 14c2 3b3c
00000170: ef74 46bd 67e0 43bc c8c0 ba3c cba4 033b
00000180: 04ec 973c 8a58 0c3d e9c3 8bbc c8c5 ffbc
00000190: 190f 40bd c8d1 333c b54e 263c 9c83 2b3b
000001a0: 946c 87bc f96c 553c 95a8 76bb 0872 eabc
000001b0: 69f9 1abd 50bc 593c 4433 ffbc bd5e 0abc
000001c0: 2f59 f03c 7650 7cbb b244 42bc c2d5 27bc
000001d0: 8d2e 22bd 1954 bcbc 8ca2 3abc 41c6 6a3c
000001e0: e733 b4bb cae6 233d 7a55 0e3d c7bb 3d3c
000001f0: f8e9 2a3c 69b1 9fbc b735 3fbd 818b 893b
00000200: f4d3 163d 2f88 22bc 70b9 7a3d 1d22 733c
00000210: 1628 f6bc b512 b3bc 7ee7 5fba 5457 8a3a
00000220: 0cd5 8f3c cad9 c13c 645a ab3c 60ad 0ebd
00000230: 75bb e0bc db16 eabb c17b 1abc 33e5 8f3c
00000240: 31b2 0bbd 89d3 8fbc 724e 77b9 4463 38bb
00000250: 1a6c 523c f5d5 ea3c e666 953c 88bc 12ba
00000260: 47eb de3c 1941 723c ffbc d5bc fd7c d23c
00000270: 2492 b13a f5d6 f23c 8121 303b 9f84 323c
00000280: ef8d a8bc 5ff9 e4bc cf1f 2e3d ab0a 1bbd
00000290: ddcb ae3c c027 903c af63 ebbc 67a8 cebc
000002a0: 6365 13bd 778a a0bc 37fd fdbc f63d 1dbd
000002b0: dcf4 2cbd 9a39 ee3b bc76 55bb db64 063c
000002c0: 48fc c7bc cdc0 b5bc d72d a73c a61c f9bc
000002d0: 848d 0f3d 3a63 9cbc f4e5 1ebc df34 b63b
000002e0: 7d03 b03c 1c59 54bc b565 de3c 2ed8 e43c
000002f0: 8c49 f93c c0c3 89bc afe3 103d d408 edbb
00000300: e908 fc3c 4195 db3c c8c1 f3bc deef ff3c
00000310: 15b1 ddbc 2347 1e3d 567d 823a e85f 95bb
00000320: 9eea 3f3d f7cf 4abc b4af 05bd 25d2 c03a
00000330: 1bad 95bb d9b0 8a3a ca94 323d f553 82bc
00000340: 0873 c83c 2437 acbc 3ed9 c73c 640f c3bb
00000350: 27b7 f23c 9340 d0bc 4f98 953c a1be 2b3d
00000360: 2654 dfbc f2d8 303d b747 603b 71e3 ecbc
00000370: 5782 2e3c 310f fd3b c418 e6bc 4d04 a9bc
00000380: 2ba5 0c3d e3a8 54bc 77b8 b2bc e63a 293c
00000390: aec5 ffbc c8f1 32bc a0cd 823b ff82 1d3d
000003a0: f341 3e3c 898d 1abc bb1a e0bc 176d c7bc
000003b0: 4a49 c13c 38c3 66bc a38f 0bbd 1f8b 2dbd
000003c0: 7244 e23c 6416 85bc ce72 723c f80f c8bc
000003d0: 8915 ed3c 056c cc3c b155 a5bc 5018 993c
000003e0: 317b 503d 2420 28bd 264e e5bc 0a5f 293c
000003f0: 43e2 613b dce2 8b3c 7e00 403d eb39 09bd

model.2.bias f4 [72]
-0.024455717 -0.010089019 0.03094977 0.03897155 -0.022285072 -0.004246504 0.0014436991 -0.034459893
0.03951289 0.024551889 0.009088259 -0.014072247 0.03187022 0.013788122 -0.022437062 0.0023033707
0.043510873 -0.029560141 0.025384236 0.024918396 0.005275945 -0.02564251 0.0033448949 0.006605683
0.030026264 0.0030808542 0.021693582 -0.0042383764 0.023420056 0.017571168 -0.029980103 -0.03516189
0.014231765 0.020891355 0.023636464 -0.019068774 -0.026699888 -0.032333743 0.0110108685 0.028318983
0.04435434 0.02827596 0.010812176 0.004004472 -0.0136147775 0.026883913 -0.0068832696 0.008361026
-0.025391031 -3.815725e-06 0.041209187 -9.507142e-06 0.044419292 0.011609598 0.03503401 0.02839617
0.010733584 0.009417627 0.0097880205 0.048189785 -0.013287225 -0.0039594327 0.0022277054 -0.002731989
-0.023479672 0.0067962874 0.02727827 0.011508806 0.04079861 0.022719841 -0.030117238 0.028800987
00000000: 5b57 c8bc 6a4c 25bc 5f8a fd3c a2a0 1f3d
00000010: 2f8f b6bc 4226 8bbb 813a bd3a d125 0dbd
00000020: 45d8 213d 0b21 c93c ece6 143c 488f 66bc
00000030: 598a 023d 93e7 613c eecd b7bc 26f4 163b
00000040: 7538 323d 1c28 f2bc 9af2 cf3c aa21 cc3c
00000050: d6e1 ac3b 3e10 d2bc 0636 5b3b 7c74 d83b
00000060: a4f9 f53c 28e8 493b bdb6 b13c 14e2 8abb
00000070: 6bdb bf3c 69f1 8f3c d598 f5bc ea05 10bd
00000080: 592c 693c 5924 ab3c 42a1 c13c 1e36 9cbc
00000090: b9b9 dabc 6370 04bd ee66 343c 36fd e73c
000000a0: e5ac 353d fca2 e73c 8e25 313c f237 833b
000000b0: 8410 5fbc a73b dc3c 0d8d e1bb affc 083c
000000c0: da00 d0bc d408 80b6 f7ca 283d dd80 1fb7
000000d0: 01f1 353d 2f36 3e3c d27f 0f3d 169f e83c
000000e0: eadb 2f3c 644c 1a3c ef5d 203c a762 453d
000000f0: a9b2 59bc 21be 81bb b2fe 113b 2b0b 33bb
00000100: 7158 c0bc 64b3 de3b ae76 df3c 6e8f 3c3c
00000110: 711c 273d f61e ba3c 6db8 f6bc 0cf0 eb3c
