checkpoints/test1_CycleNet_solar_data_bs16_ftMS_sl192_ll48_pl120/checkpoint.pth (torch, 645095 bytes, 5 tensors)

cycleQueue.data f4 [24, 12]
0.0 0.0 0.0 0.0 0.0 0.0 0.0 0.0
0.0 0.0 0.0 -0.009472367 0.0 0.0 0.0 0.0
0.0 0.0 0.0 0.0 0.0 0.0 0.0 0.003933425
0.0 0.0 0.0 0.0 0.0 0.0 0.0 0.0
0.0 0.0 0.0 0.01932948 0.0 0.0 0.0 0.0
0.0 0.0 0.0 0.0 0.0 0.0 0.0 0.03666587
0.0 0.0 0.0 0.0 0.0 0.0 0.0 0.0
0.0 0.0 0.0 0.027777601 0.0 0.0 0.0 0.0
0.0 0.0 0.0 0.0 0.0 0.0 0.0 -0.0396489
0.0 0.0 0.0 0.0 0.0 0.0 0.0 0.0
0.0 0.0 0.0 -0.07148734 0.0 0.0 0.0 0.0
0.0 0.0 0.0 0.0 0.0 0.0 0.0 -0.024430154
0.0 0.0 0.0 0.0 0.0 0.0 0.0 0.0
0.0 0.0 0.0 0.048616897 0.0 0.0 0.0 0.0
0.0 0.0 0.0 0.0 0.0 0.0 0.0 0.042064216
0.0 0.0 0.0 0.0 0.0 0.0 0.0 0.0
0.0 0.0 0.0 0.016268352 0.0 0.0 0.0 0.0
0.0 0.0 0.0 0.0 0.0 0.0 0.0 0.04581329
0.0 0.0 0.0 0.0 0.0 0.0 0.0 0.0
0.0 0.0 0.0 0.02459456 0.0 0.0 0.0 0.0
0.0 0.0 0.0 0.0 0.0 0.0 0.0 0.00064366544
0.0 0.0 0.0 0.0 0.0 0.0 0.0 0.0
0.0 0.0 0.0 0.041086316 0.0 0.0 0.0 0.0
0.0 0.0 0.0 0.0 0.0 0.0 0.0 0.048940394
0.0 0.0 0.0 0.0 0.0 0.0 0.0 0.0
0.0 0.0 0.0 -0.014013331 0.0 0.0 0.0 0.0
0.0 0.0 0.0 0.0 0.0 0.0 0.0 -0.053827737
0.0 0.0 0.0 0.0 0.0 0.0 0.0 0.0
0.0 0.0 0.0 -0.030515702 0.0 0.0 0.0 0.0
0.0 0.0 0.0 0.0 0.0 0.0 0.0 0.026467223
0.0 0.0 0.0 0.0 0.0 0.0 0.0 0.0
0.0 0.0 0.0 0.03688459 0.0 0.0 0.0 0.0
00000000: 0000 0000 0000 0000 0000 0000 0000 0000
00000010: 0000 0000 0000 0000 0000 0000 0000 0000
00000020: 0000 0000 0000 0000 0000 0000 fd31 1bbc
00000030: 0000 0000 0000 0000 0000 0000 0000 0000
00000040: 0000 0000 0000 0000 0000 0000 0000 0000
00000050: 0000 0000 0000 0000 0000 0000 f6e3 803b
00000060: 0000 0000 0000 0000 0000 0000 0000 0000
00000070: 0000 0000 0000 0000 0000 0000 0000 0000
00000080: 0000 0000 0000 0000 0000 0000 dc58 9e3c
00000090: 0000 0000 0000 0000 0000 0000 0000 0000
000000a0: 0000 0000 0000 0000 0000 0000 0000 0000
000000b0: 0000 0000 0000 0000 0000 0000 f42e 163d
000000c0: 0000 0000 0000 0000 0000 0000 0000 0000
000000d0: 0000 0000 0000 0000 0000 0000 0000 0000
000000e0: 0000 0000 0000 0000 0000 0000 da8d e33c
000000f0: 0000 0000 0000 0000 0000 0000 0000 0000
00000100: 0000 0000 0000 0000 0000 0000 0000 0000
00000110: 0000 0000 0000 0000 0000 0000 e366 22bd
00000120: 0000 0000 0000 0000 0000 0000 0000 0000
00000130: 0000 0000 0000 0000 0000 0000 0000 0000
00000140: 0000 0000 0000 0000 0000 0000 f467 92bd
00000150: 0000 0000 0000 0000 0000 0000 0000 0000
00000160: 0000 0000 0000 0000 0000 0000 0000 0000
00000170: 0000 0000 0000 0000 0000 0000 bf21 c8bc
00000180: 0000 0000 0000 0000 0000 0000 0000 0000
00000190: 0000 0000 0000 0000 0000 0000 0000 0000
000001a0: 0000 0000 0000 0000 0000 0000 8322 473d
000001b0: 0000 0000 0000 0000 0000 0000 0000 0000
000001c0: 0000 0000 0000 0000 0000 0000 0000 0000
000001d0: 0000 0000 0000 0000 0000 0000 874b 2c3d
000001e0: 0000 0000 0000 0000 0000 0000 0000 0000
000001f0: 0000 0000 0000 0000 0000 0000 0000 0000
00000200: 0000 0000 0000 0000 0000 0000 3545 853c
00000210: 0000 0000 0000 0000 0000 0000 0000 0000
00000220: 0000 0000 0000 0000 0000 0000 0000 0000
00000230: 0000 0000 0000 0000 0000 0000 b7a6 3b3d
00000240: 0000 0000 0000 0000 0000 0000 0000 0000
00000250: 0000 0000 0000 0000 0000 0000 0000 0000
00000260: 0000 0000 0000 0000 0000 0000 887a c93c
00000270: 0000 0000 0000 0000 0000 0000 0000 0000
00000280: 0000 0000 0000 0000 0000 0000 0000 0000
00000290: 0000 0000 0000 0000 0000 0000 a8bb 283a
000002a0: 0000 0000 0000 0000 0000 0000 0000 0000
000002b0: 0000 0000 0000 0000 0000 0000 0000 0000
000002c0: 0000 0000 0000 0000 0000 0000 204a 283d
000002d0: 0000 0000 0000 0000 0000 0000 0000 0000
000002e0: 0000 0000 0000 0000 0000 0000 0000 0000
000002f0: 0000 0000 0000 0000 0000 0000 b975 483d
00000300: 0000 0000 0000 0000 0000 0000 0000 0000
00000310: 0000 0000 0000 0000 0000 0000 0000 0000
00000320: 0000 0000 0000 0000 0000 0000 2c98 65bc
00000330: 0000 0000 0000 0000 0000 0000 0000 0000
00000340: 0000 0000 0000 0000 0000 0000 0000 0000
00000350: 0000 0000 0000 0000 0000 0000 797a 5cbd
00000360: 0000 0000 0000 0000 0000 0000 0000 0000
00000370: 0000 0000 0000 0000 0000 0000 0000 0000
00000380: 0000 0000 0000 0000 0000 0000 11fc f9bc
00000390: 0000 0000 0000 0000 0000 0000 0000 0000
000003a0: 0000 0000 0000 0000 0000 0000 0000 0000
000003b0: 0000 0000 0000 0000 0000 0000 cad1 d83c
000003c0: 0000 0000 0000 0000 0000 0000 0000 0000
000003d0: 0000 0000 0000 0000 0000 0000 0000 0000
000003e0: 0000 0000 0000 0000 0000 0000 4c14 173d
000003f0: 0000 0000 0000 0000 0000 0000 0000 0000

model.0.weight f4 [512, 192]
-0.011254927 0.066577345 -0.015651176 -0.029564545 0.020450091 0.06904016 -0.025553172 -0.021762172
-0.036787663 -0.027089668 0.053216532 -0.06027509 -0.07079393 -0.009797325 -0.061727796 -0.07810498
0.05001819 -0.010085928 0.0039480403 -0.050825223 0.0031663268 0.059013873 0.007912729 0.073495455
0.00080184726 0.026876945 0.04708393 0.067445345 0.010366564 -0.0598744 0.048138604 -0.06569698
0.0021130804 -0.07292848 -0.043175805 0.056427695 0.024394685 -0.08007396 -0.042884987 0.050675772
-0.05738114 -0.018753292 0.005442951 0.037847202 -0.0034315367 0.03054092 -0.044730015 0.073397376
0.042109642 0.060270615 0.054589443 0.01948754 -0.031520247 0.029906897 0.02987924 -0.048844412
-0.03756097 -0.07853433 -0.018875893 -0.0056243874 -0.0118467985 -0.03652228 -0.06856199 -0.0076598893
0.06226213 0.049504276 0.001016715 -0.0021074675 0.014931956 -0.053880673 0.043154255 -0.02262313
-0.02606723 0.02802149 0.06316026 0.08098673 0.032625742 -0.017363112 0.0006174468 0.02926197
-0.045658864 0.003895191 -0.08135708 -0.075350724 0.044509035 0.011513729 0.022525517 0.026831748
-0.08049396 0.05373118 -0.0049175825 -0.01846888 -0.05388978 -0.038571384 0.0008642016 0.07881119
0.07667637 -0.044617757 -0.029423244 0.016062351 -0.015836341 0.06214728 -0.056838535 -0.050329722
0.04044413 -0.026510838 -0.04708025 -0.041289303 -0.033731554 0.05408593 -0.06251033 -0.07213904
-0.0054835216 0.04407279 -0.054856606 0.019513898 0.018293688 -0.012268085 0.06264405 -0.029218363
0.014459924 0.022294058 0.06606968 0.06258829 0.005492204 -0.051759902 0.0048878076 -0.039228402
-0.078912 -0.047647383 0.051342703 0.017167946 -0.036798544 -0.0785171 -0.061433677 0.026752412
0.010094097 0.0074180826 0.023403894 -0.0028958833 0.05364217 -0.014999962 0.037823003 0.02179309
-0.046111245 -0.05434951 -0.002957364 -0.0047647124 0.02565451 -0.052289836 -0.052031465 -0.05427077
-0.033395704 -0.03628801 -0.06902627 -0.060752552 -0.078205325 -0.019444615 -0.008066023 -0.025844807
-0.0058867214 0.039449047 0.03074631 -0.0067492453 -0.017012846 0.024908803 -0.051111825 0.0711399
0.037954662 -0.03506133 0.03192654 -0.056664288 -0.021217404 0.04881734 0.0018218509 -0.07799907
0.0408713 -0.04370775 -0.0534865 -0.025092311 -0.02683632 -0.056881927 0.009612026 -0.0012936292
0.06739578 -0.04921512 0.060617495 0.026639186 -0.047396947 0.018325942 0.015574516 -0.037806153
-0.011722665 -0.033561777 -0.021136364 0.06939782 0.027683878 -0.012272898 0.043732136 -0.053427782
-0.0030607514 0.06917431 -0.04520896 -0.035329692 0.0505321 0.017251933 0.03852598 0.015113034
-0.074316196 -0.057307478 -0.039412238 0.054629333 0.03729976 -0.0702089 -0.0041804817 0.024991482
-0.02752488 0.042589985 0.016185267 0.04441426 0.010708047 0.05511259 -0.01914893 0.047382966
-0.015292135 -0.010717618 0.017739106 0.00037801586 0.045900967 -0.07738646 -0.049138136 -0.08171366
-0.016379371 -0.08158241 0.017930228 -0.03426045 -0.051073603 -0.059396047 0.055234283 0.033504833
-0.05774614 -0.051637888 0.024059372 -0.038029447 -0.0063929535 0.072021626 -0.022322966 0.046126634
0.021793297 -0.044792667 0.015829543 0.036623046 -0.08676402 0.029942967 -0.02694267 -0.060746484
00000000: 9666 38bc b459 883d e536 80bc 5831 f2bc
00000010: f386 a73c ed64 8d3d e354 d1bc 9546 b2bc
00000020: a9ae 16bd 27eb ddbc 94f9 593d 03e3 76bd
00000030: 68fc 90bd f684 20bc 49d6 7cbd 81f5 9fbd
00000040: e0df 4c3d 733f 25bc 905e 813b 1c2e 50bd
00000050: 2682 4f3b 88b8 713d 64a4 013c c984 963d
00000060: 0f33 523a 0a2d dc3c 14db 403d c920 8a3d
00000070: 85d8 293c dc3e 75bd fc2c 453d 238c 86bd
00000080: 9b7b 0a3b 875b 95bd 1dd9 30bd ba20 673d
00000090: 5dd7 c73c d1fd a3bd 2ba8 2fbd 6691 4f3d
000000a0: 7c08 6bbd 81a0 99bc c85a b23b ab05 1b3d
000000b0: a2e3 60bb f430 fa3c d236 37bd 5d51 963d
000000c0: 297b 2c3d 52de 763d 2e99 5f3d 55a4 9f3c
000000d0: 601b 01bd 4fff f43c 4fc5 f43c 1411 48bd
000000e0: 88d9 19bd 9bd6 a0bd 9ea1 9abc c84c b8bb
000000f0: 1319 42bc 6398 15bd 3b6a 8cbd cfff fabb
00000100: 9306 7f3d ffc4 4a3d 4b43 853a 701d 0abb
00000110: 2aa5 743c fbb1 5cbd 84c2 303d 2454 b9bc
00000120: f28a d5bc 538d e53c 2b5a 813d 5fdc a53d
00000130: 92a2 053d 163d 8ebc 27dc 213a cdb6 ef3c
00000140: ca04 3bbd 7646 7f3b 8a9e a6bd 7b51 9abd
00000150: 1b4f 363d 14a4 3c3c 6f87 b83c 41ce db3c
00000160: 04da a4bd 3a15 5c3d ac23 a1bb 0c4c 97bc
00000170: 88bb 5cbd 07fd 1dbd 968b 623a c367 a13d
00000180: 8008 9d3d 1cc1 36bd 0409 f1bc 3195 833c
00000190: 37bb 81bc 258e 7e3d 86cf 68bd 8a26 4ebd
000001a0: bea8 253d 422d d9bc 38d7 40bd f91e 29bd
000001b0: 192a 0abd 3589 5d3d 6a05 80bd a2bd 93bd
000001c0: 1daf b3bb ab85 343d 52b1 60bd 9cdb 9f3c
000001d0: a5dc 953c 1400 49bc 864b 803d 595b efbc
000001e0: 51e9 6c3c 07a2 b63c 8a4f 873d 4a2e 803d
000001f0: f2f7 b33b 3102 54bd e729 a03b f6ad 20bd
00000200: 9d9c a1bd e729 43bd ba4c 523d cba3 8c3c
00000210: 12ba 16bd 93cd a0bd e1a1 7bbd e027 db3c
00000220: b661 253c 6313 f33b 86b9 bf3c dcc8 3dbb
00000230: e4b7 5b3d 67c2 75bc 4bec 1a3d 6c87 b23c
00000240: 25df 3cbd 989d 5ebd 56d0 41bb 4e21 9cbb
00000250: 6829 d23c de2d 56bd f21e 55bd 074b 5ebd
00000260: efc9 08bd bda2 14bd a55d 8dbd abd7 78bd
00000270: 1d2a a0bd 504a 9fbc 5a27 04bc 7db8 d3bc
00000280: 66e5 c0bb 5395 213d afdf fb3c c628 ddbb
00000290: 865e 8bbc 8c0d cc3c a25a 51bd ccb1 913d
000002a0: 5976 1b3d 789c 0fbd 67c5 023d d018 68bd
000002b0: 1fd0 adbc b1f4 473d 2ccb ee3a fabd 9fbd
000002c0: aa68 273d e606 33bd a914 5bbd 648e cdbc
000002d0: d8d7 dbbc 06fd 68bd c27b 1d3c fe8e a9ba
000002e0: cc06 8a3d cb95 49bd 0d4a 783d 6c3a da3c
000002f0: 4d23 42bd 4920 963c 412c 7f3c a0da 1abd
00000300: 6c10 40bc 1378 09bd 2b26 adbc 7220 8e3d
00000310: 4dc9 e23c 4414 49bc 7820 333d 17d7 5abd
00000320: e396 48bb 43ab 8d3d 082d 39bd deb5 10bd
00000330: bffa 4e3d ed53 8d3c 6bcd 1d3d a99c 773c
00000340: 1733 98bd 3fbb 6abd ba6e 21bd 02c3 5f3d
00000350: a2c7 183d afc9 8fbd 6cfc 88bb f0ba cc3c
00000360: db7b e1bc d672 2e3d f796 843c baeb 353d
00000370: ce70 2f3c bdbd 613d 38de 9cbc a414 423d
00000380: dd8b 7abc f398 2fbc 9a51 913c 6e30 c639
00000390: a702 3c3d cb7c 9ebd 1245 49bd 7e59 a7bd
000003a0: 082e 86bc ae14 a7bd 6ae2 923c b054 0cbd
000003b0: 8e32 51bd 4549 73bd 583d 623d 5d3c 093d
000003c0: 3787 6cbd 4082 53bd 2918 c53c c4c4 1bbd
000003d0: fb7b d1bb 1380 933d a7de b6bc 48ef 3c3d
000003e0: db87 b23c 8478 37bd f5ac 813c 0c02 163d
000003f0: 56b1 b1bd f44a f53c e0b6 dcbc 4ed1 78bd

model.0.bias f4 [512]
-0.021254936 0.008189783 0.02084092 0.0051838495 0.022932656 -0.0513112 0.0050653885 -0.048194874
-0.024702502 0.03847343 -0.05185631 -0.019619131 0.04821783 -0.05035173 0.06492603 0.04256834
-0.021243455 -0.038667865 0.043420818 0.07697024 -0.052535526 -0.004443032 -0.0049650995 0.061231516
0.042167842 0.033468623 0.0012433674 -0.055206466 0.050904267 -0.048408996 -0.068957195 0.03195585
-0.05152544 0.06627558 0.0074938852 0.028242921 -0.030568717 -0.048352048 -0.00840667 -0.006385402
0.011028243 0.03550356 -0.02435487 0.022345904 -0.047733016 -0.05283873 0.018066077 0.01176289
-0.06042294 0.008622245 0.05248517 -0.009666638 0.07616337 -0.06869805 -0.023453206 -0.054323077
-0.022333853 -0.0033143826 -0.025930265 -0.006408586 -0.03165924 0.03195282 -0.041358735 -0.00076077075
-0.046731103 0.007575908 0.055500835 0.015120114 -0.002859142 0.06038007 0.036716927 0.019709548
0.07109719 0.036606174 -0.007517898 0.063370794 -0.0065133 0.014284458 0.014200278 -0.027801853
-0.040576164 0.066419885 -0.05392006 0.005619267 -0.031676978 -0.0007200849 0.062131997 0.03195419
-0.057525642 -0.05087837 -0.016390847 -0.058814395 0.0175596 0.075661734 -0.03743964 0.024793329
0.035972483 0.03051994 0.032793056 0.00077941275 -0.007533553 -0.020464087 -0.018950967 -0.07727154
0.003165683 0.029243315 -0.0049801613 -0.03489407 0.008234696 0.05933203 0.029992815 0.023651294
0.024720479 0.018279612 0.034279283 0.067727916 -0.06936073 -0.057117566 -0.07080401 -0.06482969
0.038032375 -0.012570699 -0.024778623 0.0022691938 0.07077217 -0.08144644 0.06256332 0.06584733
0.04308462 0.08151688 -0.06619397 -0.039668724 -0.009435258 0.04495645 0.039518606 -0.008386884
0.011885935 -0.041571304 0.03337189 0.07322551 0.08125354 -0.056612547 -0.055562574 0.06585241
-0.031718615 0.083308265 0.06648023 -0.042219523 -0.045001324 0.052508816 -0.038176592 0.00781832
-0.018582184 0.004604087 -0.022372663 -0.017069155 0.06899348 -0.066924386 -0.041435644 -0.020260498
-0.030304758 -0.052076194 0.000584552 -0.054352008 0.020902853 0.040267047 0.0238327 -0.049761463
0.04009507 0.06937944 -0.027646257 -0.0011716409 -0.054017816 0.013600595 -0.028085554 -0.039503846
-0.021583002 0.059920996 0.036764048 0.0072281044 -0.03914714 0.051109068 -0.04820977 -0.051782683
0.03482894 0.0021249084 -0.054832198 -0.073266126 -0.06637589 -0.06134497 -0.05941616 0.029909953
-0.021252207 -0.055857047 -0.030561885 -0.018408772 -0.06890533 -0.039541464 -0.025841309 -0.020043846
0.022211071 0.06773752 0.0399284 0.052218247 -0.015479672 0.039882224 0.041537426 0.047988463
0.006019954 -0.023462255 0.024850879 0.01504052 -0.05090895 0.05585338 -0.028951336 -0.012187129
-0.018243743 0.025971811 -0.022787608 0.033084624 0.052930776 -0.006143008 -0.03444346 0.0731283
-0.021820473 -0.02088712 0.067269824 0.08005087 0.064555146 -0.05700979 0.042192575 0.014025613
0.014690293 -0.05100491 0.061913442 -0.0061626374 0.05472705 -0.009954967 -0.04122826 0.074960925
-0.008139404 -0.022977477 0.065533966 0.023808653 -0.036582652 0.041788224 -0.02863639 0.046430632
-0.06759853 -0.017821612 0.06304153 0.042219818 -0.06013114 -0.03149469 -0.0046160338 0.021225367
00000000: d51e aebc 712e 063c 94ba aa3c 48dd a93b
00000010: 44dd bb3c b12b 52bd 8ffb a53b fd67 45bd
00000020: e75c cabc 5196 1d3d 4867 54bd 4db8 a0bc
00000030: 0f80 453d 9e3d 4ebd f0f7 843d 245c 2e3d
00000040: c106 aebc 3262 1ebd 07da 313d 93a2 9d3d
00000050: 7e2f 57bd db96 91bb 46b2 a2bb e6cd 7a3d
00000060: 30b8 2c3d 6516 093d 7df8 a23a 2d20 62bd
00000070: fe80 503d 8348 46bd 6e39 8dbd 23e4 023d
00000080: 570c 53bd 7ebb 873d 448f f53b b35d e73c
00000090: 3f6b fabc cc0c 46bd 21bc 09bc a23c d1bb
000000a0: ceaf 343c 2e6c 113d dd83 c7bc c20e b73c
000000b0: b283 43bd 6d6d 58bd 4fff 933c 23b9 403c
000000c0: 0b7e 77bd 5144 0d3c b1fa 563d d260 1ebc
000000d0: 8afb 9b3d 90b1 8cbd f020 c0bc e081 5ebd
000000e0: 7cf5 b6bc 1d36 59bb b56b d4bc 1eff d1bb
000000f0: 1fad 01bd f6e0 023d c767 29bd 766e 47ba
00000100: 1d69 3fbd 533f f83b d854 633d 5bba 773c
00000110: 7160 3bbb 1851 773d 7d64 163d eb75 a13c
00000120: 679b 913d 5bf0 153d b358 f6bb 8cc8 813d
00000130: 856d d5bb 5c09 6a3c 48a8 683c b6c0 e3bc
00000140: 3133 26bd 2607 883d 48db 5cbd d421 b83b
00000150: b8bf 01bd 14c4 3cba 1f7e 7e3d 66e2 023d
00000160: 02a0 6bbd d665 50bd 1946 86bc 5de7 70bd
00000170: 26d9 8f3c 8af4 9a3d 4f5a 19bd 611b cb3c
00000180: e257 133d f404 fa3c 0352 063d 8151 4c3a
00000190: 06dc f6bb 4da4 a7bc 0f3f 9bbc 8b40 9ebd
000001a0: 5977 4f3b ad8f ef3c 9f30 a3bb 16ed 0ebd
000001b0: d2ea 063c 2506 733d 7eb3 f53c 5cc0 c13c
000001c0: 9a82 ca3c 20bf 953c 6f68 0c3d efb4 8a3d
000001d0: 000d 8ebd 1cf4 69bd b101 91bd 6ec5 84bd
000001e0: d6c7 1b3d 55f5 4dbc 8afc cabc c1b6 143b
000001f0: 00f1 903d 64cd a6bd 3321 803d f7da 863d
00000200: 8079 303d 52f2 a63d b490 87bd ac7b 22bd
00000210: 5796 1abc 4124 383d 43de 213d 2469 09bc
00000220: 3abd 423c ac46 2abd f7b0 083d 42f7 953d
00000230: 4268 a63d 8fe2 67bd 9595 63bd a1dd 863d
00000240: 61eb 01bd 869d aa3d c926 883d 61ee 2cbd
00000250: 4f53 38bd 7c13 573d 0f5f 1cbd 6918 003c
00000260: aa39 98bc e2dd 963b e046 b7bc 9dd4 8bbc
00000270: 744c 8d3d a70f 89bd 6cb8 29bd 58f9 a5bc
00000280: af41 f8bc d94d 55bd 9f3c 193a 36a0 5ebd
00000290: 763c ab3c 0fef 243d cb3c c33c add2 4bbd
000002a0: ba3a 243d cf16 8e3d 677a e2bc bf91 99ba
000002b0: c941 5dbd 08d5 5e3c ad13 e6bc c9ce 21bd
000002c0: d6ce b0bc b86f 753d e695 163d bcd9 ec3b
000002d0: c058 20bd be57 513d 9c77 45bd 141a 54bd
000002e0: caa8 0e3d 0c42 0b3b ba97 60bd 8d0c 96bd
000002f0: 15f0 87bd dd44 7bbd 5c5e 73bd b805 f53c
00000300: 1c19 aebc 5cca 64bd eb5c fabc fecd 96bc
00000310: 3d1e 8dbd 3bf6 21bd 27b1 d3bc fe32 a4bc
00000320: fef3 b53c f8b9 8a3d f68b 233d cde2 553d
00000330: 739e 7dbc 8b5b 233d 2623 2a3d 8d8f 443d
00000340: 0943 c53b ea33 c0bc 1294 cb3c 836c 763c
00000350: e785 50bd 84c6 643d 5a2b edbc 86ac 47bc
00000360: e773 95bc d6c2 d43c 14ad babc be83 073d
00000370: f1cd 583d 494b c9bb 9614 0dbd 4ac4 953d
00000380: d9c0 b2bc 771b abbc c3c4 893d b6f1 a33d
00000390: 7d35 843d 1983 69bd 1fd2 2c3d afcb 653c
000003a0: 8eaf 703c 86ea 50bd f398 7d3d f3ef c9bb
000003b0: 7929 603d 281a 23bc f7de 28bd 1d85 993d
000003c0: 225b 05bc 433b bcbc ac36 863d 5d0a c33c
000003d0: b1d7 15bd 212a 2b3d dd96 eabc 0c2e 3e3d
000003e0: 1971 8abd a1fe 91bc eb1b 813d b0ee 2c3d
000003f0: 124c 76bd 9300 01bd 1942 97bb d2e0 ad3c

model.2.weight f4 [120, 512]
-0.027510164 0.033546627 0.00015597626 -0.056011107 -0.023676736 0.044142317 0.020379843 -0.0074427263
-0.04706323 -0.031725265 -0.03252039 0.003685298 -0.03846871 -0.021420563 0.0034527448 -0.041438725
0.026488787 0.004970006 0.02504505 0.01700499 -0.007559476 0.030469252 -0.013499146 0.0151202995
0.0005324388 -0.03663318 -0.053952042 0.005221664 0.026156157 -0.014434149 0.035188578 -0.030190557
-0.002902029 0.0077139894 0.022706546 0.030985374 -0.010442826 -0.010964133 0.030329652 0.01403094
0.00038727908 -0.050566617 -0.03740913 0.009296685 -0.030702991 0.023808714 6.0534465e-05 -0.017866207
-0.016843626 0.024377765 0.012920998 0.014796794 -0.018297667 0.038417626 -0.033498045 0.031033648
-0.0023279116 -0.039695986 -0.026125176 -0.03975691 -0.025699846 -0.021820558 0.017155796 0.046564832
-0.0040702843 0.003653341 0.040578417 0.043819584 -0.0038141657 -0.039908964 0.029925285 -0.014882908
-0.00585846 0.021113416 0.03490319 -0.004082428 -0.017296376 0.024212703 0.015927963 0.035269763
0.00795547 -0.021690296 -0.03802093 -0.010802676 0.023989791 -0.023276106 -0.03123743 -0.06489713
0.03870749 -0.011557076 -0.0027824817 0.022272438 0.013611853 -0.011454487 0.004734107 0.046441067
-0.021230586 0.025003117 -0.0025780092 -0.014739143 0.006761967 0.04139568 0.027394192 -0.028238244
-0.017924171 -0.03507067 0.042187553 -0.012252173 0.032978363 0.0071057486 0.032690678 0.011638004
-0.023363493 0.02797174 0.034574494 -0.033560183 0.032051127 0.021681806 0.027217655 0.0049919873
-8.5140666e-05 0.032989297 0.014701006 -0.016909383 0.010652294 0.009701037 0.0014465924 -0.02161558
0.043822497 0.011544759 0.040263306 0.023890447 -0.025331687 0.023247628 0.03456851 -0.036076028
-0.074895136 -0.031925168 0.025714247 0.048029948 0.025115514 0.037321713 -0.026279354 -0.03218983
-0.04569643 -0.029707048 0.03286615 0.027238544 0.024427863 -0.043735445 0.040619344 -0.022566674
0.05185797 0.044878643 0.010707729 0.016477242 -0.0440196 0.003697814 0.0057166964 -0.011211221
0.00036019608 -0.036521398 0.010168105 0.012518104 -0.01491037 0.054793756 -0.028087422 0.05086605
-0.022594906 0.044194184 0.032040603 0.042753 -0.0061787777 0.010459252 0.044500586 0.030329226
0.003953408 -0.03928871 0.0028866613 -0.023388196 -0.014990566 0.043401398 0.037347633 0.00540519
0.016089778 0.039848085 0.015874045 -0.010280552 0.026535673 -0.028448787 0.0061287903 0.04711693
-0.053324327 0.010127087 -0.03371207 -0.037856277 -0.044416636 0.010425211 0.0038933237 -0.014938519
-0.013380586 0.0010695971 -0.05937331 -0.010327853 0.03893832 0.009056973 0.0024418444 -0.04365749
-0.057645433 0.004917492 0.051115014 0.0266638 -0.030915033 0.048338443 -0.03408339 0.012959583
-0.010953674 0.03312092 0.027004201 -0.018734243 0.041187678 0.023514094 -0.00096635136 -0.0054064947
0.002444811 -0.0068092113 0.015890792 -0.054951165 -0.041642044 0.001269102 -0.03276577 0.020645976
0.04050986 0.00083123636 0.055195257 -0.0027641263 0.0072304 -0.016446838 0.027636841 -0.015179439
0.007946055 -0.022477433 -0.0053380816 -0.013470766 0.034547623 -0.030048054 -0.007442104 0.011508984
-0.0039393287 -0.030751938 0.021355668 0.029461022 -0.005670987 0.01876861 -0.02273277 -0.026607502
00000000: ff5c e1bc 3068 093d 8f8d 2339 e76b 65bd
00000010: b7f5 c1bc 93ce 343d a1f3 a63c 1de2 f3bb
00000020: 60c5 40bd 5af2 01bd 1a34 05bd 0a85 713b
00000030: 5e91 1dbd 2d7a afbc 7247 623b a7bb 29bd
00000040: 03ff d83c 6fdb a23b 472b cd3c 0c4e 8b3c
00000050: 7bb5 f7bb a79a f93c 862b 5dbc 22bb 773c
00000060: 5d93 0b3a ac0c 16bd d1fc 5cbd 7e1a ab3b
00000070: 7045 d63c 357d 6cbc e621 103d 3052 f7bc
00000080: f82f 3ebb a2c5 fc3b 1403 ba3c 0ad5 fd3c
00000090: 6318 2bbc e8a2 33bc e475 f83c 07e2 653c
000000a0: b80b cb39 f11e 4fbd 513a 19bd 2051 183c
000000b0: d784 fbbc 7e0a c33c 63e6 7d38 275c 92bc
000000c0: a5fb 89bc e1b3 c73c 98b2 533c 416e 723c
000000d0: fde4 95bc cd5b 1d3d 3f35 09bd 473a fe3c
000000e0: e08f 18bb 4298 22bd 7704 d6bc 24d8 22bd
000000f0: 7c88 d2bc 07c1 b2bc 508a 8c3c c4ba 3e3d
00000100: 0560 85bb e46c 6f3b 8e35 263d 2a7c 333d
00000110: 15f7 79bb 9577 23bd df25 f53c 71d7 73bc
00000120: 53f8 bfbb 0bf6 ac3c a6f6 0e3d e3c5 85bb
00000130: 21b1 8dbc b859 c63c 5c7b 823c 0777 103d
00000140: a957 023c d9af b1bc d6bb 1bbd b5fd 30bc
00000150: 3d86 c43c 88ad bebc a4e5 ffbc c9e8 84bd
00000160: bf8b 1e3d e459 3dbc 4c5a 36bb b074 b63c
00000170: 4004 5f3c 9aab 3bbc 9120 9b3b fd38 3e3d
00000180: c4eb adbc 56d3 cc3c d1f3 28bb 727c 71bc
00000190: 7e93 dd3b 848e 293d c969 e03c e453 e7bc
000001a0: b6d5 92bc 43a6 0fbd dbcc 2c3d 57bd 48bc
000001b0: 5214 073d 57d7 e83b a9e6 053d 54ad 3e3c
000001c0: cc64 bfbc fe24 e53c fc9d 0d3d 6776 09bd
000001d0: 0b48 033d 0b9e b13c 8ff7 de3c d393 a33b
000001e0: 8c8d b2b8 c91f 073d 7ddc 703c 8c85 8abc
000001f0: f686 2e3c 19f1 1e3c 969b bd3a 2813 b1bc
00000200: 387f 333d 3b26 3d3c 23eb 243d e6b5 c33c
00000210: 6684 cfbc cf71 be3c b697 0d3d 75c4 13bd
00000220: 9f62 99bd f7c3 02bd afa6 d23c 0dbb 443d
00000230: 0dbf cd3c a7de 183d cd47 d7bc 7cd9 03bd
00000240: 2e2c 3bbd 325c f3bc a89e 063d 5e23 df3c
00000250: f11c c83c f023 33bd 7860 263d bfdd b8bc
00000260: 0669 543d abd2 373d 786f 2f3c 48fb 863c
00000270: e54d 34bd 0657 723b 2053 bb3b 45af 37bc
00000280: b3d8 bc39 7697 15bd 2098 263c bc18 4d3c
00000290: a04a 74bc 6b6f 603d 9817 e6bc eb58 503d
000002a0: f418 b9bc f604 353d 023d 033d c51d 2f3d
000002b0: 5877 cabb 485d 2b3c 3f46 363d ff74 f83c
000002c0: 978b 813b 33ed 20bd 242e 3d3b 9a98 bfbc
000002d0: fe9a 75bc aac5 313d d5f9 183d 051e b13b
000002e0: b6ce 833c bf37 233d 490a 823c c36f 28bc
000002f0: 5761 d93c 6e0d e9bc 05d4 c83b affd 403d
00000300: 9c6a 5abd 15ec 253c ab15 0abd 2f0f 1bbd
00000310: 38ee 35bd 81ce 2a3c 2227 7f3b b1c0 74bc
00000320: 3f3a 5bbc b931 8c3a 6e31 73bd 2836 29bc
00000330: ca7d 1f3d b363 143c 5a07 203b 32d2 32bd
00000340: 9e1d 6cbd ea22 a13b fa5d 513d 0b6e da3c
00000350: 8641 fdbc 88fe 453d 069b 0bbd 6e54 543c
00000360: 0a77 33bc cda9 073d ea37 dd3c 8e78 99bc
00000370: 69b4 283d a1a0 c03c be52 7dba f728 b1bb
00000380: 1f39 203b ce1f dfbb 682d 823c 7914 61bd
00000390: d990 2abd ff57 a63a 6635 06bd c021 a93c
000003a0: abed 253d 54e7 593a 6c14 623d 5826 35bb
000003b0: feec ec3b 85bb 86bc a866 e23c 2fb3 78bc
000003c0: 2c30 023c 9822 b8bc 13eb aebb 7db4 5cbc
000003d0: cf81 0d3d 5627 f6bc e5dc f3bb 2d90 3c3c
000003e0: 7c15 81bb 7deb fbbc 15f2 ae3c 3e58 f13c
000003f0: b0d3 b9bb a1c0 993c 133a babc faf7 d9bc

model.2.bias f4 [120]
-0.023645181 0.007339355 0.02953135 -0.034144297 0.03518728 -0.03054765 0.013426977 0.018751552
0.034243114 0.0014294467 0.02071099 -0.025181541 -0.029024664 0.031000711 0.008904908 0.020640725
-0.0027136556 -0.04051107 0.053817667 0.0020841083 0.004327081 -0.006711336 0.034993324 0.037202757
-0.011455303 0.007706559 0.0037288012 0.03831436 0.00950552 -0.019652093 -0.00014167203 0.016878163
0.045134645 -0.028245712 -0.031801924 0.01512406 0.035663847 -0.027671406 -0.008349111 -0.027730865
0.0015442804 -0.017218709 0.015050545 0.043808006 0.033962015 0.036284905 0.0006191922 0.03568506
-0.013536848 0.026963597 0.009108505 0.0019006251 0.0075894236 -0.032989055 -0.02650922 -0.022417234
0.0021505945 0.02329688 0.024959583 0.007989696 0.035736963 0.030053286 0.041012682 0.005284228
0.026262192 -0.012040132 0.041375116 -0.040863376 -0.010994145 0.030124 0.04393911 0.014051447
0.042490706 -0.034879643 0.049013272 -0.018393693 -0.016685223 0.04024442 0.010113851 -0.033052556
-0.018522605 0.025120119 0.0071491767 0.036575615 -0.02368749 0.025579639 0.039250366 -0.02746328
0.03094297 -0.021014377 -0.032092754 0.019930743 -0.014490689 -0.026805673 -0.005678368 -0.0106668575
-0.035899386 -0.012230056 -0.0042929435 -0.01366364 0.02097866 0.041391023 -0.023550695 -0.031360056
-0.0177968 0.013826099 0.049574547 -0.00093217514 0.0071083293 0.03992702 -0.0014001487 -0.018036082
0.008511071 0.0387852 -0.0035710395 0.0073875645 -0.025915792 0.016846677 0.04941535 -0.009616985
00000000: 8ab3 c1bc f97e f03b bbeb f13c e4da 0bbd
00000010: 8a20 103d 113f fabc d3fc 5b3c db9c 993c
00000020: 8242 0c3d 465c bb3a 18aa a93c 8549 cebc
00000030: 22c5 edbc 34f5 fd3c e4e5 113c bd16 a93c
00000040: 96d7 31bb f0ee 25bd ea6f 5c3d 8995 083b
00000050: 30ca 8d3b c4ea dbbb 2955 0f3d eb61 183d
00000060: 06af 3bbc 4d87 fc3b e75e 743b 85ef 1c3d
00000070: 0abd 1b3c 6dfd a0bc cc8d 14b9 1344 8a3c
00000080: 1bdf 383d 8d63 e7bc bc42 02bd e8ca 773c
00000090: 4114 123d 25af e2bc b6ca 08bc d72b e3bc
000000a0: 7469 ca3a 400e 8dbc 9096 763c 0670 333d
000000b0: c11b 0b3d 7b9f 143d 4951 223a 7f2a 123d
000000c0: a8c9 5dbc c3e2 dc3c d73b 153c 651e f93a
000000d0: b3b0 f83b 881f 07bd dd29 d9bc 59a4 b7bc
000000e0: fdf0 0c3b 19d9 be3c 0a78 cc3c 37e7 023c
000000f0: ec60 123d 4f32 f63c eafc 273d 5127 ad3b
00000100: cf23 d73c f943 45bc f478 293d 5b60 27bd
00000110: c920 34bc 9bc6 f63c 7ff9 333d 0a38 663c
00000120: bc0a 2e3d f5dd 0ebd 24c2 483d 5fae 96bc
00000130: 73af 88bc 55d7 243d 91b4 253c 1e62 07bd
00000140: b8bc 97bc b5c8 cd3c a443 ea3b 50d0 153d
00000150: 440c c2bc 648c d13c fec4 203d acfa e0bc
00000160: 1d7c fd3c 5826 acbc b173 03bd cc45 a33c
00000170: 5b6a 6dbc 9297 dbbc 9a11 babb 0bc4 2ebc
00000180: 3c0b 13bd 9360 48bc d2ab 8cbb 76dd 5fbc
00000190: 70db ab3c a289 293d 63ed c0bc 6773 00bd
000001a0: 98ca 91bc dd86 623c ae0e 4b3d 375d 74ba
000001b0: fdec e83b 848a 233d 3285 b7ba 68c0 93bc
000001c0: 0572 0b3c 3bdd 1e3d 1a08 6abb 6213 f23b
000001d0: 5b4d d4bc 0b02 8a3c c067 4a3d 8f90 1dbc
