checkpoints/test1_CycleNet_solar_data_bs16_ftMS_sl192_ll48_pl12/checkpoint.pth (torch, 423463 bytes, 5 tensors)

cycleQueue.data f4 [24, 12]
00000000: 0000 0000 0000 0000 0000 0000 0000 0000
00000010: 0000 0000 0000 0000 0000 0000 0000 0000
00000020: 0000 0000 0000 0000 0000 0000 432f 323c
00000030: 0000 0000 0000 0000 0000 0000 0000 0000
00000040: 0000 0000 0000 0000 0000 0000 0000 0000
00000050: 0000 0000 0000 0000 0000 0000 37b7 863a
00000060: 0000 0000 0000 0000 0000 0000 0000 0000
00000070: 0000 0000 0000 0000 0000 0000 0000 0000
00000080: 0000 0000 0000 0000 0000 0000 4c8f 6d3b
00000090: 0000 0000 0000 0000 0000 0000 0000 0000
000000a0: 0000 0000 0000 0000 0000 0000 0000 0000
000000b0: 0000 0000 0000 0000 0000 0000 217d da3b
000000c0: 0000 0000 0000 0000 0000 0000 0000 0000
000000d0: 0000 0000 0000 0000 0000 0000 0000 0000
000000e0: 0000 0000 0000 0000 0000 0000 cd67 ad3c
000000f0: 0000 0000 0000 0000 0000 0000 0000 0000
00000100: 0000 0000 0000 0000 0000 0000 0000 0000
00000110: 0000 0000 0000 0000 0000 0000 43d4 20bc
00000120: 0000 0000 0000 0000 0000 0000 0000 0000
00000130: 0000 0000 0000 0000 0000 0000 0000 0000
00000140: 0000 0000 0000 0000 0000 0000 e88e bebc
00000150: 0000 0000 0000 0000 0000 0000 0000 0000
00000160: 0000 0000 0000 0000 0000 0000 0000 0000
00000170: 0000 0000 0000 0000 0000 0000 bb69 443b
00000180: 0000 0000 0000 0000 0000 0000 0000 0000
00000190: 0000 0000 0000 0000 0000 0000 0000 0000
000001a0: 0000 0000 0000 0000 0000 0000 539d 1c3d
000001b0: 0000 0000 0000 0000 0000 0000 0000 0000
000001c0: 0000 0000 0000 0000 0000 0000 0000 0000
000001d0: 0000 0000 0000 0000 0000 0000 bf5e b63c
000001e0: 0000 0000 0000 0000 0000 0000 0000 0000
000001f0: 0000 0000 0000 0000 0000 0000 0000 0000
00000200: 0000 0000 0000 0000 0000 0000 0f68 843a
00000210: 0000 0000 0000 0000 0000 0000 0000 0000
00000220: 0000 0000 0000 0000 0000 0000 0000 0000
00000230: 0000 0000 0000 0000 0000 0000 8b49 443d
00000240: 0000 0000 0000 0000 0000 0000 0000 0000
00000250: 0000 0000 0000 0000 0000 0000 0000 0000
00000260: 0000 0000 0000 0000 0000 0000 e728 db3c
00000270: 0000 0000 0000 0000 0000 0000 0000 0000
00000280: 0000 0000 0000 0000 0000 0000 0000 0000
00000290: 0000 0000 0000 0000 0000 0000 f63a cd39
000002a0: 0000 0000 0000 0000 0000 0000 0000 0000
000002b0: 0000 0000 0000 0000 0000 0000 0000 0000
000002c0: 0000 0000 0000 0000 0000 0000 a5c3 e33c
000002d0: 0000 0000 0000 0000 0000 0000 0000 0000
000002e0: 0000 0000 0000 0000 0000 0000 0000 0000
000002f0: 0000 0000 0000 0000 0000 0000 d73d 033d
00000300: 0000 0000 0000 0000 0000 0000 0000 0000
00000310: 0000 0000 0000 0000 0000 0000 0000 0000
00000320: 0000 0000 0000 0000 0000 0000 1d7f dabb
00000330: 0000 0000 0000 0000 0000 0000 0000 0000
00000340: 0000 0000 0000 0000 0000 0000 0000 0000
00000350: 0000 0000 0000 0000 0000 0000 3c32 b7bc
00000360: 0000 0000 0000 0000 0000 0000 0000 0000
00000370: 0000 0000 0000 0000 0000 0000 0000 0000
00000380: 0000 0000 0000 0000 0000 0000 e476 4fbc
00000390: 0000 0000 0000 0000 0000 0000 0000 0000
000003a0: 0000 0000 0000 0000 0000 0000 0000 0000
000003b0: 0000 0000 0000 0000 0000 0000 9cdc 993c
000003c0: 0000 0000 0000 0000 0000 0000 0000 0000
000003d0: 0000 0000 0000 0000 0000 0000 0000 0000
000003e0: 0000 0000 0000 0000 0000 0000 4921 b13c
000003f0: 0000 0000 0000 0000 0000 0000 0000 0000
0.0 0.0 0.0 0.0 0.0 0.0 0.0 0.0
0.0 0.0 0.0 0.010875526 0.0 0.0 0.0 0.0
0.0 0.0 0.0 0.0 0.0 0.0 0.0 0.0010277991
0.0 0.0 0.0 0.0 0.0 0.0 0.0 0.0
0.0 0.0 0.0 0.0036248742 0.0 0.0 0.0 0.0
0.0 0.0 0.0 0.0 0.0 0.0 0.0 0.0066677486
0.0 0.0 0.0 0.0 0.0 0.0 0.0 0.0
0.0 0.0 0.0 0.02116766 0.0 0.0 0.0 0.0
0.0 0.0 0.0 0.0 0.0 0.0 0.0 -0.009816232
0.0 0.0 0.0 0.0 0.0 0.0 0.0 0.0
0.0 0.0 0.0 -0.023261502 0.0 0.0 0.0 0.0
0.0 0.0 0.0 0.0 0.0 0.0 0.0 0.0029970247
0.0 0.0 0.0 0.0 0.0 0.0 0.0 0.0
0.0 0.0 0.0 0.038235974 0.0 0.0 0.0 0.0
0.0 0.0 0.0 0.0 0.0 0.0 0.0 0.022261975
0.0 0.0 0.0 0.0 0.0 0.0 0.0 0.0
0.0 0.0 0.0 0.0010101813 0.0 0.0 0.0 0.0
0.0 0.0 0.0 0.0 0.0 0.0 0.0 0.0479217
0.0 0.0 0.0 0.0 0.0 0.0 0.0 0.0
0.0 0.0 0.0 0.026752902 0.0 0.0 0.0 0.0
0.0 0.0 0.0 0.0 0.0 0.0 0.0 0.00039144576
0.0 0.0 0.0 0.0 0.0 0.0 0.0 0.0
0.0 0.0 0.0 0.027803252 0.0 0.0 0.0 0.0
0.0 0.0 0.0 0.0 0.0 0.0 0.0 0.032041397
0.0 0.0 0.0 0.0 0.0 0.0 0.0 0.0
0.0 0.0 0.0 -0.006667985 0.0 0.0 0.0 0.0
0.0 0.0 0.0 0.0 0.0 0.0 0.0 -0.02236282
0.0 0.0 0.0 0.0 0.0 0.0 0.0 0.0
0.0 0.0 0.0 -0.012662623 0.0 0.0 0.0 0.0
0.0 0.0 0.0 0.0 0.0 0.0 0.0 0.018781953
0.0 0.0 0.0 0.0 0.0 0.0 0.0 0.0
0.0 0.0 0.0 0.021622317 0.0 0.0 0.0 0.0

model.0.weight f4 [512, 192]
00000000: 0309 0c3c 1da8 56bd 7b08 15bd 616b 29bd
00000010: 2700 48bc 94b5 83bd c96c 093d c580 f3bc
00000020: 929a 02bd 83df 573d 0fc0 2b3d f293 3f3d
00000030: 438b 7d3d b200 9d3d 59f5 e73c db89 853d
00000040: 3d6a 73bd 038d 96bc 18c5 f83c d195 5ebd
00000050: eacc e93b c217 543d e9d8 b73c ce1d 5b3d
00000060: fd83 433d b92c a23d 0ab1 093b 5e50 773c
00000070: 6594 b1bc f6a1 7d3d ab13 7c3d 563a c8bc
00000080: 65b9 1abd a5c6 943d fb37 21bd 5274 ddbc
00000090: b393 ce3c 73ef 033d aa4e 633c 8bdb 17bc
000000a0: 77b4 4ebd d78e 053a 3d27 b7bc 331d adbc
000000b0: 3e20 623d 11ad cbbb 7066 5fbd 9876 853d
000000c0: 7a60 2fbb 47ff 7dbd 2e8d dabc 8218 71bd
000000d0: e074 81ba 6e01 d2bc 4989 09bd 5628 473d
000000e0: 1f89 e139 6aad 853d 9798 6c3d bc42 3a3d
000000f0: e0e2 81bd 95bd 18bd 2683 f9bc 267c 47bb
00000100: 94a6 6dbd 29a2 80bd cd77 89bd 9d58 0fbd
00000110: f77a 4c3d 839b c13c 5f5b 6f3d ad3b 2a3d
00000120: f0ff 5a3d d4a5 833d fea3 963c 4654 12bd
00000130: a58f 06bc ad1a 48bd 4156 063d 7233 663d
00000140: fdfa dfbc b452 1fbd 736e ff3c 93d9 a93c
00000150: 0b69 df3c b882 403d 1ea4 79bd 43e9 9ebc
00000160: b1cf f63c 49b6 a73c 1634 bb3c cb21 01bd
00000170: c4f6 823c 9ea9 9bbd 5ff0 43bd 24ae 41bd
00000180: d873 453d bfbd 58bc 6dd4 94bd ca53 40bd
00000190: f381 2c3c dcdb 743d f508 1e3d 5b50 153c
000001a0: 69e2 f2bc 7089 743d 6efd 08bd b2d0 b43d
000001b0: b0b9 463b 548c 89bc 88dd a83d bd5e 80bd
000001c0: 2851 57bd 0f64 1abd 8f50 3cbc a094 eabb
000001d0: b336 7abd 3280 523d f7bf 85bc 81da 7c3b
000001e0: 21fa 2ebd a571 67bc 6844 253d 51b9 a83c
000001f0: 14fc 23bd 7fcd 05bd 7ef0 9a3c 6a37 08bc
00000200: ad22 11bd 92f2 243d 2847 613d 61d7 0dbd
00000210: 36e3 883d 6711 2d3d 0102 f23c 56ce 12bd
00000220: 17dd 643d ee5b 76bd 3ab0 1b3d b7ed 8fbd
00000230: 70b1 12bd 2219 4cbc b71a bdbc 06b7 ad3c
00000240: 8ff1 773c 65e1 5c3d acfb 8b3d bb0e 4ebd
00000250: f11a dc3c 6622 85bd b84f adbc b614 803c
00000260: 5322 0cbd 8fdf 193c 5b97 bf3c 28a2 bb3c
00000270: 5e27 c83c 144f 4d3d b42f 8cbb f8c0 f1bc
00000280: c1d9 56bc 108e a0bd 71a0 cc3c 8798 10bd
00000290: ece0 10bd c5e0 973c 78d0 993c 7403 1ebd
000002a0: 98ac 05bd e626 21bc 7229 01bd e84f 95bd
000002b0: 014a 3e3d 74c6 413c 2e9c dc3c adf5 b9bc
000002c0: f988 69bc 580a fb3c ca30 f83c b897 8cbd
000002d0: 933d 493c a29f 703d cb2c 363d 55ad 513d
000002e0: 351e 2c3d 564e e43c f7ff 7fbd 07d2 503c
000002f0: 93f3 7ebd d092 1cbd 645d e6bc ce14 d9bb
00000300: fd88 82bd 1ad9 1c3b fd22 c8bc 4373 503d
00000310: 9556 0abd 701f bdbc de77 74bd 2a8c 893d
00000320: dbec af3c d1e7 b5bc 38fa 943d 2ad7 713d
00000330: ecb9 d4bc a411 fe3c 462c c2bb cf64 5dbd
00000340: b9f4 d63c 3670 7fbb 465f acbb 6130 aebc
00000350: aba1 f13c c920 01bd b3af b93b f7a3 0cbd
00000360: 46d0 9dbd 2801 993c bd2a 863d 750a 48bd
00000370: 91a1 f2bb 2d3b 98bc 4dc2 0d3d 96c1 963d
00000380: a8e5 183d 54e8 7abd a45f 503d 6fc5 43bd
00000390: ae6e 87bd 628d 14bd 1ec1 08bd 9531 7e3d
000003a0: ce2c 9cbc ace0 a8b9 d069 33bd 59b2 7bbd
000003b0: 94f7 6cbd 1492 5ebb f9e2 0ebd 2640 d4bc
000003c0: bb5b 1c3c 4746 86bd 570d 5dbd a284 643d
000003d0: e6d5 483d 188a 17bd e8c7 8bbc 72e6 25bd
000003e0: 8990 4a3d 7248 3e3d 1001 57bd bd9b 29bd
000003f0: c2cc babb eae2 71bc b907 753d d2c7 3c3d
0.00854707 -0.05240642 -0.03638504 -0.04136217 -0.012207068 -0.06431118 0.03355101 -0.029724488
-0.03188569 0.05270339 0.04193121 0.04677195 0.06190039 0.07666148 0.028315233 0.065204345
-0.05942749 -0.018377787 0.03036742 -0.054342095 0.0071350234 0.05178047 0.022442298 0.05349522
0.047733296 0.079186864 0.0021010065 0.015094845 -0.021677205 0.061922036 0.061542194 -0.02444188
-0.037774462 0.07264451 -0.039360028 -0.027033005 0.025216913 0.03221078 0.013873735 -0.009268652
-0.050465073 0.0005094832 -0.022357577 -0.021132087 0.05520653 -0.0062156995 -0.05454105 0.065167606
-0.0026760385 -0.06201103 -0.026678648 -0.058861263 -0.000987675 -0.025635447 -0.03357819 0.04862245
0.00043017507 0.06527217 0.05776271 0.0454738 -0.06342101 -0.037290175 -0.030458044 -0.0030438988
-0.05802019 -0.062809296 -0.06712303 -0.034996618 0.049921956 0.023633724 0.058436748 0.041560818
0.053466737 0.064281136 0.018388744 -0.0357249 -0.008212958 -0.048853565 0.032797102 0.056201406
-0.02734136 -0.03889723 0.031180596 0.02073363 0.027271768 0.046999663 -0.06094753 -0.019398337
0.030128332 0.020472663 0.022851985 -0.031526368 0.015986808 -0.07600711 -0.047836658 -0.047285214
0.04820618 -0.013228833 -0.072670795 -0.046954907 0.010529029 0.059779987 0.03858276 0.0091133965
-0.029648976 0.059701383 -0.033444814 0.08828868 0.003032308 -0.016790546 0.08245379 -0.0626807
-0.05256763 -0.03769308 -0.011493816 -0.0071588308 -0.06108732 0.051391788 -0.016326888 0.0038582387
-0.04271901 -0.014126216 0.04034844 0.020596178 -0.040035322 -0.03266668 0.018913504 -0.008313993
-0.03543346 0.040270396 0.0549995 -0.03462923 0.06683962 0.042252924 0.029541971 -0.03584131
0.05587491 -0.060146265 0.03800986 -0.070277624 -0.03581375 -0.012457164 -0.023084028 0.021205436
0.015133276 0.05392589 0.06835112 -0.050307017 0.026868315 -0.065007016 -0.021156177 0.015634876
-0.03421242 0.009391679 0.023387602 0.02290447 0.024432834 0.050124243 -0.0042781476 -0.02951096
-0.01311344 -0.07839596 0.024978848 -0.03530171 -0.035370752 0.018539796 0.018776163 -0.038577512
-0.0326353 -0.009835934 -0.031533666 -0.072906315 0.046457294 0.0118271 0.026929941 -0.022700155
-0.014253848 0.03064458 0.030296702 -0.068648756 0.012282747 0.058745988 0.04447631 0.051190693
0.042020995 0.027869385 -0.062499966 0.012745387 -0.06224401 -0.03822595 -0.028120704 -0.0066247946
-0.06373785 0.0023933114 -0.024430746 0.050891172 -0.033773977 -0.02308628 -0.059684627 0.06716187
0.021475246 -0.022205265 0.07274288 0.059043087 -0.02596756 0.031014271 -0.005925688 -0.054051217
0.02623974 -0.0038976795 -0.005260381 -0.021263303 0.029496035 -0.031525407 0.005666697 -0.034336057
-0.07705741 0.01867731 0.065511204 -0.048838098 -0.007404514 -0.018582905 0.034609128 0.07361142
0.037328392 -0.06125672 0.05087246 -0.04779571 -0.06612907 -0.036267646 -0.033387296 0.062059004
-0.019064333 -0.0003221085 -0.043802083 -0.061449382 -0.057853296 -0.003396158 -0.034884427 -0.025909495
0.009543355 -0.06556373 -0.0539678 0.05579055 0.049032114 -0.03699693 -0.017063096 -0.040502973
0.049454246 0.046455808 -0.052491248 -0.04140829 -0.0057006786 -0.014763573 0.059821818 0.046089

model.0.bias f4 [512]
00000000: 7a57 14bd 0837 5f3d f4ba f03c deec b93d
00000010: 278b 40bd ddc7 813c 271e a33c e941 663c
00000020: b99d 233d 3de8 0a3b bc00 68bd 0dc2 a93a
00000030: e5ef c8bc d05f 713d 29d3 8a3d 37ec 3b3c
00000040: c86d 35bd bf56 463d 76d9 d03b 3d01 40bd
00000050: 00cb d2bb 49a1 413d b268 f9bc fbc3 23bd
00000060: de56 33bc a01f 10bd be1d a8bc ac9d 4a3b
00000070: 001e 60bd 41c8 3c3c befb 2ebd b966 3c3c
00000080: e527 79bd 22fc 453d 286c 823d fb60 6abd
00000090: 7183 edbc be01 e8bc ed0f 30bc c27b b1ba
000000a0: f677 5139 9e54 a03d 5608 723d 1cfe 853c
000000b0: 3edc 75bc 8f21 aabc 7242 663d aa59 753d
000000c0: 67bf 973c 0887 09bc f0b6 953d 128b 56bd
000000d0: 282d 3cbd c15d deba 835c 4abd 7e63 e0bc
000000e0: 7630 1abd 2b1c 1c3c f8d0 1b3d 5090 843c
000000f0: 2a76 72bd e15a 5bbd dc1a 7bbc f15b 3abd
00000100: f548 84bd 137f 143d 88b6 883d 238e 143d
00000110: 595c 5b3c 2f65 693d ddcb 653a a22a 4eba
00000120: 90e0 6ebd f479 73bd fc1a 41bd 3d47 1ebc
00000130: 5001 153d 4f2f 383c 35d7 7ebd 6c88 8cbc
00000140: b3b9 cfbc 5938 8cbc 7da7 d5bc 2c7c f33c
00000150: 5544 f03c 9940 53bd e46e 753d 9d91 e83c
00000160: f812 16bd 46de 5e3d 639e 473c f958 50bd
00000170: d2dc 24bd 1a8d a43c e5a7 0e3d 4c8c 3c3d
00000180: c980 1fbc 894b d239 2408 463c 2185 b93c
00000190: 364b 6ebd b007 69bd be61 803b 2071 a0bc
000001a0: 72af cb3c 5a5c 61bd de87 173d 6b4f e3bc
000001b0: 5874 6e3c 3f71 ab3c 5dec 14bd 03c9 d4bc
000001c0: 97db 093d b4bf 803d 7c95 0ebd cbd0 a6ba
000001d0: ffbf d9bc 4dcd 9cbc 38f3 473d e26c a83b
000001e0: 259a 03bc a22c 89bd cc47 513c 7e7a 81bd
000001f0: 7839 7cbd e942 ea3c f95b 123d f8f9 b13c
00000200: 8d98 013c 7199 973d b6de c23c de87 7bbd
00000210: f14d c53a b232 d73c 613c 5a3b 2605 223d
00000220: aa59 d8bc 0a27 2f3d 981e 57bd 7749 813d
00000230: e6c5 81bd c8c1 853d 4ab9 2f3d 251d 4d3d
00000240: a603 c63c 0948 ddbc 37ad 043d 7845 91bd
00000250: 5b97 143d 0ddc e1bc 41b1 a2bc 90e6 3cbd
00000260: 83ac 263d ab94 81bd a26f 5a3d 022a 5b3d
00000270: 22d3 24bd 47a7 993c 5a38 8a3d c4bf 9e3c
00000280: 2509 eabc 6e0b 583d 3836 2f3c d0ca 2d3d
00000290: a01d 463c 8df8 acbc 3e59 26b9 f71d af3c
000002a0: 2b1c 25bc 451b 4ebd 17d9 c4bb d692 81bd
000002b0: f99d 40bc 308f d5ba baf1 adbc 5eb9 aebc
000002c0: 2d09 323d be8e c03c 62d8 76bd 4d1b 0b3c
000002d0: ed14 20bd 5713 67bd e4c4 d93c 395c 64bd
000002e0: 014b fc3c 14b0 663c 3be6 f8bc b4b6 1a3d
000002f0: a54d 2e3d 02f7 483d a9f4 1a3d 1442 58bd
00000300: ab09 febc c264 c6bb a7cb d5bc 8fb9 33bc
00000310: 0225 57bd 9dd0 963c b457 523c cd9a 60bb
00000320: 9085 64bd 9e02 783d 3471 55bd bca4 6b3c
00000330: 91cf 0cbd ccb5 05bd 21cc 3e3d f7d2 6abd
00000340: 910c 23bc 3958 a13c 9f7c 12bc 5a45 87bd
00000350: c4bf 32bd 46e2 28bc cb38 47bd c45b a03c
00000360: 9c56 2f3d a72c ae3d c701 7bbd e820 603d
00000370: 5a43 26bd 5876 273d 28ce 833d 7043 10bd
00000380: c728 1aba f97d 08bd dff7 2a3c 138b 8b3d
00000390: aa7d 233d a6c3 063c 900a 963b c023 293d
000003a0: 60e5 bb3c 3561 053b 480f 58bd 9b2e d4bc
000003b0: b820 99bd fa9e 5a3c 2325 ad3d 3f74 9c3d
000003c0: 1043 1e3d 793d fe3c 71ec 8ebd b983 8f3d
000003d0: 2415 d9bc 1997 4bbd 3a43 0abc e153 833c
000003e0: 015d 46bb 4463 c4bc 84ff 14bb 4bc0 ba3d
000003f0: 7748 9abb 8184 8f3c 96c8 803d 1438 3f3d
-0.036216237 0.05449584 0.029386021 0.09078382 -0.047007706 0.015842373 0.019911839 0.0140538
0.039945338 0.0021195554 -0.056641325 0.0012951508 -0.024528453 0.058929265 0.06778557 0.011469892
-0.04429415 0.04842257 0.0063735796 -0.04687618 -0.006432891 0.047272954 -0.03044543 -0.039981823
-0.010946004 -0.03518641 -0.020521995 0.0030916734 -0.05471611 0.011522354 -0.04272055 0.0114991
-0.060829062 0.048336156 0.063682854 -0.057221394 -0.02899334 -0.028321143 -0.0107459845 -0.0013540911
0.00019976482 0.078286394 0.05908998 0.01635652 -0.015006123 -0.020767955 0.05621571 0.059899963
0.018523885 -0.00839401 0.07310283 -0.05237872 -0.0459415 -0.0016965197 -0.049404632 -0.027391192
-0.037643872 0.0095282 0.038041085 0.016182095 -0.05919472 -0.053553466 -0.015326228 -0.04549784
-0.06459228 0.036254 0.0667544 0.036268365 0.013388717 0.05698126 0.0008766035 -0.0007864629
-0.05831963 -0.059442475 -0.047144875 -0.009660539 0.036378205 0.011241748 -0.062216956 -0.017154895
-0.025357103 -0.017116712 -0.026080841 0.029722296 0.029329458 -0.051575277 0.059920207 0.028389746
-0.036639184 0.054411195 0.012183758 -0.0508661 -0.040249653 0.020086814 0.034828085 0.046032235
-0.009735295 0.000401106 0.012086902 0.022646489 -0.058177195 -0.056892097 0.003917902 -0.019585192
0.024863932 -0.055019714 0.036994807 -0.02774783 0.014554106 0.020928023 -0.036358226 -0.025974756
0.033656683 0.062865645 -0.03481053 -0.001272702 -0.026580809 -0.019140864 0.048815936 0.005139933
-0.008032356 -0.06697966 0.012773465 -0.06322192 -0.061578244 0.028596358 0.035732243 0.02172564
0.007909906 0.074023135 0.023787837 -0.06140887 0.0015053136 0.02626929 0.0033300149 0.03955569
-0.026409943 0.04276184 -0.05251941 0.063128404 -0.06336574 0.065311015 0.042901315 0.050076623
0.024171662 -0.027011888 0.032391753 -0.07093328 0.036277156 -0.027570749 -0.019859912 -0.04611832
0.040691864 -0.06327184 0.053329118 0.05350686 -0.040240414 0.018756522 0.067490295 0.01937855
-0.028568814 0.052745275 0.010694079 0.042429745 0.012092024 -0.021114612 -0.00015864239 0.021376593
-0.010077517 -0.050318975 -0.0060073244 -0.06326835 -0.011756414 -0.0016293284 -0.021233428 -0.021328624
0.043465782 0.023505565 -0.060264952 0.008490396 -0.039082456 -0.05641493 0.026583143 -0.055752013
0.030797483 0.014080066 -0.03038322 0.037771896 0.042554516 0.04906369 0.037830982 -0.052797392
-0.03101047 -0.0060544917 -0.026098086 -0.010969534 -0.052525528 0.018410021 0.012838293 -0.0034271956
-0.055791438 0.06054937 -0.052109912 0.014382537 -0.03437764 -0.032644078 0.04658139 -0.057330098
-0.0099517265 0.019695388 -0.008940845 -0.06605025 -0.043639913 -0.010307854 -0.048638146 0.019575007
0.042807207 0.085046105 -0.061280992 0.05471888 -0.040591575 0.040884346 0.064358056 -0.035220563
-0.000588071 -0.033323262 0.010435074 0.06813636 0.039914764 0.008225357 0.004578896 0.04129386
0.022936523 0.002035213 -0.05274895 -0.02590113 -0.07476944 0.013343567 0.08454349 0.0763936
0.038638175 0.031035172 -0.06978691 0.07007546 -0.026499338 -0.049704645 -0.00843888 0.016031208
-0.0030267837 -0.023973115 -0.0022735307 0.09118708 -0.0047083455 0.017519237 0.06288259 0.04668434

model.2.weight f4 [12, 512]
00000000: 4246 49bb e24e a53c 6267 0a3d c82a ffbc
00000010: 3633 bfbc d5b4 9abc b7d4 6abc c455 1dbc
00000020: 669f 3a3d cda8 0e3d b8b3 123d eeec cb3c
00000030: f6c2 edba 7f78 b8ba d91b 5ebc 749c f43c
00000040: 0af1 353c d327 1fbc bd1e ba3c 0362 f73a
00000050: a62e a43b 1c47 32bb 039e 1e3d e480 91bc
00000060: 24c4 f43b 1814 07bc 5af1 e93b 88f9 763c
00000070: ea1d b83c 9685 82bc 1be9 3abc 88bb 55bc
00000080: 93ca b2bc 90d4 b93c 4bbb 3d3d 5360 e93c
00000090: e3a3 68bc cd1a 0b3c ad6a f1bb 3f34 febc
000000a0: a3f6 88bc fa55 bdbc b4a2 3c3d 4634 97bc
000000b0: 4162 053c dadc 45bc 7c26 02bc eb79 7a3b
000000c0: 054d bebb aea8 a23c 51fa b3bc bc6b 913b
000000d0: 8643 643c 3e91 fabc c569 b83c a88e 743c
000000e0: 0f4b d9bb 6f93 933b 1892 8fba 05a4 c7bc
000000f0: 4ba7 f63c 2e6a e43c d35b 7d3d 5068 ec3c
00000100: dfe5 0bbc 2efd 0b3b 62ca 9e3c 61d6 ac3c
00000110: 48be f53c a796 863c 27f6 963c fec9 1dbd
00000120: e051 b63b 7e3c 5b3c 0d23 293a 2499 613c
00000130: 9bca 0a3d e33b 443b 6695 263d 7d05 c7bc
00000140: 2405 42bc 49f4 2cbc 886c 35bd 2991 763c
00000150: 9d82 083c b2bb 96bc 6bdc ba3c 5ec3 cd3b
00000160: 30db 6cbd a539 283d 4409 f4bc 0cb2 96bb
00000170: e519 50bc b260 dabc 0b85 04bb 0633 5d3b
00000180: 50a7 31bb 7de6 0e3d 5089 e43c e851 46bd
00000190: 2e2a 703a 4e63 0a3d 6343 febc faa9 093c
000001a0: 48d5 1b3d 915d dd3c fd10 e83c 31ff 4e3c
000001b0: 646e 4bbc 6720 ce3c 7f7d 433c aff0 67bc
000001c0: 838f a0bc 35c5 c8bc 4a47 e73c 2e1e 22bd
000001d0: 9395 093c 1ae7 1fbd e859 fabc db74 98bc
000001e0: fa5c f7bb bcaa a2b9 fd19 9c3c 52f1 2c3d
000001f0: 7900 96bb 0f09 3bbd abe4 acbc d13b f33c
00000200: 743e 3bbd b665 c6bb 8f30 eb3c 1a25 4dbd
00000210: d340 47bc ccdb 1a3c 5295 123d 8e25 54bd
00000220: 31b9 bcbc 55b7 b53c cd2c 873c e188 29ba
00000230: f2de c03c 6962 c73c 7004 b4bc a30e b6b9
00000240: 5caa f9bb c7be b03c 4fcd eb3c 209b 4c3c
00000250: c092 453d c8b0 c03c 926b e9bb 05c4 393d
00000260: e97d b73c 43c0 3e3d 877d 99bc dcd0 603b
00000270: ba85 fabb c9d5 b13c f3ac 9c3c 96c6 0b3d
00000280: 9462 bd3c a99a 5fbd 558a 9c3c 1aa7 133d
00000290: e8ba 77bc 2630 dfbc c28d 3f3d 0aea cb3c
000002a0: d33b 74bc 71cd 9cbc 6797 413d e87a 883c
000002b0: de93 09bd c13b 1cbd 0acf 17bd 7608 2a3b
000002c0: a1d4 18b9 f845 f7bc 8522 ff3b d12e 9fbc
000002d0: 966e e5ba b3f1 fcbc cb4d 233d c546 2bbd
000002e0: 34f5 dc3c 5d2b 2b3d 6d61 6c3c 5740 7b3b
000002f0: 42f8 d73c 6f40 8c3c ed22 3dbd 6480 b7bc
00000300: 7b93 a63c 30f0 15bd daaa 113d d158 83bb
00000310: 3af1 d3bb c972 f63c b568 14bc 2d12 30bd
00000320: cd78 9e3c f681 a73c a971 09bd e45b a53c
00000330: d662 4bbd 18b2 c6bc 8b99 e43b aa17 43bd
00000340: 75c7 0cbd 5a1c 283d da5a bc3b 7f8c c4bc
00000350: 0dd8 4f3d d6ce 63bc 8163 9abc c8ba ad3c
00000360: 3180 b03b 0a2e 49bb 9061 c2bc 0900 413c
00000370: ea06 b33c 56d0 313c 75b7 cdbc 7020 86bc
00000380: e05e f83b 922d 7c3d 4208 303d eee3 47bc
00000390: 765f f0ba 7a5d 52bc 826e 8d3c eddb 423c
000003a0: 1e69 d63c af77 41bc 302e 053d c5c5 573d
000003b0: 33f2 b13c 0c37 8a3c 7cbd 363c de19 8abc
000003c0: a0dd a73c 987d 353c 5bd1 223d 961e d1bc
000003d0: 8389 19bc f187 a0bb eae4 8fbc f809 debc
000003e0: a53d c5bc b21b 143d 9dfb aa3c dffb 8c3c
000003f0: 9182 0e3c d63c dcbc 21f1 9e3b bbc5 393d
-0.0030712043 0.020179216 0.03379 -0.03114833 -0.023339849 -0.018885056 -0.014332942 -0.009602968
0.04556217 0.03482895 0.035815924 0.02489325 -0.0018139768 -0.0014073997 -0.013556444 0.029859759
0.0111048315 -0.009714085 0.022719735 0.0018873814 0.0050104437 -0.002720303 0.03872491 -0.017761655
0.007469671 -0.008244537 0.007139367 0.015074141 0.022475202 -0.01593284 -0.011408116 -0.013045199
-0.02182511 0.022684366 0.046321195 0.028488314 -0.01419923 0.0084902765 -0.007367453 -0.031030772
-0.016719168 -0.023112286 0.046053603 -0.018457543 0.008141101 -0.012076581 -0.007943746 0.0038219641
-0.0058075213 0.019855823 -0.021969946 0.0044378918 0.0139321145 -0.030586835 0.022511372 0.01492659
-0.006631262 0.0045036594 -0.0010953574 -0.024370203 0.030109068 0.027882662 0.06185515 0.028858334
-0.008538692 0.0021360624 0.019383613 0.021098318 0.02999796 0.016429259 0.018427921 -0.038522713
0.0055639595 0.013381122 0.00064520614 0.013769422 0.033884626 0.0029942922 0.04066982 -0.02429461
-0.011842046 -0.010556289 -0.044292957 0.015049257 0.008331922 -0.018400047 0.022810182 0.006279393
-0.05782622 0.0410706 -0.029789574 -0.0045988616 -0.012701486 -0.026657436 -0.0020220901 0.0033752336
-0.0027107783 0.03488778 0.027897507 -0.048417956 0.00091615587 0.03378611 -0.031037992 0.008402342
0.038045198 0.027022155 0.028328413 0.012634085 -0.012416456 0.025161935 0.011931776 -0.0141565045
-0.019599682 -0.024508098 0.028232235 -0.039579563 0.008397478 -0.039038755 -0.030560449 -0.018610409
-0.0075489255 -0.00031026255 0.01905536 0.04222233 -0.004577693 -0.045662936 -0.021105131 0.029691609
-0.045713857 -0.0060546054 0.028709678 -0.05008421 -0.012161451 0.009451818 0.035786934 -0.051793627
-0.023037525 0.022182146 0.016500855 -0.0006467235 0.023543809 0.024338918 -0.021974772 -0.0003472465
-0.0076191854 0.021575345 0.028784422 0.012488157 0.048235655 0.023521796 -0.007123419 0.045352954
0.022398906 0.046570074 -0.018736614 0.0034304177 -0.007645336 0.021708386 0.019125437 0.034124933
0.023118295 -0.054590855 0.01910893 0.036048032 -0.0151202455 -0.027244639 0.04676605 0.024891872
-0.014906841 -0.01914093 0.04726353 0.016660169 -0.033588283 -0.038142923 -0.037062682 0.0025944985
-0.0001457506 -0.03018473 0.0077860975 -0.019431503 -0.0017504271 -0.03087697 0.03986911 -0.041815538
0.02697239 0.0417894 0.014427525 0.003833791 0.026363496 0.017120568 -0.046175886 -0.022400089
0.020333996 -0.036606014 0.035563327 -0.0040083905 -0.0064679654 0.03008403 -0.009058167 -0.042986084
0.019344712 0.020447712 -0.03355566 0.020185418 -0.049654804 -0.024254844 0.0069763116 -0.04762999
-0.034369905 0.041042663 0.005748135 -0.023992775 0.05074315 -0.013904294 -0.018846275 0.021207228
0.0053863754 -0.0030697607 -0.023728162 0.011779794 0.021853883 0.010852894 -0.025111893 -0.01637289
0.0075796694 0.061566897 0.042976625 -0.012200339 -0.0018338996 -0.012839669 0.017264608 0.011893255
0.02617317 -0.01180832 0.03251475 0.052678842 0.021721935 0.016871952 0.011153575 -0.016858038
0.020491421 0.011077307 0.03975044 -0.02552728 -0.009371164 -0.004899018 -0.01756521 -0.027104363
-0.024077246 0.036159225 0.020871932 0.017209945 0.008698122 -0.026884478 0.004850522 0.045354586

model.2.bias f4 [12]
00000000: 367f 163d 0885 36bc 55ec 483d 17be e2bc
00000010: 9129 1e3c 378f 433c 7dc6 4c3d aefa 92bc
00000020: 1a19 1e3c 027c f03c a1b8 e6bb 5049 423d
0.03674241 -0.011140116 0.04905351 -0.027678533 0.009653465 0.011936001 0.04999398 -0.017941799
0.009649539 0.029356007 -0.0070410524 0.047433197
